trained_models/tetris_auto_5000.pt (torch, 61767 bytes, 15 tensors)

conv1.0.weight f4 [64, 4]
0.16021448 0.17464365 -0.115514934 -0.09247254 0.1834253 0.2844746 0.07752778 -0.30626774
-0.22122493 0.005496621 -0.05936277 -0.29000074 0.4700189 -0.24955118 -0.077861905 0.0970328
0.13370514 0.16180038 -0.122219436 -0.09490715 -0.14473014 -0.16461894 -0.18417099 0.0039769113
0.044929955 0.23182403 -0.009096453 0.027726255 -0.10543646 0.014009148 -0.08960356 -0.21146168
-0.31434435 -0.2920003 0.087469876 0.053008616 -0.106068626 0.8400139 0.31560573 -0.30938315
-0.027792543 -0.1428807 -0.17781311 -0.24844646 0.8577068 -0.2058106 -0.14527804 0.06532668
0.28717262 -0.23603418 0.13520546 -0.29760072 -0.05504875 0.049714714 0.06204856 -0.22623879
0.25310498 -0.17464134 -0.18021834 -0.005252987 -0.33584443 0.16045539 0.13684137 -0.022890348
0.03321594 -0.1471171 0.06501201 -0.15898432 0.023276309 0.069471344 0.20934433 0.17544863
0.102595694 0.15239269 0.061517823 0.048844002 0.23842692 -0.2559391 -0.08341859 -0.16188215
-0.16470294 0.13178664 -0.17420292 -0.23067507 -0.16524719 -0.14318843 0.04722144 0.010810831
-0.09962383 -0.28869078 -0.089413404 -0.23495898 0.03588025 -0.06827605 0.1048791 0.07224658
-0.36266178 0.00067569746 0.4674781 0.14072232 -0.18052082 0.029139757 0.011718363 -0.2968142
-1.049704 -0.05197142 -0.022305235 0.025732528 -0.20557773 -0.24733737 0.085240334 -0.22448528
0.029353075 0.25866523 -0.15229303 -0.008046733 0.0970012 -0.23524892 -0.2028532 0.16435197
0.043873664 -0.07178559 -0.25193053 0.057812996 0.31332245 -0.31544155 -0.12934628 0.096644476
0.23664878 0.16970088 0.11226143 0.08647779 -0.006337929 -0.8636082 -0.012836269 0.08424174
0.027249992 -0.16054742 -0.2584153 -0.06084034 -0.3783576 -0.21010306 -0.16996194 0.10817034
0.35660067 -0.06419235 0.440836 -0.1569479 0.38705078 0.1956911 0.19975851 -0.002413062
0.32237443 -0.5741169 0.19425859 0.086117975 0.7749911 -0.29963014 -0.09598158 0.08096057
0.11664339 -0.2247308 -0.13820262 0.13112175 -0.53895843 -0.21015018 -0.15837021 0.067534514
0.10156894 0.06861195 -0.13519704 -0.2960228 0.7980373 0.3626421 0.51121855 -0.11390594
0.0974991 -0.26480797 -0.178929 -0.20029369 -0.39422724 -0.44132513 0.26381934 0.044414606
-0.56147027 -0.20661676 0.44932675 0.038811788 0.22356254 -0.1468682 -0.013927281 0.1580052
-0.21844058 -0.230491 -0.04954855 0.0011838675 -0.33839488 -0.23882571 -0.18981959 0.04039824
0.061921537 0.18620178 -0.08788931 -0.109467775 0.5712199 -0.49054223 -0.05778818 0.08025527
-0.18722457 -0.053530194 -0.065349475 -0.026678342 0.10338563 0.006560445 -0.2681481 -0.10589668
-0.33199558 0.14341342 0.33743376 -0.0126078 -0.041625317 0.22898878 0.09431622 -0.024434572
0.24598074 -0.06623873 0.05073273 -0.219194 0.10501917 0.09503957 -0.07031429 0.08281579
-0.24643327 -0.1814986 -0.07915051 -0.2679278 -0.12624915 -0.13930668 -0.22355548 0.00015372038
0.02511254 -0.0664834 0.08043956 -0.14899361 0.040626734 0.26195714 0.097912855 -0.356826
0.7121574 -0.17187071 0.04350553 0.11930004 0.5491494 -0.13811201 -0.30421913 0.13047038
00000000: 440f 243e c9d5 323e 1893 ecbd 3e62 bdbd
00000010: d8d3 3b3e a8a6 913e e2c6 9e3d 20cf 9cbe
00000020: ca88 62be 001d b43b 6026 73bd fa7a 94be
00000030: 51a6 f03e 588a 7fbe 1076 9fbd 22b9 c63d
00000040: 00ea 083e 00af 253e 2f4e fabd ae5e c2bd
00000050: 2334 14be de91 28be 5297 3cbe c050 823b
00000060: 7908 383d 4763 6d3e 4a09 15bc 2c22 e33c
00000070: 12ef d7bd a086 653c 1282 b7bd 6989 58be
00000080: bef1 a0be 1081 95be 6823 b33d 901f 593d
00000090: 823a d9bd 270b 573f 1397 a13e 7867 9ebe
000000a0: 30ad e3bc 514f 12be a414 36be c068 7ebe
000000b0: ac92 5b3f 04c0 52be c4c3 14be ffc9 853d
000000c0: 4a08 933e f2b2 71be 4d73 0a3e 1f5f 98be
000000d0: cc7a 61bd a8a1 4b3d a126 7e3d 24ab 67be
000000e0: fa96 813e 2ed5 32be 288b 38be 4021 acbb
000000f0: cdf3 abbe 6b4e 243e 2520 0c3e 8a84 bbbc
00000100: 700d 083d dda5 16be 0425 853d c9cc 22be
00000110: f5ad be3c fe46 8e3d 5c5e 563e cea8 333e
00000120: b11d d23d d40c 1c3e 1dfa 7b3d a610 483d
00000130: 3026 743e 730a 83be 5ed7 aabd 6fc4 25be
00000140: e3a7 28be 14f3 063e 4062 32be 1636 6cbe
00000150: 8f36 29be fd9f 12be 456b 413d e91f 313c
00000160: 9407 ccbd 47cf 93be 601e b7bd 1699 70be
00000170: 2bf7 123d 50d4 8bbd dbca d63d 04f6 933d
00000180: ceae b9be 4a21 313a 4a59 ef3e 8319 103e
00000190: 73da 38be 80b6 ee3c 60fe 3f3c 08f8 97be
000001a0: b35c 86bf fcdf 54bd 78b9 b6bc 06cd d23c
000001b0: f882 52be 0246 7dbe 7c92 ae3d 78df 65be
000001c0: dc75 f03c c56f 843e b4f2 1bbe 72d6 03bc
000001d0: 91a8 c63d 18e5 70be c0b8 4fbe e24b 283e
000001e0: dfb4 333d 5304 93bd 0afd 80be 52cd 6c3d
000001f0: cd6b a03e 8e81 a1be 5a73 04be 8aed c53d
00000200: 0f54 723e 11c6 2d3e 52e9 e53d 441b b13d
00000210: 67ae cfbb 6d15 5dbf 374f 52bc ef86 ac3d
00000220: 603b df3c 8b66 24be 034f 84be b833 79bd
00000230: 16b8 c1be 4225 57be 810a 2ebe 6988 dd3d
00000240: 5d94 b63e 4777 83bd 42b5 e13e f3b6 20be
00000250: 852b c63e 3f63 483e 7f8d 4c3e 7624 1ebb
00000260: 430e a53e 53f9 12bf b9eb 463e 9f5e b03d
00000270: d165 463f 1f69 99be fe91 c4bd a8ce a53d
00000280: bbe2 ee3d d51f 66be fd84 0dbe c844 063e
00000290: 2ef9 09bf 9c31 57be cd2b 22be 894f 8a3d
000002a0: 6003 d03d 6c84 8c3d 1871 0abe 4d90 97be
000002b0: 2c4c 4c3f 3aac b93e 38df 023f 8447 e9bd
000002c0: 9cad c73d e994 87be 2a39 37be ca19 4dbe
000002d0: 27d8 c9be 5ef5 e1be 5413 873e 17ec 353d
000002e0: 84bc 0fbf 5893 53be 280e e63e 1cf9 1e3d
000002f0: 94ed 643e 9e64 16be 402f 64bc 1dcc 213e
00000300: e3ae 5fbe d505 6cbe 6cf3 4abd 002c 9b3a
00000310: 1842 adbe ba8e 74be 1160 42be a078 253d
00000320: 70a1 7d3d aeab 3e3e 50ff b3bd a430 e0bd
00000330: 783b 123f 5a28 fbbe 4cb3 6cbd e05c a43d
00000340: ccb7 3fbe 7a42 5bbd f2d5 85bd 8a8c dabc
00000350: d8bb d33d 00f9 d63b b54a 89be 5ce0 d8bd
00000360: 53fb a9be f8da 123e 1ec4 ac3e f290 4ebc
00000370: 4f7f 2abd 097c 6a3e dd28 c13d 032b c8bc
00000380: 60e2 7b3e 2ca8 87bd 20cd 4f3d 6474 60be
00000390: 4a14 d73d 1ba4 c23d f000 90bd 539b a93d
000003a0: 0159 7cbe c5da 39be aa19 a2bd d52d 89be
000003b0: 7547 01be 69a6 0ebe baeb 64be 0030 2139
000003c0: d0b8 cd3c 7328 88bd 7fbd a43d c891 18be
000003d0: 3868 263d 3f1f 863e 8986 c83d e6b1 b6be
000003e0: f34f 363f e0fe 2fbe db32 323d 9453 f43d
000003f0: 0e95 0c3f 3c6d 0dbe 9cc2 9bbe 079a 053e

conv1.0.bias f4 [64]
-0.087152764 0.57257634 0.0 -1.9533647 -0.006719434 0.0 -1.5917661 0.0
1.2365956 0.77141666 0.0 1.3694999 -0.037562493 0.22309233 0.0 1.7070916
-0.01625119 -1.328835 -1.4528816 0.0 0.0 1.2788439 0.0 1.2214365
0.70353997 0.0 -1.5899478 0.0 1.871185 -1.8385637 1.4292189 1.4940338
-1.4720081 0.31419584 0.0 1.4222559 0.8069398 -1.5662078 0.7384929 1.4832627
1.3695585 -2.186953 0.0 -0.029616894 0.0 -1.8511378 0.22232258 -1.7987072
0.0 1.3621353 -0.017626146 0.54210013 1.3752197 0.0 1.2291273 1.5709438
0.0 -1.8069739 0.0 0.0 -0.06235812 0.5020796 -1.7720342 -1.7085209
00000000: 267d b2bd 5d94 123f 0000 0000 db07 fabf
00000010: b32e dcbb 0000 0000 febe cbbf 0000 0000
00000020: c448 9e3f 907b 453f 0000 0000 c64b af3f
00000030: 21db 19bd 5172 643e 0000 0000 fa81 da3f
00000040: 3721 85bc 4417 aabf 06f8 b9bf 0000 0000
00000050: 0000 0000 28b1 a33f 0000 0000 0858 9c3f
00000060: 321b 343f 0000 0000 6983 cbbf 0000 0000
00000070: fd82 ef3f 0e56 ebbf a5f0 b63f 803c bf3f
00000080: c36a bcbf 47de a03e 0000 0000 7b0c b63f
00000090: 9b93 4e3f 7f79 c8bf df0d 3d3f 8ddb bd3f
000000a0: b14d af3f 0af7 0bc0 0000 0000 219f f2bc
000000b0: 0000 0000 15f2 ecbf 88a8 633e 0a3c e6bf
000000c0: 0000 0000 735a ae3f b564 90bc 13c7 0a3f
000000d0: 3307 b03f 0000 0000 0b54 9d3f b014 c93f
000000e0: 0000 0000 ec4a e7bf 0000 0000 0000 0000
000000f0: 3a6b 7fbd 4a88 003f 04d2 e2bf d0b0 dabf

conv2.0.weight f4 [64, 64]
0.1822964 0.0886162 0.16466476 0.31311026 0.030294286 0.1291288 0.19572267 -0.11275441
-0.048820674 0.0073712263 0.04481326 -0.35352698 0.0390922 0.057932515 0.12480484 -0.20970897
0.19440731 0.19081847 0.17566375 0.002361238 0.18885173 -0.49619663 0.03567876 0.1247009
-0.03199821 0.16988613 0.17195806 0.05003138 -0.26029158 -0.045823272 -0.045465235 -0.21021481
-0.032927528 0.051854525 0.020541042 -0.32169798 0.22979762 0.1862245 0.060920842 -0.0017343757
-0.11975847 0.24695705 0.027948156 0.0038592604 0.10847093 0.34935316 0.061567053 0.16556059
-0.0712924 -0.1495039 0.12683965 0.04302567 -0.2244176 0.17605509 -0.07910902 -0.17620984
0.11919345 0.24526133 -0.0526962 0.113080755 0.10012112 -0.125106 -0.09739279 0.25508446
0.15309317 0.23577213 0.059750274 0.33648035 0.18118457 -0.03839852 -0.026145903 -0.025973484
-0.10668496 -0.21578072 0.15951438 0.08281928 -0.12347447 0.19956557 0.07459025 -0.16069944
-0.051757425 0.13424928 0.20083755 -0.034490407 -0.14289337 -0.27750298 -0.09849731 -0.20221433
0.029444618 0.013820872 -0.13294956 0.06570794 -0.18852045 0.21277109 0.11645802 0.07525444
0.006054254 0.54103583 -0.10798431 -0.17945032 0.029726433 0.0058664354 -0.10558967 0.0073405816
-0.279916 0.6148631 -0.019547269 -0.0834822 0.0010935217 0.6111694 -0.093156405 0.15597813
-0.13973466 -0.3505584 0.1303599 0.18602481 -0.07686039 -0.027843595 -0.18978694 -0.112961456
-0.01872161 0.044999912 0.11623885 -0.0012947917 0.07389217 0.04735648 0.13632219 -0.114249825
0.18381785 -0.1971368 0.14967568 -0.19381136 0.17523023 0.16101067 0.16224071 0.045295045
0.19766328 0.081042014 -0.15943748 0.0102864085 -0.19838774 0.04477381 0.11066519 -0.15102908
0.14603047 -0.00504619 0.17319281 -0.13272324 -0.059641287 0.16696948 -0.112735726 -0.2284132
-0.05707241 0.15080808 -0.09334303 -0.11930955 -0.23675577 -0.23306091 0.037575904 0.109501146
-0.047081698 0.1107704 -0.009994164 -0.08054654 -0.19991307 0.075249426 -0.0002487135 -0.18154305
-0.0031713943 -0.08875631 0.09363301 -0.1168504 -0.1734691 -0.063450776 -0.0041971644 0.10210559
-0.015918493 0.030596204 0.12198057 -0.10838954 -0.10953548 0.15019484 0.06283837 -0.0016622124
-0.029317185 0.062401634 -0.04213451 0.004796788 0.13978569 -0.1791316 -0.13570043 0.003982084
0.11792739 -0.19078922 0.014800444 -0.016468054 0.020336956 -0.119229645 -0.16970266 0.008734167
-0.043577995 -0.19866139 -0.085062444 0.10965455 0.17505191 -0.07469253 0.027788848 -0.19443357
0.06452246 0.059003677 0.1517796 0.10949154 -0.10560625 -0.06000483 -0.091941915 0.026186239
-0.1841323 -0.020236328 -0.042924795 -0.08703716 0.11846285 -0.08708797 0.1310775 -0.11391754
0.027056027 -0.098309755 -0.025936991 -0.013864253 0.037679657 -0.15259257 -0.21441497 0.13407946
0.025300276 -0.023189714 -0.023847759 -0.14357233 0.03201352 -0.23722391 -0.07835621 0.07110805
-0.097349666 0.1083875 0.09294458 0.08934265 -0.13430746 0.12315501 -0.071386494 -0.05127632
-0.123448245 -0.048628114 0.024343953 0.19075991 0.025384024 -0.10364178 -0.24105625 0.035714187
00000000: e8ab 3a3e 697c b53d e19d 283e fd4f a03e
00000010: b92b f83c 573a 043e 866b 483e c9eb e6bd
00000020: 30f8 47bd 548a f13b 1c8e 373d 7d01 b5be
00000030: 251f 203d a54a 6d3d ae99 ff3d f3bd 56be
00000040: b612 473e eb65 433e 33e1 333e 00bf 1a3b
00000050: 5962 413e 7c0d febe e423 123d 2f63 ff3d
00000060: 8e10 03bd a1f6 2d3e c615 303e b4ed 4c3d
00000070: f044 85be 2fb1 3bbd c139 3abd 8d42 57be
00000080: 04df 06bd 6965 543d b045 a83c 99b5 a4be
00000090: 1150 6b3e a3b1 3e3e 2288 793d fe53 e3ba
000000a0: ee43 f5bd 4fe2 7c3e 88f3 e43c a5eb 7c3b
000000b0: 0226 de3d 6bde b23e bc2d 7c3d b788 293e
000000c0: c001 92bd 8d17 19be 41e2 013e af3b 303d
000000d0: bacd 65be c947 343e e903 a2bd 5a70 34be
000000e0: b21b f43d c925 7b3e f8d7 57bd e296 e73d
000000f0: 4d0c cd3d ca1b 00be df75 c7bd 6e9a 823e
00000100: 75c4 1c3e 406e 713e b4bc 743d 2747 ac3e
00000110: 7388 393e c447 1dbd ef2f d6bc 58c6 d4bc
00000120: a57d dabd 9ff5 5cbe bd57 233e 289d a93d
00000130: 2fe0 fcbd eb5a 4c3e c6c2 983d 658e 24be
00000140: 98ff 53bd a578 093e 5ca8 4d3e d045 0dbd
00000150: a452 12be df14 8ebe f5b8 c9bd 4611 4fbe
00000160: d735 f13c f070 623c ee23 08be e291 863d
00000170: 810b 41be aae0 593e 8b81 ee3d 001f 9a3d
00000180: c362 c63b 5381 0a3f e126 ddbd d3c1 37be
00000190: d984 f33c 3a3b c03b 663f d8bd 4389 f03b
000001a0: 2651 8fbe ab67 1d3f 9821 a0bc b7f8 aabd
000001b0: 8054 8f3a 9975 1c3f c9c8 bebd bbb8 1f3e
000001c0: 9a16 0fbe 647c b3be 117d 053e 4a7d 3e3e
000001d0: fb68 9dbd 4018 e4bc 8257 42be 5658 e7bd
000001e0: 105e 99bc d451 383d a20e ee3d 00b6 a9ba
000001f0: c754 973d def8 413d 0b98 0b3e d0fb e9bd
00000200: bf3a 3c3e 3bde 49be 9544 193e 7c76 46be
00000210: 8e6f 333e fbdf 243e 6e22 263e 4c87 393d
00000220: 3e68 4a3e 5bf9 a53d 9443 23be 5388 283c
00000230: 2826 4bbe be64 373d 6ea4 e23d 5ea7 1abe
00000240: 0389 153e 835a a5bb 7559 313e 9ae8 07be
00000250: 6c4a 74bd 0cfa 2a3e fde1 e6bd 26e5 69be
00000260: c2c4 69bd 6f6d 1a3e a12a bfbd 9158 f4bd
00000270: 1b70 72be 85a7 6ebe 31e9 193d 2342 e03d
00000280: bdd8 40bd 97db e23d 90be 23bc 96f5 a4bd
00000290: 03b6 4cbe 5f1c 9a3d c365 82b9 6ce6 39be
000002a0: 2bd7 4fbb dec5 b5bd aac2 bf3d 434f efbd
000002b0: e2a1 31be 7bf2 81bd 5e88 89bb bc1c d13d
000002c0: 8067 82bc e4a4 fa3c f3d0 f93d 56fb ddbd
000002d0: 2354 e0bd adcc 193e 67b1 803d 98de d9ba
000002e0: 982a f0bc db98 7f3d 3c95 2cbd 602e 9d3b
000002f0: fb23 0f3e 466e 37be 0ef5 0abe 247c 823b
00000300: ea83 f13d 405e 43be 907d 723c 03e8 86bc
00000310: b099 a63c ac2e f4bd 89c6 2dbe c019 0f3c
00000320: d77e 32bd e46d 4bbe 3835 aebd 9192 e03d
00000330: cf40 333e 66f8 98bd 70a5 e33c 9819 47be
00000340: 5a24 843d d7ad 713d 1d6c 1b3e 1a3d e03d
00000350: 1748 d8bd a0c7 75bd 0b4c bcbd 8684 d63c
00000360: 2d8d 3cbe a8c6 a5bc e9d1 2fbd 8a40 b2bd
00000370: a79c f23d 2d5b b2bd 2e39 063e 994d e9bd
00000380: 9aa4 dd3c a056 c9bd d079 d4bc e426 63bc
00000390: fc55 1a3d 3a41 1cbe 998f 5bbe 204c 093e
000003a0: 8642 cf3c 5bf8 bdbc 605c c3bc a004 13be
000003b0: 9c20 033d d3ea 72be 3879 a0bd 19a1 913d
000003c0: 435f c7bd 44fa dd3d ba59 be3d 47f9 b63d
000003d0: e587 09be b238 fc3d 1533 92bd 1e07 52bd
000003e0: 6fd2 fcbd 462e 47bd f86c c73c 9156 433e
000003f0: 28f2 cf3c 2442 d4bd 73d7 76be 0a49 123d

conv2.0.bias f4 [64]
-1.4085258 -1.5170177 -0.01445397 -0.0174747 -1.4783578 -0.94866574 1.4845521 1.0915143
0.100531176 -1.4380847 0.0 0.9908673 -1.4008818 0.11598568 1.0028133 1.0179468
1.3930383 0.91870546 0.98715585 -0.9494521 0.0 -1.541202 1.5595832 0.94201523
1.0425642 -0.035696972 1.2570996 0.9579437 -0.03543315 -1.3942037 1.1367955 0.9141008
-1.3787196 -0.91194624 -1.5298495 -1.3598343 -1.04761 0.9769904 -1.5201032 -1.0546998
0.0 0.9817036 0.96138656 0.0 1.1010938 0.94780946 1.1069312 1.2395663
-0.005558882 1.0357815 0.68779624 1.0321034 1.5326635 -0.014682619 -1.5244194 -0.007182114
0.1921364 -0.04114802 -0.5637553 -1.6288011 0.091087945 1.1975019 -1.465415 -1.0302945
00000000: 934a b4bf a32d c2bf 58d0 6cbc 1a27 8fbc
00000010: d43a bdbf c2db 72bf ce05 be3f beb6 8b3f
00000020: 4ae3 cd3d 2913 b8bf 0000 0000 7ba9 7d3f
00000030: 1850 b3bf e689 ed3d 305c 803f 154c 823f
00000040: 144f b23f 4830 6b3f 3fb6 7c3f 4b0f 73bf
00000050: 0000 0000 1b46 c5bf 6ca0 c73f e927 713f
00000060: be72 853f fd36 12bd a4e8 a03f cc3b 753f
00000070: 5a22 11bd 4475 b2bf 8482 913f 8302 6a3f
00000080: e279 b0bf 4f75 69bf 1cd2 c3bf 0d0f aebf
00000090: 1618 86bf 0b1c 7a3f be92 c2bf 6700 87bf
000000a0: 0000 0000 ed50 7b3f 6e1d 763f 0000 0000
000000b0: a4f0 8c3f a4a3 723f ecaf 8d3f 1caa 9e3f
000000c0: 4827 b6bb 7d94 843f 6a13 303f f71b 843f
000000d0: 512e c43f 5e8f 70bc 2d20 c3bf f057 ebbb
000000e0: 68bf 443e d48a 28bd 4452 10bf 8e7c d0bf
000000f0: 518c ba3d be47 993f b892 bbbf b1e0 83bf

conv3.0.weight f4 [1, 64]
-0.40897775 -0.41319662 -0.10294003 0.011380944 -0.49570543 -0.10609241 1.2130462 0.3508743
-0.33644578 -0.3607344 -0.23173244 0.7168513 -0.4038161 -1.59855 0.21193099 0.35227105
0.74762356 0.120529406 0.18810971 -0.21485396 0.12923238 -0.56886566 1.508781 0.43499514
0.41224256 -0.19254954 1.2292433 0.63389075 -0.19883552 -0.36734292 1.2175168 1.127008
-0.2731763 -0.07173944 -0.639432 -0.44532987 -0.081592865 0.3122011 -0.84767467 -0.17988661
0.25726563 0.3983706 0.56919426 -0.12908547 1.6102712 0.95304155 0.23061003 1.1115664
-0.09947663 0.3816099 0.15288761 0.4465432 0.5179511 0.04019746 -0.514756 0.02023208
-0.97370607 0.029142058 -0.54234827 -0.71899146 0.38084686 0.628364 -0.44830316 -0.06831181
00000000: 8865 d1be 828e d3be 39d2 d2bd 2477 3a3c
00000010: 1acd fdbe fa46 d9bd 1945 9b3f cca5 b33e
00000020: 9f42 acbe 2eb2 b8be 454b 6dbe 9183 373f
00000030: fcc0 cebe 499d ccbf 7004 593e df5c b43e
00000040: 4264 3f3f 1fd8 f63d d59f 403e ad02 5cbe
00000050: 7e55 043e 2ea1 11bf bc1f c13f afb7 de3e
00000060: 7511 d33e b52b 45be d857 9d3f aa46 223f
00000070: 8a9b 4bbe 5f14 bcbe 97d7 9b3f cc41 903f
00000080: c4dd 8bbe 21ec 92bd d1b1 23bf 4702 e4be
00000090: 291a a7bd d3d8 9f3e 3501 59bf 3234 38be
000000a0: 52b8 833e 3bf7 cb3e b7b6 113f fb2e 04be
000000b0: 5e1d ce3f 88fa 733f 0925 6c3e cf47 8e3f
000000c0: 67ba cbbd 5f62 c33e 928e 1c3e 4fa1 e43e
000000d0: 7198 043f 18a6 243d 0dc7 03bf bfbd a53c
000000e0: cd44 79bf 53bb ee3c 56d7 0abf d30f 38bf
000000f0: 5cfe c23e 77dc 203f fe87 e5be 10e7 8bbd

exp_avg f4 [64, 4]
6e-45 6e-45 6e-45 6e-45 0.0 6e-45 6.614969e-36 3.3074845e-36
0.0 0.0 0.0 0.0 0.2960636 19.415918 8.044109 180.06876
0.0 6e-45 6e-45 6e-45 0.0 0.0 0.0 0.0
0.15527712 9.321475 3.4639678 97.634995 0.0 0.0 0.0 0.0
-0.10086143 -10.253098 -4.6733885 -97.79318 -0.010047274 1.0659394 -7.58922 -2.384777
0.0 0.0 0.0 0.0 -0.14069574 -18.523544 -7.897878 -171.13095
0.0 0.0 6e-45 6e-45 0.0 -6e-45 6e-45 6e-45
0.0 0.0 0.0 0.0 -0.37832624 -26.75888 -11.72037 -248.35153
0.0 0.0 6e-45 6e-45 0.008577634 1.778929 0.7895622 21.773365
0.0876395 7.8028555 3.9088159 80.77588 0.0 0.0 0.0 0.0
0.0 0.0 0.0 0.0 -0.32793042 -23.337666 -10.094521 -227.97952
0.0 0.0 0.0 0.0 -0.10292408 -7.815793 -2.529323 -70.63701
-0.06864387 -4.4713726 -1.8401839 -39.073715 0.0 0.0 0.0 0.0
0.115615 15.032162 7.261279 128.18025 0.0 0.0 0.0 0.0
-0.22391905 -14.185783 -5.021699 -132.62273 0.23836258 17.973856 8.353021 165.54303
0.011786386 -0.4090964 -0.66728646 -5.6323624 -0.1969641 -20.73266 -8.489983 -193.53487
-0.012475545 1.9539087 1.8253126 22.697432 1.3534403 28.322071 12.552983 268.42584
0.0 0.0 0.0 0.0 -0.19908428 -15.606643 -6.158256 -152.06693
-0.033215467 0.4158718 -0.8023484 -0.9155964 0.15110825 12.586145 4.287817 126.50415
-0.028689722 -2.587472 -0.9527581 -30.399841 -0.2320997 -22.427979 -8.512093 -208.82529
-0.16551925 -15.743229 -5.9619427 -156.49826 0.98451453 55.35109 21.629194 531.90137
0.0 0.0 0.0 0.0 -0.35307622 -0.2113992 -1.2261986 0.7507305
0.0 0.0 0.0 0.0 2.0251484 19.913454 16.420769 194.90335
-0.060450118 -4.2369347 -1.756145 -37.329327 0.18951765 12.811655 5.0049143 123.44294
0.0 0.0 0.0 0.0 -0.6721277 -39.996384 -15.325404 -404.60696
0.0 6e-45 6e-45 6e-45 0.047432154 3.2229252 1.3368739 23.80855
0.047414105 -0.7967925 0.7346723 -0.8685651 0.0 0.0 0.0 0.0
-0.17273086 -10.578195 -4.576858 -94.212906 -0.29418916 -19.697058 -8.232772 -182.22633
0.0 0.0 0.0 0.0 0.21434969 13.115944 4.7198987 129.35246
0.0 0.0 0.0 0.0 0.0 0.0 0.0 0.0
0.0 -6e-45 6e-45 6e-45 0.0 6e-45 4.300255e-36 2.1501274e-36
0.104302086 9.016694 3.716674 85.06389 0.21997787 12.881735 5.1626263 119.51393
00000000: 0400 0000 0400 0000 0400 0000 0400 0000
00000010: 0000 0000 0400 0000 51af 0c05 51af 8c04
00000020: 0000 0000 0000 0000 0000 0000 0000 0000
00000030: a695 973e cd53 9b41 acb4 0041 9a11 3443
00000040: 0000 0000 0400 0000 0400 0000 0400 0000
00000050: 0000 0000 0000 0000 0000 0000 0000 0000
00000060: f700 1f3e c324 1541 a6b1 5d40 1e45 c342
00000070: 0000 0000 0000 0000 0000 0000 0000 0000
00000080: 7090 cebd b00c 24c1 668c 95c0 1c96 c3c2
00000090: 529d 24bc b470 883f e4da f2c0 30a0 18c0
000000a0: 0000 0000 0000 0000 0000 0000 0000 0000
000000b0: 8b12 10be 3830 94c1 6bbb fcc0 8621 2bc3
000000c0: 0000 0000 0000 0000 0400 0000 0400 0000
000000d0: 0000 0000 0400 0080 0400 0000 0400 0000
000000e0: 0000 0000 0000 0000 0000 0000 0000 0000
000000f0: fab3 c1be 3012 d6c1 a386 3bc1 fe59 78c3
00000100: 0000 0000 0000 0000 0400 0000 0400 0000
00000110: 3489 0c3c f2b3 e33f c020 4a3f da2f ae41
00000120: 577c b33d feb0 f940 0a2a 7a40 408d a142
00000130: 0000 0000 0000 0000 0000 0000 0000 0000
00000140: 0000 0000 0000 0000 0000 0000 0000 0000
00000150: 7fe6 a7be 8ab3 bac1 2883 21c1 c2fa 63c3
00000160: 0000 0000 0000 0000 0000 0000 0000 0000
00000170: dcc9 d2bd fa1a fac0 6ee0 21c0 2646 8dc2
00000180: 2895 8cbd 7c15 8fc0 258b ebbf 7c4b 1cc2
00000190: 0000 0000 0000 0000 0000 0000 0000 0000
000001a0: 8fc7 ec3d bc83 7041 665c e840 252e 0043
000001b0: 0000 0000 0000 0000 0000 0000 0000 0000
000001c0: 094b 65be f8f8 62c1 c2b1 a0c0 6b9f 04c3
000001d0: 5215 743e 75ca 8f41 f9a5 0541 048b 2543
000001e0: b01b 413c 1575 d1be 49d3 2abf 503c b4c0
000001f0: f5b0 49be 7ddc a5c1 f8d6 07c1 ed88 41c3
00000200: 3a66 4cbc ae19 fa3f d8a3 e93f 5794 b541
00000210: 883d ad3f 9a93 e241 05d9 4841 8236 8643
00000220: 0000 0000 0000 0000 0000 0000 0000 0000
00000230: c0dc 4bbe cfb4 79c1 6f10 c5c0 2211 18c3
00000240: f10c 08bd 26ed d43e b466 4dbf 8764 6abf
00000250: 1fbc 1a3e da60 4941 cc35 8940 2002 fd42
00000260: b506 ebbc 2499 25c0 f4e7 73bf e032 f3c1
00000270: 8bab 6dbe 806c b3c1 8831 08c1 46d3 50c3
00000280: e17d 29be 44e4 7bc1 3cc8 bec0 8e7f 1cc3
00000290: 2509 7c3f 8467 5d42 9708 ad41 b0f9 0444
000002a0: 0000 0000 0000 0000 0000 0000 0000 0000
000002b0: 68c6 b4be 0879 58be 13f4 9cbf e02f 403f
000002c0: 0000 0000 0000 0000 0000 0000 0000 0000
000002d0: 089c 0140 c14e 9f41 bc5d 8341 42e7 4243
000002e0: 8b9a 77bd f894 87c0 5cc9 e0bf 3b51 15c2
000002f0: ea10 423e 8afc 4c41 4228 a040 c9e2 f642
00000300: 0000 0000 0000 0000 0000 0000 0000 0000
00000310: 9010 2cbf 4cfc 1fc2 db34 75c1 b14d cac3
00000320: 0000 0000 0400 0000 0400 0000 0400 0000
00000330: 3848 423d 6844 4e40 af1e ab3f e977 be41
00000340: 4b35 423d 98fa 4bbf 7c13 3c3f 485a 5ebf
00000350: 0000 0000 0000 0000 0000 0000 0000 0000
00000360: 5ce0 30be 4940 29c1 9f75 92c0 026d bcc2
00000370: f69f 96be 9393 9dc1 6fb9 03c1 f139 36c3
00000380: 0000 0000 0000 0000 0000 0000 0000 0000
00000390: 7c7e 5b3e e8da 5141 6909 9740 3b5a 0143
000003a0: 0000 0000 0000 0000 0000 0000 0000 0000
000003b0: 0000 0000 0000 0000 0000 0000 0000 0000
000003c0: 0000 0000 0400 0080 0400 0000 0400 0000
000003d0: 0000 0000 0400 0000 a1e9 b604 a1e9 3604
000003e0: 559c d53d 6144 1041 fddd 6d40 b620 aa42
000003f0: e141 613e 961b 4e41 3c34 a540 2207 ef42

exp_avg_sq f4 [64, 4]
2.0726725e-09 0.5981594 0.034502637 2.4654264 0.0 0.013162558 0.16388208 0.117168136
0.0 0.0 0.0 0.0 1.4485085 2840.3682 676.2882 218704.47
0.0 1.3949569e-06 6.217029e-08 3.6709782e-06 0.0 0.0 0.0 0.0
0.8935406 1601.0828 422.34763 120924.3 0.0 0.0 0.0 0.0
0.90853715 1638.962 516.59174 123718.125 0.006101692 88.15129 629.068 2470.0925
0.0 0.0 0.0 0.0 3.1491864 5664.71 1837.287 427949.03
0.0 0.0 5.3643443e-08 1.3410861e-08 0.0 0.00011335063 0.0020463716 0.002071828
0.0 0.0 0.0 0.0 2.3976235 4899.3247 1246.3385 374445.9
0.0 0.0 2.0734745e-08 5.1836864e-09 0.17304568 335.15567 130.16544 24486.209
0.6593484 1161.0531 345.28122 89254.086 0.0 0.0 0.0 0.0
0.0 0.0 0.0 0.0 3.1388788 5633.91 1597.3884 440766.0
0.0 0.0 0.0 0.0 0.21989517 434.17596 78.421524 31828.818
0.062899955 131.69484 20.595188 9156.784 0.0 0.0 0.0 0.0
0.058325764 744.12775 180.3393 60372.52 0.0 0.0 0.0 0.0
1.2254039 2412.7185 701.7911 186921.14 1.0792376 2121.1038 453.53015 159326.73
0.02555144 53.64231 24.596256 3944.2383 2.9379573 5430.0 1622.932 414128.03
0.1591193 278.0274 116.02435 21497.01 2.3554273 1370.982 1680.2557 212595.73
0.0 0.0 0.0 0.0 2.2888653 4285.8833 1272.4086 327844.3
0.017415676 4.7216263 51.10112 353.41943 1.2488883 2230.472 558.1593 169384.39
0.17398383 279.19156 73.511116 19566.363 3.6471403 6569.6226 1912.3943 495793.34
2.7064948 5003.6353 1488.7941 373289.5 9.366651 23031.47 4669.4614 1.842479e+06
0.0 0.0 0.0 0.0 0.5278167 313.2866 467.48026 15603.902
0.0 0.0 0.0 0.0 3.8892212 4488.3203 4371.8525 573029.3
0.05671742 104.4913 18.909462 7467.085 0.82051224 1597.0131 369.66666 120819.52
0.0 0.0 0.0 0.0 15.220612 27014.346 7361.6484 2.1195628e+06
0.0 2.3730861e-05 1.0666882e-06 7.899048e-05 0.042289272 42.80769 33.29634 2917.4783
0.14001302 313.08612 182.73763 23627.137 0.0 0.0 0.0 0.0
0.19550222 421.32266 78.659874 32615.209 1.1921188 2372.8936 591.63104 187346.42
0.0 0.0 0.0 0.0 1.4201118 2563.5781 622.0405 193903.45
0.0 0.0 0.0 0.0 0.0 0.0 0.0 0.0
0.0 7.51722e-06 0.00020663183 0.00023322912 0.0 4.9122926e-05 0.012352227 0.0037392592
0.33553505 657.14746 189.06271 50700.445 0.48320293 999.9339 202.22931 75854.445
00000000: d76e 0e31 f920 193f a352 0d3d 8cc9 1d40
00000010: 0000 0000 c5a7 573c b4d0 273e d9f5 ef3d
00000020: 0000 0000 0000 0000 0000 0000 0000 0000
00000030: ba68 b93f e485 3145 7212 2944 1e94 5548
00000040: 0000 0000 5b3a bb35 7a82 8533 ed5a 7636
00000050: 0000 0000 0000 0000 0000 0000 0000 0000
00000060: 14bf 643f a622 c844 7f2c d343 262e ec47
00000070: 0000 0000 0000 0000 0000 0000 0000 0000
00000080: e495 683f c9de cc44 df25 0144 10a3 f147
00000090: b4f0 c73b 764d b042 5a44 1d44 7b61 1a45
000000a0: 0000 0000 0000 0000 0000 0000 0000 0000
000000b0: 458c 4940 ae05 b145 2fa9 e544 a1f5 d048
000000c0: 0000 0000 0000 0000 9765 6633 9765 6632
000000d0: 0000 0000 a8b6 ed38 6b1c 063b 82c7 073b
000000e0: 0000 0000 0000 0000 0000 0000 0000 0000
000000f0: aa72 1940 991a 9945 d5ca 9b44 bdd5 b648
00000100: 0000 0000 0000 0000 301c b232 301c b231
00000110: e332 313e ed93 a743 5a2a 0243 6b4c bf46
00000120: 0fcb 283f b321 9144 ffa3 ac43 0b53 ae47
00000130: 0000 0000 0000 0000 0000 0000 0000 0000
00000140: 0000 0000 0000 0000 0000 0000 0000 0000
00000150: 64e3 4840 480f b045 6eac c744 c037 d748
00000160: 0000 0000 0000 0000 0000 0000 0000 0000
00000170: 332c 613e 8616 d943 d2d7 9c42 a3a9 f846
00000180: b1d1 803d e1b1 0343 f2c2 a441 2313 0f46
00000190: 0000 0000 0000 0000 0000 0000 0000 0000
000001a0: ffe6 6e3d 2d08 3a44 dc56 3443 85d4 6b47
000001b0: 0000 0000 0000 0000 0000 0000 0000 0000
000001c0: 09da 9c3f 7fcb 1645 a172 2f44 498a 3648
000001d0: 7524 8a3f a991 0445 dcc3 e243 af97 1b48
000001e0: 4151 d13c ba91 5642 22c5 c441 d083 7645
000001f0: 7e07 3c40 00b0 a945 d3dd ca44 0136 ca48
00000200: 2bf0 223e 8203 8b43 780c e842 05f2 a746
00000210: 52bf 1640 6d5f ab44 2f08 d244 ef9c 4f48
00000220: 0000 0000 0000 0000 0000 0000 0000 0000
00000230: c57c 1240 11ef 8545 130d 9f44 8a14 a048
00000240: 52ab 8e3c 9017 9740 8c67 4c42 b0b5 b043
00000250: 92db 9f3f 8d67 0b45 328a 0b44 196a 2548
00000260: d128 323e 8598 8b43 b105 9342 badc 9846
00000270: bf6a 6940 fb4c cd45 9e0c ef44 2b16 f248
00000280: 3637 2d40 155d 9c45 6919 ba44 3045 b648
00000290: cddd 1541 f1ee b346 b1eb 9145 78e9 e049
000002a0: 0000 0000 0000 0000 0000 0000 0000 0000
000002b0: ff1e 073f afa4 9c43 79bd e943 9ccf 7346
000002c0: 0000 0000 0000 0000 0000 0000 0000 0000
000002d0: 00e9 7840 9042 8c45 d29e 8845 55e6 0b49
000002e0: 8750 683d 8cfb d042 9446 9741 ae58 e945
000002f0: 170d 523f 6ba0 c744 55d5 b843 c3f9 eb47
00000300: 0000 0000 0000 0000 0000 0000 0000 0000
00000310: a087 7341 b10c d346 300d e645 2b5e 014a
00000320: 0000 0000 a311 c737 212b 8f35 b1a7 a538
00000330: 8437 2d3d 133b 2b42 742f 0542 a757 3645
00000340: 935f 0f3e 068b 9c43 d5bc 3643 4696 b846
00000350: 0000 0000 0000 0000 0000 0000 0000 0000
00000360: bc31 483e 4da9 d243 db51 9d42 6bce fe46
00000370: 5997 983f 4c4e 1445 63e8 1344 9bf4 3648
00000380: 0000 0000 0000 0000 0000 0000 0000 0000
00000390: 39c6 b53f 4039 2045 9882 1b44 dd5b 3d48
000003a0: 0000 0000 0000 0000 0000 0000 0000 0000
000003b0: 0000 0000 0000 0000 0000 0000 0000 0000
000003c0: 0000 0000 6e3c fc36 4fab 5839 f78e 7439
000003d0: 0000 0000 5709 4e38 ff60 4a3c 5c0e 753b
000003e0: 40cb ab3e 7049 2444 0e10 3d43 720c 4647
000003f0: 6066 f73e c5fb 7944 b43a 4a43 3927 9447

exp_avg f4 [64]
6e-45 0.1438914 0.0 1.1391706 6e-45 0.0 0.394374 0.0
-0.51721376 0.5908193 0.0 -0.8398635 6e-45 0.049482897 0.0 -1.858238
6e-45 0.014951686 0.44767374 0.0 0.0 -1.4346452 0.0 -0.51607895
-0.32312754 0.0 1.2216065 0.0 -0.88471186 1.1959641 -0.009408558 -1.1381395
0.13963538 0.8699923 0.0 -0.87991893 0.11861475 0.59180856 -0.1028154 -1.1794127
-0.8376494 4.48705 0.0 0.13119707 0.0 0.76954013 -0.28679287 0.68019426
0.0 -2.45815 6e-45 0.35454205 -0.14625816 0.0 -0.80106455 -1.3845516
0.0 0.5487688 0.0 0.0 6e-45 0.14358255 0.4857701 0.83422196
00000000: 0400 0000 4458 133e 0000 0000 58d0 913f
00000010: 0400 0000 0000 0000 64eb c93e 0000 0000
00000020: 1f68 04bf ef3f 173f 0000 0000 4b01 57bf
00000030: 0400 0000 94ae 4a3d 0000 0000 beda edbf
00000040: 0400 0000 ebf7 743c 7e35 e53e 0000 0000
00000050: 0000 0000 74a2 b7bf 0000 0000 c01d 04bf
00000060: f970 a5be 0000 0000 9a5d 9c3f 0000 0000
00000070: 7a7c 62bf 5a15 993f 5a26 1abc 8eae 91bf
00000080: 94fc 0e3e d1b7 5e3f 0000 0000 5e42 61bf
00000090: 4aec f23d c480 173f e190 d2bd fff6 96bf
000000a0: 3170 56bf ea95 8f40 0000 0000 8658 063e
000000b0: 0000 0000 9500 453f 84d6 92be 3621 2e3f
000000c0: 0000 0000 5452 1dc0 0400 0000 8986 b53e
000000d0: b3c4 15be 0000 0000 9112 4dbf fd38 b1bf
000000e0: 0000 0000 1d7c 0c3f 0000 0000 0000 0000
000000f0: 0400 0000 4e07 133e dcb6 f83e 928f 553f

exp_avg_sq f4 [64]
0.000119565884 2.3331044 0.0 10.092522 4.4372275e-09 0.0 6.0493336 0.0
7.843458 43.4816 0.0 27.36011 8.381788e-10 0.2538963 0.0 18.365572
3.239804e-10 1.6018283 4.7649536 0.0 0.0 24.434141 0.0 1.7254974
0.724425 0.0 2.787819 0.0 9.858352 7.259238 0.27773127 24.607264
1.3620597 27.424757 0.0 18.75588 3.8753595 8.634606 1.7087687 30.647524
22.699745 82.58631 0.0 8.904467 0.0 39.256298 0.7316005 5.755246
0.0 122.99761 5.908911e-09 0.63748974 4.537926 0.0 1.5035471 9.076089
0.0 9.482761 0.0 0.0 1.7773909e-06 2.3533573 2.4804509 3.3633869
00000000: 72bf fa38 9551 1540 0000 0000 f87a 2141
00000010: 4476 9831 0000 0000 2494 c140 0000 0000
00000020: 9cfd fa40 29ed 2d42 0000 0000 81e1 da41
00000030: 9765 6630 b2fe 813e 0000 0000 b1ec 9241
00000040: 301c b22f b608 cd3f 807a 9840 0000 0000
00000050: 0000 0000 1f79 c341 0000 0000 19dd dc3f
00000060: eb73 393f 0000 0000 a06b 3240 0000 0000
00000070: cfbb 1d41 ad4b e840 cb32 8e3e addb c441
00000080: f957 ae3f e765 db41 0000 0000 0b0c 9641
00000090: e405 7840 5927 0a41 efb8 da3f 212e f541
000000a0: 1499 b541 312c a542 0000 0000 b278 0e41
000000b0: 0000 0000 7306 1d42 2c4a 3b3f fa2a b840
000000c0: 0000 0000 c7fe f542 5507 cb31 8732 233f
000000d0: b136 9140 0000 0000 3b74 c03f a937 1141
000000e0: 0000 0000 64b9 1741 0000 0000 0000 0000
000000f0: b08e ee35 689d 1640 b5bf 1e40 bb41 5740

exp_avg f4 [64, 64]
6e-45 -6e-45 0.0 1.2853571 -6e-45 0.0 0.9474348 0.0
0.956994 -0.15358214 0.0 1.2052834 6e-45 -6e-45 0.0 0.39931577
6e-45 4.8105383 1.4517528 0.0 0.0 0.23022667 0.0 2.1355493
4.5785413 0.0 0.12594737 0.0 0.6052911 2.9134614 1.1942077 1.7582762
2.5549922 0.05875753 0.0 2.2647872 -0.0041272156 0.46110958 1.1844559 1.4666007
2.8974333 0.41654718 0.0 -0.031562634 0.0 0.18823129 1.229841 3.3236327
0.0 0.35135037 6e-45 0.8026561 -2.2084888e-07 0.0 0.8451102 0.4415773
0.0 1.871573 0.0 0.0 -6e-45 -6e-45 2.3847957 2.169441
6e-45 -6e-45 0.0 1.1378616 -6e-45 0.0 0.97527826 0.0
0.7633337 3.377783e-32 0.0 1.0100058 0.0 -6e-45 0.0 0.3675809
0.0 4.297431 1.3743453 0.0 0.0 0.15505561 0.0 1.8228219
3.986812 0.0 0.13096082 0.0 0.6228204 2.5650003 1.0437624 1.4671605
2.3510437 -0.007218677 0.0 1.9266202 -1.2940843e-06 0.4927105 0.9100635 1.2100227
2.4658413 0.42647105 0.0 0.13744998 0.0 0.09988971 0.9528315 2.9285145
0.0 0.3163193 6e-45 0.65734124 6e-45 0.0 0.738688 0.43789563
0.0 1.7524004 0.0 0.0 -6e-45 -6e-45 2.0688446 1.9459223
6e-45 0.0 0.0 6e-45 6e-45 0.0 6e-45 0.0
6e-45 6e-45 0.0 6e-45 0.0 6e-45 0.0 6e-45
0.0 6e-45 6e-45 0.0 0.0 6e-45 0.0 6e-45
6e-45 0.0 6e-45 0.0 6e-45 6e-45 6e-45 6e-45
6e-45 6e-45 0.0 6e-45 0.0 6e-45 6e-45 0.0
6e-45 6e-45 0.0 6e-45 0.0 6e-45 6e-45 6e-45
0.0 6e-45 6e-45 6e-45 6e-45 0.0 6e-45 6e-45
0.0 6e-45 0.0 0.0 0.0 0.0 6e-45 6e-45
0.0 0.0 0.0 6e-45 0.0 0.0 6e-45 0.0
6e-45 0.0 0.0 6e-45 0.0 0.0 0.0 6e-45
0.0 6e-45 6e-45 0.0 0.0 6e-45 0.0 6e-45
6e-45 0.0 6e-45 0.0 6e-45 6e-45 6e-45 6e-45
6e-45 0.0 0.0 6e-45 0.0 6e-45 6e-45 6e-45
6e-45 6e-45 0.0 6e-45 0.0 6e-45 6e-45 6e-45
0.0 -6e-45 0.0 6e-45 6e-45 0.0 6e-45 6e-45
0.0 6e-45 0.0 0.0 0.0 0.0 6e-45 6e-45
00000000: 0400 0000 0400 0080 0000 0000 9586 a43f
00000010: 0400 0080 0000 0000 168b 723f 0000 0000
00000020: 8ffd 743f a344 1dbe 0000 0000 ba46 9a3f
00000030: 0400 0000 0400 0080 0000 0000 1e73 cc3e
00000040: 0400 0000 eeef 9940 09d3 b93f 0000 0000
00000050: 0000 0000 8ac0 6b3e 0000 0000 d7ac 0840
00000060: 6983 9240 0000 0000 59f8 003e 0000 0000
00000070: 5cf4 1a3f 2776 3a40 ccdb 983f 320f e13f
00000080: fe84 2340 bcab 703d 0000 0000 46f2 1040
00000090: 983d 87bb 8e16 ec3e 409c 973f 92b9 bb3f
000000a0: 8c6f 3940 ac45 d53e 0000 0000 d247 01bd
000000b0: 0000 0000 b4bf 403e 6e6b 9d3f 66b6 5440
000000c0: 0000 0000 32e4 b33e 0400 0000 df7a 4d3f
000000d0: 7a22 6db4 0000 0000 2459 583f 6b16 e23e
000000e0: 0000 0000 b48f ef3f 0000 0000 0000 0000
000000f0: 0400 0080 0400 0080 7ea0 1840 1fd8 0a40
00000100: 0400 0000 0400 0080 0000 0000 73a5 913f
00000110: 0400 0080 0000 0000 d6ab 793f 0000 0000
00000120: d669 433f 7062 2f0b 0000 0000 df47 813f
00000130: 0000 0000 0400 0080 0000 0000 9033 bc3e
00000140: 0000 0000 8e84 8940 8cea af3f 0000 0000
00000150: 0000 0000 e6c6 1e3e 0000 0000 3a52 e93f
00000160: ee27 7f40 0000 0000 981a 063e 0000 0000
00000170: 2871 1f3f f728 2440 029a 853f eacb bb3f
00000180: 8077 1640 a78a ecbb 0000 0000 7e9b f63f
00000190: 66b0 adb5 8d44 fc3e ecf9 683f 06e2 9a3f
000001a0: 58d0 1d40 6a5a da3e 0000 0000 b0bf 0c3e
000001b0: 0000 0000 fa92 cc3d c4ec 733f c86c 3b40
000001c0: 0000 0000 9af4 a13e 0400 0000 8447 283f
000001d0: 0400 0000 0000 0000 a81a 3d3f db33 e03e
000001e0: 0000 0000 a84e e03f 0000 0000 0000 0000
000001f0: 0400 0080 0400 0080 f367 0440 fb13 f93f
00000200: 0400 0000 0000 0000 0000 0000 0400 0000
00000210: 0400 0000 0000 0000 0400 0000 0000 0000
00000220: 0400 0000 0400 0000 0000 0000 0400 0000
00000230: 0000 0000 0400 0000 0000 0000 0400 0000
00000240: 0000 0000 0400 0000 0400 0000 0000 0000
00000250: 0000 0000 0400 0000 0000 0000 0400 0000
00000260: 0400 0000 0000 0000 0400 0000 0000 0000
00000270: 0400 0000 0400 0000 0400 0000 0400 0000
00000280: 0400 0000 0400 0000 0000 0000 0400 0000
00000290: 0000 0000 0400 0000 0400 0000 0000 0000
000002a0: 0400 0000 0400 0000 0000 0000 0400 0000
000002b0: 0000 0000 0400 0000 0400 0000 0400 0000
000002c0: 0000 0000 0400 0000 0400 0000 0400 0000
000002d0: 0400 0000 0000 0000 0400 0000 0400 0000
000002e0: 0000 0000 0400 0000 0000 0000 0000 0000
000002f0: 0000 0000 0000 0000 0400 0000 0400 0000
00000300: 0000 0000 0000 0000 0000 0000 0400 0000
00000310: 0000 0000 0000 0000 0400 0000 0000 0000
00000320: 0400 0000 0000 0000 0000 0000 0400 0000
00000330: 0000 0000 0000 0000 0000 0000 0400 0000
00000340: 0000 0000 0400 0000 0400 0000 0000 0000
00000350: 0000 0000 0400 0000 0000 0000 0400 0000
00000360: 0400 0000 0000 0000 0400 0000 0000 0000
00000370: 0400 0000 0400 0000 0400 0000 0400 0000
00000380: 0400 0000 0000 0000 0000 0000 0400 0000
00000390: 0000 0000 0400 0000 0400 0000 0400 0000
000003a0: 0400 0000 0400 0000 0000 0000 0400 0000
000003b0: 0000 0000 0400 0000 0400 0000 0400 0000
000003c0: 0000 0000 0400 0080 0000 0000 0400 0000
000003d0: 0400 0000 0000 0000 0400 0000 0400 0000
000003e0: 0000 0000 0400 0000 0000 0000 0000 0000
000003f0: 0000 0000 0000 0000 0400 0000 0400 0000

exp_avg_sq f4 [64, 64]
6.9073496e-05 1.4855987e-06 0.0 6.0753317 5.3854823e-11 0.0 5.0056524 0.0
3.676913 0.1396222 0.0 5.160286 3.357563e-10 2.9862102e-07 0.0 0.8506569
3.222743e-12 93.16743 9.8062725 0.0 0.0 0.23905377 0.0 19.005302
83.20568 0.0 0.26648456 0.0 2.9814606 35.847187 10.190024 10.825797
33.618923 0.16834512 0.0 19.508265 0.0063441424 1.4362978 7.232888 7.3425393
31.20452 0.7692345 0.0 0.3072364 0.0 0.2516345 8.47976 40.30705
0.0 0.75272924 5.6203226e-07 4.1937127 0.024054991 0.0 3.2346492 1.3204094
0.0 14.055304 0.0 0.0 6.1548667e-07 9.357506e-07 21.165035 20.239239
3.1634077e-05 3.5861964e-07 0.0 5.203278 1.6777201e-11 0.0 3.580699 0.0
3.006292 0.012208538 0.0 4.389616 0.0 2.8392899e-08 0.0 0.49883947
0.0 72.832375 7.2630177 0.0 0.0 0.19582507 0.0 14.939086
64.36196 0.0 0.18406743 0.0 2.0734081 29.615864 7.6333256 9.235094
25.057152 0.16326258 0.0 16.34162 0.001181484 0.8065074 5.701328 6.2616205
25.954994 0.64367753 0.0 0.04695674 0.0 0.20401603 6.0089 32.992935
0.0 0.6293687 1.6127427e-07 3.3737462 0.01203887 0.0 2.1050665 0.7815493
0.0 11.21282 0.0 0.0 2.0749862e-09 1.3618393e-07 17.18414 16.81452
2.0638616e-08 0.0 0.0 2.0730559e-08 4.5557455e-15 0.0 4.289732e-07 0.0
4.5561144e-15 4.5561157e-15 0.0 4.556114e-15 0.0 4.5560344e-15 0.0 7.644431e-08
0.0 1.1972822e-06 4.473955e-07 0.0 0.0 4.5561157e-15 0.0 5.587946e-07
1.731648e-06 0.0 6.593266e-07 0.0 3.3443732e-07 7.72542e-08 5.8903925e-07 4.5559387e-15
1.2239083e-06 4.5560843e-15 0.0 1.9691647e-08 0.0 4.295212e-07 1.2988241e-08 0.0
2.6466326e-08 9.0301855e-09 0.0 1.0097508e-08 0.0 2.8738028e-09 2.3112511e-06 2.0653424e-07
0.0 4.556114e-15 4.5560217e-15 4.724251e-07 3.703319e-08 0.0 5.373165e-07 2.4944413e-07
0.0 1.9794997e-07 0.0 0.0 0.0 0.0 2.2933445e-07 1.6918011e-07
0.0 0.0 0.0 2.4793053e-07 0.0 0.0 1.550955e-07 0.0
8.266622e-08 0.0 0.0 6.682601e-08 0.0 0.0 0.0 1.5331894e-09
0.0 1.9071338e-06 3.82761e-07 0.0 0.0 5.6586213e-10 0.0 8.157742e-07
2.3660793e-06 0.0 2.0429393e-07 0.0 3.9874717e-08 8.8214466e-07 1.1012864e-06 8.721615e-08
1.1537422e-06 0.0 0.0 3.5159098e-07 0.0 1.4772942e-07 4.022564e-07 3.893722e-08
4.647214e-07 1.04448944e-07 0.0 1.170976e-12 0.0 2.3469385e-08 2.2775448e-06 9.015498e-07
0.0 1.5819283e-11 0.0 1.105234e-06 2.3705878e-08 0.0 2.2431485e-07 5.2983573e-09
0.0 1.4538502e-07 0.0 0.0 0.0 0.0 8.0649875e-07 6.876226e-07
00000000: 8ddb 9038 c864 c735 0000 0000 1e69 c240
00000010: 24db 6c2e 0000 0000 4e2e a040 0000 0000
00000020: 8b52 6b40 1ff9 0e3e 0000 0000 1021 a540
00000030: 8095 b82f 2952 a034 0000 0000 a7c4 593f
00000040: c7c7 622c b955 ba42 7ee6 1c41 0000 0000
00000050: 0000 0000 83ca 743e 0000 0000 dc0a 9841
00000060: 4f69 a642 0000 0000 aa70 883e 0000 0000
00000070: 40d0 3e40 8563 0f42 570a 2341 7736 2d41
00000080: c779 0642 aa62 2c3e 0000 0000 ed10 9c41
00000090: 86e2 cf3b 9bd8 b73f d273 e740 15f6 ea40
000000a0: dba2 f941 8dec 443f 0000 0000 174e 9d3e
000000b0: 0000 0000 3dd6 803e 19ad 0741 6b3a 2142
000000c0: 0000 0000 ddb2 403f 90de 1635 e532 8640
000000d0: f90e c53c 0000 0000 7e04 4f40 2d03 a93f
000000e0: 0000 0000 86e2 6041 0000 0000 0000 0000
000000f0: ec37 2535 4b30 7b35 fe51 a941 f6e9 a141
00000100: d5ae 0438 4f88 c034 0000 0000 4181 a640
00000110: e692 932d 0000 0000 2c2a 6540 0000 0000
00000120: 1767 4040 5206 483c 0000 0000 bc77 8c40
00000130: 0000 0000 a5e4 f332 0000 0000 e367 ff3e
00000140: 0000 0000 2daa 9142 a46a e840 0000 0000
00000150: 0000 0000 5e86 483e 0000 0000 7f06 6f41
00000160: 53b9 8042 0000 0000 2c7c 3c3e 0000 0000
00000170: b8b2 0440 4aed ec41 3444 f440 f2c2 1341
00000180: 0c75 c841 4e2e 273e 0000 0000 a3bb 8241
00000190: 06dc 9a3a 4577 4e3f 4771 b640 325f c840
000001a0: d4a3 cf41 0dc8 243f 0000 0000 b655 403d
000001b0: 0000 0000 94e9 503e e948 c040 c4f8 0342
000001c0: 0000 0000 4f1e 213f bc2a 2d34 75eb 5740
000001d0: ae3e 453c 0000 0000 69b9 0640 9d13 483f
000001e0: 0000 0000 b667 3341 0000 0000 0000 0000
000001f0: 8b97 0e31 f439 1234 1e79 8941 2384 8641
00000200: cc48 b132 0000 0000 0000 0000 fb12 b232
00000210: 5623 a427 0000 0000 a14d e634 0000 0000
00000220: bd26 a427 c026 a427 0000 0000 bc26 a427
00000230: 0000 0000 0026 a427 0000 0000 b429 a433
00000240: 0000 0000 4eb2 a035 9231 f034 0000 0000
00000250: 0000 0000 c026 a427 0000 0000 1300 1635
00000260: f96a e835 0000 0000 94fc 3035 0000 0000
00000270: b78c b334 f2e6 a533 781e 1e35 1e25 a427
00000280: 2b45 a435 7626 a427 0000 0000 6426 a932
00000290: 0000 0000 f298 e634 e322 5f32 0000 0000
000002a0: 1158 e332 2d23 1b32 0000 0000 4f79 2d32
000002b0: 0000 0000 797c 4531 fe1a 1b36 b3c3 5d34
000002c0: 0000 0000 bc26 a427 e225 a427 9da1 fd34
000002d0: 6c0e 1f33 0000 0000 1c3c 1035 57eb 8534
000002e0: 0000 0000 138c 5434 0000 0000 0000 0000
000002f0: 0000 0000 0000 0000 f93e 7634 e0a7 3534
00000300: 0000 0000 0000 0000 0000 0000 501b 8534
00000310: 0000 0000 0000 0000 5488 2634 0000 0000
00000320: 3c86 b133 0000 0000 0000 0000 fd81 8f33
00000330: 0000 0000 0000 0000 0000 0000 4eb8 d230
00000340: 0000 0000 9ef8 ff35 457e cd34 0000 0000
00000350: 0000 0000 028b 1b30 0000 0000 93fb 5a35
00000360: efc8 1e36 0000 0000 e35b 5b34 0000 0000
00000370: b742 2b33 85cc 6c35 eacf 9335 964b bb33
00000380: 48da 9a35 0000 0000 0000 0000 4cc2 bc34
00000390: 0000 0000 8e9f 1e34 b3f5 d734 ed3b 2733
000003a0: d37e f934 6a4d e033 0000 0000 dbcc a42b
000003b0: 0000 0000 b999 c932 ecd7 1836 0802 7235
000003c0: 0000 0000 dc25 8b2d 0000 0000 8d57 9435
000003d0: c7a1 cb32 0000 0000 32db 7034 d80c b631
000003e0: 0000 0000 211b 1c34 0000 0000 0000 0000
000003f0: 0000 0000 0000 0000 2c7e 5835 1195 3835

exp_avg f4 [64]
0.25393918 0.2021012 6e-45 6e-45 0.22648492 -0.00028186888 -0.30686963 -0.08540579
-0.021599092 0.17621265 0.0 -0.008383517 0.23461618 0.62705314 -0.051519096 -0.085821435
-0.18242776 -0.027026419 -0.04792723 0.03934075 0.0 0.2762176 -0.2978739 -0.056248873
-0.1004165 6.1142148e-24 -0.20870413 -0.044589564 1.3695874e-22 0.21318148 0.06418632 -0.14190263
0.15662488 2.0503572e-09 0.271211 0.2547953 0.00057070755 -0.076092005 0.42820355 0.02978678
0.0 -0.09391756 -0.1016576 0.0 -0.13803235 0.047611084 -0.049355015 -0.21020189
6e-45 -0.09298055 -0.0056993486 -0.09718252 -0.11007184 6e-45 0.22571559 6e-45
0.017102266 6e-45 -0.11130216 0.34189492 0.0041236957 -0.09465015 0.2695777 8.1486924e-15
00000000: 5104 823e 9ef3 4e3e 0400 0000 0400 0000
00000010: aaeb 673e cdc7 93b9 041e 9dbe 3be9 aebd
00000020: 94f0 b0bc 1771 343e 0000 0000 055b 09bc
00000030: 393f 703e 8e86 203f b005 53bd 26c3 afbd
00000040: 58ce 3abe 8266 ddbc 584f 44bd c423 213d
00000050: 0000 0000 656c 8d3e ee82 98be 3865 66bd
00000060: 2aa7 cdbd 4088 ec18 89b6 55be 8ca3 36bd
00000070: ad92 251b 3f4c 5a3e 1e74 833d ec4e 11be
00000080: 4662 203e 44e6 0c31 2bdc 8a3e 8874 823e
00000090: 899b 153a 20d6 9bbd 7f3d db3e 6803 f43c
000000a0: 0000 0000 da57 c0bd dc31 d0bd 0000 0000
000000b0: 5a58 0dbe d703 433d 7c28 4abd 2a3f 57be
000000c0: 0400 0000 966c bebd 9ac1 babb a107 c7bd
000000d0: 586d e1bd 0400 0000 fd21 673e 0400 0000
000000e0: 0d1a 8c3c 0400 0000 63f2 e3bd da0c af3e
000000f0: 1120 873b f0d7 c1bd 1706 8a3e 36cb 1228

exp_avg_sq f4 [64]
0.12358184 0.09756871 5.1324074e-09 3.184439e-10 0.12910564 0.00036852385 1.2520334 0.12344004
0.011680027 0.07298538 0.0 0.4500336 0.112605244 1.0301608 0.045525614 0.13163316
0.58988154 0.012805294 0.03471321 0.043865733 0.0 0.16486958 1.8960274 0.18670547
0.1726324 3.7123505e-07 1.418747 0.36311665 7.689072e-08 0.09853757 1.3999482 1.1721125
0.05337725 0.00019876307 0.24926677 0.13548775 0.00022088505 0.09759592 0.36652666 0.029863989
0.0 0.15369427 0.2610609 0.0 2.330475 0.73032737 0.033644497 1.1317705
2.7564349e-09 0.1481617 0.002143517 0.17382242 0.20507246 1.0228641e-09 0.12430572 3.526755e-10
0.08798394 1.3190575e-11 0.088809945 0.28781036 0.0008565657 0.27971554 0.1348382 0.0001786833
00000000: 7a18 fd3d 1bd2 c73d 2259 b031 ff10 af2f
00000010: 4534 043e 6f36 c139 a142 a03f 22ce fc3d
00000020: 955d 3f3c 5c79 953d 0000 0000 ce6a e63e
00000030: 949d e63d 4fdc 833f 1179 3a3d d8ca 063e
00000040: 7a02 173f 4ccd 513c 702f 0e3d 8eac 333d
00000050: 0000 0000 92d3 283e 07b1 f23f b82f 3f3e
00000060: 8cc6 303e 284e c734 8099 b53f 6dea b93e
00000070: 1f1f a533 11ce c93d 8131 b33f c807 963f
00000080: 1aa2 5a3d 0e6b 5039 ca3f 7f3e 4dbd 0a3e
00000090: 619d 6739 5fe0 c73d 62a9 bb3e 53a5 f43c
000000a0: 0000 0000 0862 1d3e c6a9 853e 0000 0000
000000b0: 8126 1540 bcf6 3a3f d0ce 093d dbdd 903f
000000c0: b76b 3d31 b3b7 173e 3f7a 0c3b 81fe 313e
000000d0: 84fe 513e d594 8c30 ff93 fe3d aae2 c12f
000000e0: ed30 b43d 120d 682d fde1 b53d e15b 933e
000000f0: 278b 603a e036 8f3e 0613 0a3e ef5c 3b39

exp_avg f4 [1, 64]
-1.6617275 -1.9892523 -6e-45 6e-45 -2.1282177 -0.0008996497 0.07555094 -3.6287827
0.10521143 -2.3168082 0.0 0.6664077 -1.9160593 -1.2836459 -5.4389443 -6.0501003
-3.1102917 -2.1144333 -4.2871685 -2.406777 0.0 -1.6903094 0.07899002 0.044197828
-2.2015405 -1.6636628e-23 0.19808634 0.3805217 -5.1890947e-24 -1.4157518 0.8619436 0.17064239
-1.5507996 -4.1620096e-10 -2.427209 -1.2315518 0.06784732 -2.8811278 -1.3578357 -2.960977
0.0 -2.1687098 -0.09299813 0.0 0.28009287 0.21175843 -0.065888375 -0.069270365
-6e-45 -2.9466772 -0.092592254 0.2824992 0.33768108 6e-45 -1.5455942 6e-45
0.11163963 -6e-45 0.2861058 -1.8984599 -0.0006817429 -0.49784362 -2.1054928 -2.191689e-14
00000000: 7db3 d4bf d29f febf 0400 0080 0400 0000
00000010: b834 08c0 78d6 6bba 74ba 9a3d fa3d 68c0
00000020: 1779 d73d 9646 14c0 0000 0000 b299 2a3f
00000030: 6e41 f5bf 824e a4bf d50b aec0 6c9a c1c0
00000040: 050f 47c0 e052 07c0 7c30 89c0 a208 1ac0
00000050: 0000 0000 0f5c d8bf 85c5 a13d c808 353d
00000060: 0ae6 0cc0 4ce6 a099 25d7 4a3e bed3 c23e
00000070: 4ebe c898 5b37 b5bf 56a8 5c3f e1bc 2e3e
00000080: 9a80 c6bf 14cf e4af 6457 1bc0 7da3 9dbf
00000090: 89f3 8a3d 6664 38c0 8fcd adbf a680 3dc0
000000a0: 0000 0000 24cc 0ac0 ce75 bebd 0000 0000
000000b0: 5568 8f3e 34d7 583e 7cf0 86bd 9fdd 8dbd
000000c0: 0400 0080 5c96 3cc0 02a1 bdbd bca3 903e
000000d0: 89e4 ac3e 0400 0000 08d6 c5bf 0400 0000
000000e0: 51a3 e43d 0400 0080 767c 923e bc00 f3bf
000000f0: feb6 32ba 5ce5 febe 65c0 06c0 e868 c5a8

exp_avg_sq f4 [1, 64]
30.88021 22.672007 1.4956682e-10 1.6037013e-07 26.623392 2.635454 21.380388 206.98895
0.17944176 29.049679 0.0 19.866026 32.613503 6.937463 458.7439 584.06274
191.63145 85.504074 284.38007 57.234547 0.0 23.189442 26.347109 61.97334
125.175934 2.8541908e-06 35.35942 18.544178 9.031957e-11 16.156237 25.445238 31.99338
32.926468 2.6573334 28.87772 8.934978 0.93755656 156.65894 20.27767 86.21373
0.0 107.298134 19.247437 0.0 35.68866 13.948443 17.388695 59.029343
4.9641636e-15 182.61021 0.39973366 19.982658 22.415697 8.848191e-09 16.389513 3.6748855e-08
2.599252 3.140767e-09 11.883795 30.92119 0.015801901 20.877464 39.845535 1.7040938
00000000: ac0a f741 4560 b541 5173 242f 3532 2c34
00000010: b5fc d441 47ab 2840 090b ab41 2cfd 4e43
00000020: 95bf 373e be65 e841 0000 0000 9fed 9e41
00000030: 3a74 0242 b2ff dd40 385f e543 0404 1244
00000040: a7a1 3f43 1602 ab42 a630 8e43 2df0 6442
00000050: 0000 0000 fa83 b941 e1c6 d241 b3e4 7742
00000060: 145a fa42 a08a 3f36 0c70 0d42 7a5a 9441
00000070: 669d c62e f93f 8141 d98f cb41 71f2 ff41
00000080: b4b4 0342 c011 2a40 9205 e741 abf5 0e41
00000090: b503 703f b0a8 1c43 ab38 a241 6e6d ac42
000000a0: 0000 0000 a598 d642 c0fa 9941 0000 0000
000000b0: 30c1 0e42 d32c 5f41 0c1c 8b41 0c1e 6c42
000000c0: 54da b227 379c 3643 e4a9 cc3e 7cdc 9f41
000000d0: 5953 b341 c102 1832 b91d 8341 cbd5 1d33
000000e0: 255a 2640 f5d4 5731 0624 3e41 995e f741
000000f0: fd72 813c 0c05 a741 d461 1f42 bf1f da3f
