trained_models/tetris_auto_3000.pt (torch, 61767 bytes, 15 tensors)

conv1.0.weight f4 [64, 4]
000000 44 0f 24 3e 8d 39 38 3e e3 19 e3 bd f6 c5 b4 bd
       0.16021448 0.17990704 -0.11088922 -0.088268206
000010 d8 d3 3b 3e 5c b9 9f 3e d1 c2 b6 3d 98 83 8f be
       0.1834253 0.31196105 0.08923877 -0.28030086
000020 ca 88 62 be 00 1d b4 3b 60 26 73 bd fa 7a 94 be
       -0.22122493 0.005496621 -0.05936277 -0.29000074
000030 59 d0 05 3f e3 69 7c be 13 5d ac bd f7 44 c1 3d
       0.5227104 -0.24649768 -0.0841619 0.09436982
000040 00 ea 08 3e 00 af 25 3e 2f 4e fa bd ae 5e c2 bd
       0.13370514 0.16180038 -0.122219436 -0.09490715
000050 23 34 14 be de 91 28 be 52 97 3c be c0 50 82 3b
       -0.14473014 -0.16461894 -0.18417099 0.0039769113
000060 71 b6 05 3e 48 d9 4c 3e 2e 86 02 bd 8a 8d 0d 3d
       0.13057877 0.20004761 -0.031866245 0.03455881
000070 12 ef d7 bd a0 86 65 3c 12 82 b7 bd 69 89 58 be
       -0.10543646 0.014009148 -0.08960356 -0.21146168
000080 66 20 c6 be 4e 77 62 be a7 64 c2 3d 25 5e 7f 3d
       -0.38696593 -0.22115824 0.09491854 0.062345643
000090 6d da 84 bf 84 1b eb 3e 1d fe 79 3e dd e8 32 be
       -1.0379158 0.4591943 0.24413343 -0.17471643
0000a0 30 ad e3 bc 51 4f 12 be a4 14 36 be c0 68 7e be
       -0.027792543 -0.1428807 -0.17781311 -0.24844646
0000b0 52 87 47 3f 78 e5 27 be 50 e5 0a be 7b 14 89 3d
       0.7794086 -0.16396129 -0.13564038 0.066933595
0000c0 4a 08 93 3e f2 b2 71 be 4d 73 0a 3e 1f 5f 98 be
       0.28717262 -0.23603418 0.13520546 -0.29760072
0000d0 cc 7a 61 bd a8 a1 4b 3d a1 26 7e 3d 24 ab 67 be
       -0.05504875 0.049714714 0.06204856 -0.22623879
0000e0 fa 96 81 3e 2e d5 32 be 28 8b 38 be 40 21 ac bb
       0.25310498 -0.17464134 -0.18021834 -0.005252987
0000f0 90 4e ae be 6d b8 22 3e 34 dc ca 3d eb 66 b3 bc
       -0.34044313 0.15890665 0.09905282 -0.021899661
000100 70 0d 08 3d dd a5 16 be 04 25 85 3d c9 cc 22 be
       0.03321594 -0.1471171 0.06501201 -0.15898432
000110 06 ed 0a 3e be 7b 88 3d e0 63 1e 3e ad 4d 4a 3e
       0.1356698 0.06664227 0.15467787 0.19756193
000120 db d9 dc 3d 52 cd 0c 3e b3 39 79 3d 5d ae 74 3d
       0.1078374 0.13750198 0.060846042 0.0597366
000130 30 26 74 3e 73 0a 83 be 5e d7 aa bd 6f c4 25 be
       0.23842692 -0.2559391 -0.08341859 -0.16188215
000140 e3 a7 28 be 14 f3 06 3e 40 62 32 be 16 36 6c be
       -0.16470294 0.13178664 -0.17420292 -0.23067507
000150 1c 86 23 be 56 b0 d3 bd 18 ff 5b 3d 3c a5 3c 3c
       -0.15969127 -0.10336368 0.053710073 0.011514004
000160 94 07 cc bd 47 cf 93 be 60 1e b7 bd 16 99 70 be
       -0.09962383 -0.28869078 -0.089413404 -0.23495898
000170 59 24 bb 3d c2 b3 2f bd 4a 4b 18 3d 2e 47 c3 3d
       0.09137792 -0.04289604 0.037181176 0.09535061
000180 a8 4f 27 be e3 fe 00 3d 91 5e 86 3e 88 71 31 3e
       -0.1633898 0.03149308 0.26244023 0.17328465
000190 73 da 38 be 80 b6 ee 3c 60 fe 3f 3c 08 f8 97 be
       -0.18052082 0.029139757 0.011718363 -0.2968142
0001a0 0c 0b 7d bf c6 57 0a 3d 73 c3 fb bc 33 22 9f 3c
       -0.9884498 0.033775114 -0.030732846 0.019425487
0001b0 f8 82 52 be 02 46 7d be 7c 92 ae 3d 78 df 65 be
       -0.20557773 -0.24733737 0.085240334 -0.22448528
0001c0 3e 59 d7 bc 7d 28 89 3e a0 ed 18 be 5d cb 19 bb
       -0.026287671 0.26788703 -0.14934397 -0.0023467161
0001d0 9e 24 58 3c 20 b2 60 be b6 46 10 be ec 52 34 3e
       0.013192324 -0.2194295 -0.14089474 0.17609757
0001e0 1b 96 26 be 70 c6 aa bc c4 00 55 be 7a 2f dc 3d
       -0.16268198 -0.020846575 -0.20801073 0.10751243
0001f0 50 a9 89 3e f8 26 8f be 10 23 17 be 06 92 c8 3d
       0.26886988 -0.27959418 -0.14759469 0.09793477
000200 33 c1 93 3e c3 99 37 3e 15 13 2b 3e 53 1b f0 3d
       0.28858337 0.17929749 0.16706498 0.11723962
000210 56 4f 63 be e4 89 bb be 48 00 2e 3c 04 d1 e8 bd
       -0.22198233 -0.3662864 0.010620184 -0.113679916
000220 60 3b df 3c 8b 66 24 be 03 4f 84 be b8 33 79 bd
       0.027249992 -0.16054742 -0.2584153 -0.06084034
000230 2a 78 d4 be 76 82 38 be 76 db 26 be 41 5f eb 3d
       -0.41497928 -0.18018517 -0.16294655 0.114927776
000240 55 e0 a4 3e 54 76 0c be 53 b0 c8 3e 90 e8 ab bd
       0.32202402 -0.13717014 0.39197025 -0.08393967
000250 1d b4 be 3e 6b 9a 2f 3e a4 cd 16 3e 5f 29 19 3c
       0.3724679 0.1714875 0.14726883 0.009348243
000260 ca 48 78 3e b6 f9 d7 be b6 8d 37 3e 44 8d e7 3d
       0.24246517 -0.42182702 0.17925152 0.11306241
000270 63 5e 36 3f 5c f0 84 be 65 26 ed bd 37 40 a9 3d
       0.7123777 -0.2596463 -0.11579589 0.08264201
000280 83 e5 85 3d 49 2a 42 be 0b 4d 13 be 5a ef 0c 3e
       0.065379165 -0.18961443 -0.14384858 0.1376318
000290 13 22 89 bf b6 78 1d be 2d ad 40 be c0 5c 81 3d
       -1.0713524 -0.15378079 -0.18816061 0.06316519
0002a0 60 03 d0 3d 6c 84 8c 3d 18 71 0a be 4d 90 97 be
       0.10156894 0.06861195 -0.13519704 -0.2960228
0002b0 33 c9 87 3f d0 ca 38 3e 3e f6 e2 3e 87 64 b0 bd
       1.0608276 0.18046117 0.44328493 -0.08612924
0002c0 9c ad c7 3d e9 94 87 be 2a 39 37 be ca 19 4d be
       0.0974991 -0.26480797 -0.178929 -0.20029369
0002d0 8d 1e 57 3e 6a a7 4f be 91 91 3b 3e 84 1e fd 3c
       0.21007748 -0.20278707 0.18317248 0.03089834
0002e0 20 70 70 be 58 ea ca bd ca d6 85 3e ce 13 95 3d
       -0.23480272 -0.09907979 0.26140434 0.07279168
0002f0 4d 65 25 3e 4b 7d 0d be ac 9e 8d bd f0 5e 22 3e
       0.16151924 -0.13817327 -0.0691503 0.15856528
000300 e3 ae 5f be d5 05 6c be 6c f3 4a bd 00 2c 9b 3a
       -0.21844058 -0.230491 -0.04954855 0.0011838675
000310 07 15 1c be 17 6b 50 be 1e 37 49 be d6 a2 3c 3d
       -0.15242396 -0.20353352 -0.19649932 0.04605373
000320 70 a1 7d 3d ae ab 3e 3e 50 ff b3 bd a4 30 e0 bd
       0.061921537 0.18620178 -0.08788931 -0.109467775
000330 c1 7d e7 3d 8f 2a a4 be 4f a0 8d bd b0 cc ca 3d
       0.113032825 -0.3206372 -0.06915342 0.09902322
000340 11 af 0a be 71 01 bf bc 43 d3 42 bc b2 db 87 ba
       -0.13543345 -0.023316117 -0.011891189 -0.0010365157
000350 d8 bb d3 3d 00 f9 d6 3b b5 4a 89 be 5c e0 d8 bd
       0.10338563 0.006560445 -0.2681481 -0.10589668
000360 e9 2a 0d be a0 5a dd 3d f4 52 5b 3e 12 af 09 3b
       -0.137859 0.10808301 0.21418363 0.002100889
000370 3f b5 1b 3c ec 5f 67 3e 69 53 50 3d 45 3d ac bc
       0.009503662 0.22595185 0.050860796 -0.02102531
000380 60 e2 7b 3e 2c a8 87 bd 20 cd 4f 3d 64 74 60 be
       0.24598074 -0.06623873 0.05073273 -0.219194
000390 c2 5c ce 3d 22 f5 85 3d 82 3a 9a bd 72 51 9e 3d
       0.10076286 0.06540896 -0.07530691 0.07730378
0003a0 01 59 7c be c5 da 39 be aa 19 a2 bd d5 2d 89 be
       -0.24643327 -0.1814986 -0.07915051 -0.2679278
0003b0 75 47 01 be 69 a6 0e be ba eb 64 be 00 30 21 39
       -0.12624915 -0.13930668 -0.22355548 0.00015372038
0003c0 d0 b8 cd 3c 73 28 88 bd 7f bd a4 3d c8 91 18 be
       0.02511254 -0.0664834 0.08043956 -0.14899361
0003d0 38 68 26 3d 3f 1f 86 3e 22 0c e0 3d a9 e1 af be
       0.040626734 0.26195714 0.10939814 -0.34351853
0003e0 49 4f 3b 3f 89 9f 15 be d4 9e e8 3c 46 84 03 3e
       0.73167855 -0.14611639 0.028396048 0.12843427
0003f0 96 d5 cd 3e 42 82 dc bd 27 ce 92 be 4b 54 0c 3e
       0.40202016 -0.10767032 -0.28672907 0.1370403

conv1.0.bias f4 [64]
000000 30 05 aa bd c3 8b 04 3f 00 00 00 00 3e 8a da bf
       -0.08301771 0.5177576 0.0 -1.7073438
000010 b3 2e dc bb 00 00 00 00 cd 6f b3 bf 00 00 00 00
       -0.006719434 0.0 -1.4018494 0.0
000020 c6 d5 87 3f 02 71 40 3f 00 00 00 00 2f 12 99 3f
       1.0612113 0.75172436 0.0 1.1958674
000030 21 db 19 bd 72 7f 44 3e 00 00 00 00 69 7a b2 3f
       -0.037562493 0.19189242 0.0 1.3943607
000040 37 21 85 bc 21 41 99 bf 26 a8 a1 bf 00 00 00 00
       -0.01625119 -1.1973001 -1.262944 0.0
000050 00 00 00 00 cc 5f 85 3f 00 00 00 00 0b b7 79 3f
       0.0 1.041986 0.0 0.97544926
000060 39 9d 1a 3f 00 00 00 00 65 9b 89 bf 00 00 00 00
       0.6039615 0.0 -1.0750548 0.0
000070 14 ee ca 3f 77 f0 cd bf 35 d2 98 3f 9d 81 a4 3f
       1.5853906 -1.6089009 1.193915 1.2852055
000080 5f ec 97 bf 77 40 af 3e 00 00 00 00 84 dc 9a 3f
       -1.186901 0.3422887 0.0 1.2098546
000090 dc 14 5e 3f 5e 4a af bf 6e 93 32 3f f4 2a a4 3f
       0.8675058 -1.369457 0.6975621 1.2825608
0000a0 5d 44 95 3f b4 a5 d5 bf 00 00 00 00 dd 4c 09 bc
       1.1661488 -1.6691194 0.0 -0.008380142
0000b0 00 00 00 00 01 38 d2 bf db a5 82 3e 53 57 d5 bf
       0.0 -1.6423341 0.25517163 -1.6667274
0000c0 00 00 00 00 48 cc 8a 3f b5 64 90 bc 01 00 07 3f
       0.0 1.0843592 -0.017626146 0.5273438
0000d0 13 e8 a7 3f 00 00 00 00 7e 4f 6a 3f 6a e0 a3 3f
       1.3117698 0.0 0.91527545 1.2802861
0000e0 00 00 00 00 95 46 d5 bf 00 00 00 00 00 00 00 00
       0.0 -1.6662165 0.0 0.0
0000f0 3a 6b 7f bd 9a b7 e3 3e 81 c3 cd bf f6 36 b6 bf
       -0.06235812 0.44476014 -1.6075288 -1.4235523

conv2.0.weight f4 [64, 64]
000000 c0 aa 3d 3e 69 7c b5 3d e1 9d 28 3e 7b 2b 6e 3e
       0.18522167 0.0886162 0.16466476 0.23258774
000010 b9 2b f8 3c 57 3a 04 3e c2 4e 2e 3e c9 eb e6 bd
       0.030294286 0.1291288 0.17022231 -0.11275441
000020 22 75 67 3b 0f c6 39 bd 1c 8e 37 3d 0b 62 9e be
       0.003531762 -0.0453549 0.04481326 -0.30934176
000030 25 1f 20 3d a5 4a 6d 3d ae 99 ff 3d 49 66 2d bd
       0.0390922 0.057932515 0.12480484 -0.042333875
000040 b6 12 47 3e 75 0d 52 3e 68 82 2b 3e 00 bf 1a 3b
       0.19440731 0.20512946 0.16748965 0.002361238
000050 59 62 41 3e d4 d6 a8 be e4 23 12 3d 32 d6 23 3e
       0.18885173 -0.329764 0.03567876 0.15999678
000060 ec 51 a6 bb a1 f6 2d 3e 19 9e d4 3d b4 ed 4c 3d
       -0.005075684 0.16988613 0.10381717 0.05003138
000070 63 de 1e be a1 ce 6d bd da 3c 8a bc e1 97 28 be
       -0.15514521 -0.058058385 -0.01687472 -0.16464187
000080 7a 14 cb bc 19 51 aa be b0 45 a8 3c 10 f2 91 be
       -0.024790037 -0.33264998 0.020541042 -0.28504992
000090 19 91 79 3c fb 05 15 3e a3 62 b1 3d d9 94 49 3d
       0.015232348 0.14553063 0.086613916 0.049214218
0000a0 ae 51 af bd 0d ce 1e 3d 88 f3 e4 3c 22 df 0d be
       -0.08560501 0.038770724 0.027948156 -0.1385465
0000b0 02 26 de 3d 56 09 c5 3d f3 2d 90 3d cf 18 21 3e
       0.10847093 0.09620921 0.07040014 0.1573212
0000c0 c0 01 92 bd 96 2c e6 bd 41 e2 01 3e bd 7b 5a 3d
       -0.0712924 -0.11238973 0.12683965 0.053340662
0000d0 6f 5c 2a be c9 47 34 3e f8 6b a2 bc 56 37 60 bd
       -0.16636823 0.17605509 -0.019826874 -0.054740272
0000e0 b2 1b f4 3d 50 00 61 3e f8 d7 57 bd e2 96 e7 3d
       0.11919345 0.21972775 -0.0526962 0.113080755
0000f0 4d 0c cd 3d ca 1b 00 be 4d e6 e5 bd 7a 01 69 3e
       0.10012112 -0.125106 -0.11225567 0.2275447
000100 66 41 20 3e 40 6e 71 3e b4 bc 74 3d 3b c3 6a 3e
       0.15649948 0.23577213 0.059750274 0.22926037
000110 73 88 39 3e c4 47 1d bd e1 b7 2c bd 58 c6 d4 bc
       0.18118457 -0.03839852 -0.042167548 -0.025973484
000120 85 c1 87 bd af a1 a9 bd bd 57 23 3e 93 fa cb 3d
       -0.06628708 -0.08282792 0.15951438 0.099599026
000130 2f e0 fc bd eb 5a 4c 3e c6 c2 98 3d d8 74 c3 3d
       -0.12347447 0.19956557 0.07459025 0.095437706
000140 98 ff 53 bd 07 fc 18 3e a9 bf 4b 3e d0 45 0d bd
       -0.051757425 0.14939891 0.19897331 -0.034490407
000150 a4 52 12 be 06 a9 f0 bd f5 b8 c9 bd 73 71 2d be
       -0.14289337 -0.11750989 -0.09849731 -0.16937809
000160 1e 85 81 3d f0 70 62 3c 1f 2b 59 be e2 91 86 3d
       0.06324218 0.013820872 -0.21207856 0.06570794
000170 0f 9c 86 bd ef c0 3a 3e 82 8f 0a 3e 6a 32 c0 3d
       -0.065727346 0.18237661 0.13531306 0.09384616
000180 8e 93 9f 3c cd fd 0e 3c e1 26 dd bd 6d e6 25 be
       0.01947954 0.008727503 -0.10798431 -0.16201182
000190 8f c5 2e bd 06 09 8a 3a a5 83 c4 bd 0a b6 e7 3c
       -0.042668875 0.0010531254 -0.09595422 0.028285045
0001a0 e6 e5 86 be d1 f8 c8 3e 98 21 a0 bc a0 e7 f0 3d
       -0.26347274 0.39252332 -0.019547269 0.11762929
0001b0 80 54 8f 3a 79 7e 85 3e d1 2a 90 bd 17 aa 0a 3e
       0.0010935217 0.26073053 -0.070394166 0.13541447
0001c0 9a 16 0f be 54 44 a4 be 11 7d 05 3e 31 1e 2c 3e
       -0.13973466 -0.3208338 0.1303599 0.16808392
0001d0 b6 fb 79 bc 40 18 e4 bc b0 b5 a3 bd 51 ce 97 3d
       -0.0152577665 -0.027843595 -0.079936385 0.074123986
0001e0 10 5e 99 bc bc 77 63 3c a2 0e ee 3d 00 b6 a9 ba
       -0.01872161 0.013883527 0.11623885 -0.0012947917
0001f0 c7 54 97 3d de f8 41 3d 09 1f db 3d 9c d8 24 be
       0.07389217 0.04735648 0.10699279 -0.16098255
000200 bf 3a 3c 3e 3b de 49 be 95 44 19 3e 7c 76 46 be
       0.18381785 -0.1971368 0.14967568 -0.19381136
000210 8e 6f 33 3e fb df 24 3e 6e 22 26 3e 4c 87 39 3d
       0.17523023 0.16101067 0.16224071 0.045295045
000220 3e 68 4a 3e 5b f9 a5 3d 94 43 23 be 53 88 28 3c
       0.19766328 0.081042014 -0.15943748 0.0102864085
000230 28 26 4b be be 64 37 3d 6e a4 e2 3d 5e a7 1a be
       -0.19838774 0.04477381 0.11066519 -0.15102908
000240 03 89 15 3e 83 5a a5 bb 75 59 31 3e 9a e8 07 be
       0.14603047 -0.00504619 0.17319281 -0.13272324
000250 6c 4a 74 bd 0c fa 2a 3e fd e1 e6 bd 26 e5 69 be
       -0.059641287 0.16696948 -0.112735726 -0.2284132
000260 c2 c4 69 bd 6f 6d 1a 3e a1 2a bf bd 91 58 f4 bd
       -0.05707241 0.15080808 -0.09334303 -0.11930955
000270 1b 70 72 be 85 a7 6e be 31 e9 19 3d 23 42 e0 3d
       -0.23675577 -0.23306091 0.037575904 0.109501146
000280 bd d8 40 bd 97 db e2 3d 90 be 23 bc 96 f5 a4 bd
       -0.047081698 0.1107704 -0.009994164 -0.08054654
000290 03 b6 4c be 5f 1c 9a 3d c3 65 82 b9 6c e6 39 be
       -0.19991307 0.075249426 -0.0002487135 -0.18154305
0002a0 2b d7 4f bb de c5 b5 bd aa c2 bf 3d 43 4f ef bd
       -0.0031713943 -0.08875631 0.09363301 -0.1168504
0002b0 e2 a1 31 be 7b f2 81 bd 5e 88 89 bb bc 1c d1 3d
       -0.1734691 -0.063450776 -0.0041971644 0.10210559
0002c0 80 67 82 bc e4 a4 fa 3c f3 d0 f9 3d 56 fb dd bd
       -0.015918493 0.030596204 0.12198057 -0.10838954
0002d0 23 54 e0 bd ad cc 19 3e 67 b1 80 3d 98 de d9 ba
       -0.10953548 0.15019484 0.06283837 -0.0016622124
0002e0 98 2a f0 bc db 98 7f 3d 3c 95 2c bd 60 2e 9d 3b
       -0.029317185 0.062401634 -0.04213451 0.004796788
0002f0 fb 23 0f 3e 46 6e 37 be 0e f5 0a be 24 7c 82 3b
       0.13978569 -0.1791316 -0.13570043 0.003982084
000300 ea 83 f1 3d 40 5e 43 be 90 7d 72 3c 03 e8 86 bc
       0.11792739 -0.19078922 0.014800444 -0.016468054
000310 b0 99 a6 3c ac 2e f4 bd 89 c6 2d be c0 19 0f 3c
       0.020336956 -0.119229645 -0.16970266 0.008734167
000320 d7 7e 32 bd e4 6d 4b be 38 35 ae bd 91 92 e0 3d
       -0.043577995 -0.19866139 -0.085062444 0.10965455
000330 cf 40 33 3e 66 f8 98 bd 70 a5 e3 3c 98 19 47 be
       0.17505191 -0.07469253 0.027788848 -0.19443357
000340 5a 24 84 3d d7 ad 71 3d 1d 6c 1b 3e 1a 3d e0 3d
       0.06452246 0.059003677 0.1517796 0.10949154
000350 17 48 d8 bd a0 c7 75 bd 0b 4c bc bd 86 84 d6 3c
       -0.10560625 -0.06000483 -0.091941915 0.026186239
000360 2d 8d 3c be a8 c6 a5 bc e9 d1 2f bd 8a 40 b2 bd
       -0.1841323 -0.020236328 -0.042924795 -0.08703716
000370 a7 9c f2 3d 2d 5b b2 bd 2e 39 06 3e 99 4d e9 bd
       0.11846285 -0.08708797 0.1310775 -0.11391754
000380 9a a4 dd 3c a0 56 c9 bd d0 79 d4 bc e4 26 63 bc
       0.027056027 -0.098309755 -0.025936991 -0.013864253
000390 fc 55 1a 3d 3a 41 1c be 99 8f 5b be 20 4c 09 3e
       0.037679657 -0.15259257 -0.21441497 0.13407946
0003a0 86 42 cf 3c 5b f8 bd bc 60 5c c3 bc a0 04 13 be
       0.025300276 -0.023189714 -0.023847759 -0.14357233
0003b0 9c 20 03 3d d3 ea 72 be 38 79 a0 bd 19 a1 91 3d
       0.03201352 -0.23722391 -0.07835621 0.07110805
0003c0 43 5f c7 bd 44 fa dd 3d ba 59 be 3d 47 f9 b6 3d
       -0.097349666 0.1083875 0.09294458 0.08934265
0003d0 e5 87 09 be b2 38 fc 3d 15 33 92 bd 1e 07 52 bd
       -0.13430746 0.12315501 -0.071386494 -0.05127632
0003e0 6f d2 fc bd 46 2e 47 bd f8 6c c7 3c 91 56 43 3e
       -0.123448245 -0.048628114 0.024343953 0.19075991
0003f0 28 f2 cf 3c 24 42 d4 bd 73 d7 76 be 0a 49 12 3d
       0.025384024 -0.10364178 -0.24105625 0.035714187

conv2.0.bias f4 [64]
000000 8d 8d 70 bf 59 bf 84 bf 58 d0 6c bc 1a 27 8f bc
       -0.9396599 -1.0370895 -0.01445397 -0.0174747
000010 c4 37 7d bf b7 14 70 bf aa 0d a1 3f b0 11 5f 3f
       -0.98913217 -0.9378161 1.2582295 0.87136364
000020 c7 87 72 bd 94 2b 79 bf 00 00 00 00 2c c1 57 3f
       -0.05921152 -0.9733212 0.0 0.8427913
000030 ab 4d 71 bf 79 6c 95 3e 62 81 49 3f 31 51 4d 3f
       -0.94259137 0.2918432 0.7871305 0.80202013
000040 51 8b 96 3f cd a8 43 3f ca 60 4a 3f 9c 5a 50 bf
       1.1761266 0.76429445 0.7905394 -0.8138826
000050 00 00 00 00 6e 65 86 bf 34 03 aa 3f ab 20 4b 3f
       0.0 -1.0499704 1.3282228 0.7934672
000060 c7 8d 52 3f d1 a1 69 bc dd c1 8f 3f bc 33 48 3f
       0.82247585 -0.014259771 1.1231037 0.7820394
000070 fb b9 e0 bb 94 43 78 bf 7c a9 7f 3f 82 fe 4b 3f
       -0.006858108 -0.96978116 0.9986799 0.79685223
000080 97 43 70 bf 18 6f 69 bf a9 7b 86 bf 12 b7 6b bf
       -0.93853134 -0.9118514 -1.0506488 -0.9207622
000090 16 79 7b bf 5a 5b 4b 3f ec f4 82 bf c7 a5 69 bf
       -0.9823164 0.79436266 -1.0230994 -0.9126858
0000a0 00 00 00 00 27 cf 4f 3f df 6e 4b 3f 00 00 00 00
       0.0 0.81175464 0.7946605 0.0
0000b0 08 3d 71 3f 3e 3b 4a 3f 5a 72 6d 3f 83 b3 89 3f
       0.9423375 0.78996646 0.9275261 1.0757908
0000c0 48 27 b6 bb d5 76 51 3f cd 44 00 3f 26 7d 4a 3f
       -0.005558882 0.8182195 0.5010498 0.7909721
0000d0 36 51 a8 3f 00 00 00 00 0d f2 81 bf f0 57 eb bb
       1.3149784 0.0 -1.0151993 -0.007182114
0000e0 72 0e 19 3e d4 34 3f bc 40 0f 3e bf 34 b3 92 bf
       0.14946917 -0.01167031 -0.7424202 -1.1460938
0000f0 d7 0d 5a 3d ee f2 6a 3f 39 a2 7c bf 6d 9e 83 bf
       0.053235855 0.9177693 -0.9868503 -1.0282723

conv3.0.weight f4 [1, 64]
000000 95 43 8d be d1 e5 4c be 39 d2 d2 bd 24 77 3a 3c
       -0.27590623 -0.20009543 -0.10294003 0.011380944
000010 bd a6 3f be 96 c6 d5 bd 2e 66 53 3f f3 88 97 3e
       -0.1871595 -0.10438268 0.8257779 0.2959667
000020 fd 71 3e be 96 54 31 be 45 4b 6d be ac 11 f9 3e
       -0.1859817 -0.17317423 -0.23173244 0.48646295
000030 ed 20 7f be af 4a 9a bf 35 ce 3b 3e 9f aa a3 3e
       -0.24914904 -1.2054042 0.1834038 0.3196611
000040 64 5d 2c 3f 5a 35 a8 3d a5 56 20 3e 2a 1b 41 be
       0.6733 0.08213301 0.15658052 -0.18858019
000050 7e 55 04 3e 88 ad 45 be 44 42 91 3f 08 a4 b8 3e
       0.12923238 -0.19304478 1.1348348 0.36062646
000060 02 55 b1 3e 09 79 5d be b0 5d 77 3f b8 dd e4 3e
       0.34635168 -0.21628202 0.9662733 0.44700408
000070 8f ed 6b be bb c5 80 be 9b 18 79 3f ae 90 5e 3f
       -0.2303984 -0.25150856 0.9730317 0.86939514
000080 c2 ca 3b be 84 ec 92 bd 5f 17 b0 be 6b 88 8e be
       -0.18339065 -0.07174018 -0.3439283 -0.27838454
000090 a3 29 c4 bc 6d a7 85 3e 28 a6 b4 be 83 e0 20 be
       -0.023945635 0.26104298 -0.35283017 -0.15710644
0000a0 52 b8 83 3e fd 6a 9d 3e 02 50 a3 3e fb 2e 04 be
       0.25726563 0.30745688 0.3189698 -0.12908547
0000b0 6f 02 a4 3f de b6 1e 3f 54 8d 90 3d 86 b3 58 3f
       1.2813243 0.61997783 0.07058206 0.8464893
0000c0 67 ba cb bd ca 74 a6 3e bd 49 9e 3c 70 3e 8a 3e
       -0.09947663 0.32510978 0.01932227 0.2700076
0000d0 d1 f5 56 3e 84 65 85 3d bf d4 01 be bf bd a5 3c
       0.20992209 0.06513503 -0.12678812 0.02023208
0000e0 e6 da 4f bf 11 74 1e bb e0 92 2e be 67 4e 9b be
       -0.8119339 -0.0024178068 -0.17048216 -0.30333254
0000f0 3c e9 b7 3d 57 81 a2 3e ef 85 8b be 30 fc 8b bd
       0.08980033 0.31739303 -0.2725062 -0.0683521

exp_avg f4 [64, 4]
000000 04 00 00 00 79 bd 07 3c 01 40 e5 3a 5f 33 5c 3c
       6e-45 0.00828492 0.0017490388 0.013439982
000010 00 00 00 00 dd a2 b8 2e bf 5e 23 3d bf 5e a3 3c
       0.0 8.3962816e-11 0.03988528 0.01994264
000020 00 00 00 00 00 00 00 00 00 00 00 00 00 00 00 00
       0.0 0.0 0.0 0.0
000030 a0 e1 22 3e a6 f8 d8 3f d0 48 c2 bd 1c 7d 6e 40
       0.15906382 1.6950881 -0.09486544 3.726386
000040 00 00 00 00 04 00 00 00 04 00 00 00 04 00 00 00
       0.0 6e-45 6e-45 6e-45
000050 00 00 00 00 00 00 00 00 00 00 00 00 00 00 00 00
       0.0 0.0 0.0 0.0
000060 37 f7 d8 3d 5c 14 f6 3e 57 ec 4c bf 00 d0 ba bb
       0.105940275 0.48062408 -0.80048126 -0.005701065
000070 00 00 00 00 00 00 00 00 00 00 00 00 00 00 00 00
       0.0 0.0 0.0 0.0
000080 43 4a d4 bd d6 26 0c 3f e2 b6 e5 3f 3e 46 9a 40
       -0.10365727 0.5474676 1.7946436 4.8210745
000090 de 0c f5 b9 2a 94 9e be cc 47 a7 bf d2 df c7 3f
       -0.00046739628 -0.30972415 -1.3068786 1.561518
0000a0 00 00 00 00 00 00 00 00 00 00 00 00 00 00 00 00
       0.0 0.0 0.0 0.0
0000b0 6e 3d 5f be 86 b1 88 3f fc 38 80 40 e6 b2 22 41
       -0.21800777 1.0679176 4.006956 10.168676
0000c0 00 00 00 00 00 00 00 00 04 00 00 00 04 00 00 00
       0.0 0.0 6e-45 6e-45
0000d0 00 00 00 00 04 00 00 80 04 00 00 00 04 00 00 00
       0.0 -6e-45 6e-45 6e-45
0000e0 00 00 00 00 00 00 00 00 00 00 00 00 00 00 00 00
       0.0 0.0 0.0 0.0
0000f0 ed ea 10 be 36 64 91 bf 94 62 d1 3f c8 cc 35 40
       -0.14152117 -1.1358707 1.6358209 2.8406239
000100 00 00 00 00 00 00 00 00 04 00 00 00 04 00 00 00
       0.0 0.0 6e-45 6e-45
000110 d6 0a 91 3d 73 ec 07 3f 78 f5 11 bf a8 ea 44 bf
       0.07082145 0.5309517 -0.5701518 -0.7692056
000120 99 8c a0 3d 78 8f e1 3e d9 75 99 bf 00 af 9d bf
       0.07839317 0.4405477 -1.1989089 -1.2319031
000130 00 00 00 00 00 00 00 00 00 00 00 00 00 00 00 00
       0.0 0.0 0.0 0.0
000140 00 00 00 00 00 00 00 00 00 00 00 00 00 00 00 00
       0.0 0.0 0.0 0.0
000150 44 e3 0d be 60 31 1b bf ee 39 27 40 a0 99 40 3f
       -0.13856226 -0.60622215 2.6129107 0.75234413
000160 00 00 00 00 00 00 00 00 00 00 00 00 00 00 00 00
       0.0 0.0 0.0 0.0
000170 b8 4e e7 bc 30 bb 36 bf ce 8b 60 3e 84 bf de bf
       -0.028235778 -0.71379375 0.21928331 -1.7402196
000180 17 e1 54 bb e9 76 ff be 00 ba 50 bb a5 e8 1b c0
       -0.0032482797 -0.4989541 -0.0031849146 -2.4360745
000190 00 00 00 00 00 00 00 00 00 00 00 00 00 00 00 00
       0.0 0.0 0.0 0.0
0001a0 b5 7d ad ba e0 d9 24 bc 1f f1 f5 be 84 12 37 c0
       -0.0013236316 -0.010061711 -0.48035523 -2.860505
0001b0 00 00 00 00 00 00 00 00 00 00 00 00 00 00 00 00
       0.0 0.0 0.0 0.0
0001c0 10 36 01 be 6e 94 30 bf 2a c7 90 3f 88 3e 5c 40
       -0.1261828 -0.68976486 1.131078 3.4413166
0001d0 50 55 a1 3d c6 a0 bf 3f c4 a3 f7 be 70 14 3b 40
       0.078776 1.4970939 -0.4836713 2.9231224
0001e0 10 bd d1 bc 38 eb dd bd 4a 81 d5 3e 75 f1 1f 40
       -0.025602847 -0.1083588 0.41700202 2.4991124
0001f0 42 be 3f be 1c 42 34 3f bd 84 65 40 64 01 ef 40
       -0.18724921 0.70413375 3.5862267 7.4689198
000200 92 7b 79 3d ac f5 27 3e bc 50 25 bf 64 bf 22 c0
       0.06090886 0.1640231 -0.64576316 -2.5429316
000210 00 00 00 00 04 00 00 80 04 00 00 00 04 00 00 00
       0.0 -6e-45 6e-45 6e-45
000220 00 00 00 00 00 00 00 00 00 00 00 00 00 00 00 00
       0.0 0.0 0.0 0.0
000230 c1 eb 2d be e0 9a e3 be 0d 1a 52 40 88 e2 b6 40
       -0.16984464 -0.44454098 3.28284 5.7151527
000240 35 8d 80 bd a8 6c 68 bf 08 bf 2c c0 87 7d 0d c1
       -0.06276933 -0.90790796 -2.6991596 -8.843146
000250 32 14 aa 3d 0e 1c 59 3f 1e d9 78 bf c0 51 f8 3e
       0.08304633 0.84808433 -0.97206295 0.4849987
000260 d7 11 e2 bc b6 0f b9 3e 2e 7b 36 3f a0 68 42 3f
       -0.027596397 0.361448 0.7128171 0.75940895
000270 be d0 4e be cc 0d 9d 3f 3e 05 85 40 2a 68 15 41
       -0.20196816 1.2269835 4.15689 9.337931
000280 ac e4 44 be c8 af 3d bf 0c ed 38 40 4c a9 b4 40
       -0.19227856 -0.74096346 2.8894682 5.645666
000290 67 22 12 be bf 6c 43 40 94 81 da bf 80 db 09 c0
       -0.14270936 3.0535123 -1.7070794 -2.1540222
0002a0 00 00 00 00 00 00 00 00 00 00 00 00 00 00 00 00
       0.0 0.0 0.0 0.0
0002b0 2b 6f d6 3d 7a 0f 32 c0 e0 b7 3f c0 3e e9 25 c1
       0.10470422 -2.7821946 -2.9955978 -10.369444
0002c0 00 00 00 00 00 00 00 00 00 00 00 00 00 00 00 00
       0.0 0.0 0.0 0.0
0002d0 cb 89 f6 3e 8c 22 3b bf 01 a5 08 c0 ba 0c 3b c2
       0.48152003 -0.7309959 -2.135071 -46.76243
0002e0 0e ce 03 ba 18 a0 a5 bd 76 f2 1c 3e 38 53 d0 bf
       -0.0005027958 -0.08087176 0.15326867 -1.6275396
0002f0 74 58 94 3d 6f 4e ad 3f f5 e4 65 bf 8c 0b 09 40
       0.072434336 1.3539561 -0.89802486 2.1413298
000300 00 00 00 00 00 00 00 00 00 00 00 00 00 00 00 00
       0.0 0.0 0.0 0.0
000310 9c be af be 80 0d af be a0 a9 cd 40 54 8a 9a 41
       -0.3432511 -0.34189987 6.426956 19.317543
000320 00 00 00 00 04 00 00 00 04 00 00 00 04 00 00 00
       0.0 6e-45 6e-45 6e-45
000330 60 1a 79 bc 59 68 80 3e ec bd 1a 3f d5 7b f4 3f
       -0.015204042 0.2507961 0.6044605 1.910029
000340 1e 6a 27 be 80 d9 07 3e 8a 39 2c 40 48 28 a1 40
       -0.16349074 0.13266563 2.691012 5.036167
000350 00 00 00 00 00 00 00 00 00 00 00 00 00 00 00 00
       0.0 0.0 0.0 0.0
000360 46 ec 57 bc a5 ec 05 bf 7a 28 a6 3e 68 58 0e bf
       -0.013178891 -0.52314216 0.32452756 -0.5560365
000370 d2 57 b7 bd b0 3e 0b bf c9 05 b4 3f 48 0b b6 3f
       -0.08952297 -0.5439253 1.4064265 1.4222193
000380 00 00 00 00 00 00 00 00 00 00 00 00 00 00 00 00
       0.0 0.0 0.0 0.0
000390 f4 23 04 3e 28 bd 11 3f bf 70 9f bf a0 60 fd bf
       0.1290434 0.56929255 -1.2456282 -1.9795113
0003a0 00 00 00 00 00 00 00 00 00 00 00 00 00 00 00 00
       0.0 0.0 0.0 0.0
0003b0 00 00 00 00 00 00 00 00 00 00 00 00 00 00 00 00
       0.0 0.0 0.0 0.0
0003c0 00 00 00 00 04 00 00 80 04 00 00 00 04 00 00 00
       0.0 -6e-45 6e-45 6e-45
0003d0 00 00 00 00 04 00 00 00 3d 5e e5 2e 3d 5e 65 2e
       0.0 6e-45 1.04304544e-10 5.2152272e-11
0003e0 c7 f5 5e 3d 73 13 16 3f 5c a0 01 bf 20 ac 3b bf
       0.05443361 0.5862343 -0.50635314 -0.73309517
0003f0 ba 08 52 3d 10 39 87 3f ba 5c 80 be b8 d9 03 40
       0.051277854 1.0564289 -0.25070745 2.0601635

exp_avg_sq f4 [64, 4]
000000 1e af 83 32 06 06 8d 40 19 44 82 3e c7 84 91 41
       1.5330041e-08 4.4069853 0.2544258 18.189833
000010 00 00 00 00 cd 4b b5 3d 89 99 7d 3e 4a 8e 01 3f
       0.0 0.088523485 0.247656 0.5060774
000020 00 00 00 00 00 00 00 00 00 00 00 00 00 00 00 00
       0.0 0.0 0.0 0.0
000030 e6 0a 88 3d 91 22 71 43 23 70 ff 42 e1 36 9e 46
       0.06642704 241.13503 127.71902 20251.44
000040 00 00 00 00 33 19 2d 37 42 de f6 34 7c c3 e3 37
       0.0 1.0317471e-05 4.5982785e-07 2.7151538e-05
000050 00 00 00 00 00 00 00 00 00 00 00 00 00 00 00 00
       0.0 0.0 0.0 0.0
000060 89 47 51 3d 67 0d 3e 43 9b c3 ce 42 32 c3 6e 46
       0.051093612 190.05235 103.38204 15280.799
000070 00 00 00 00 00 00 00 00 00 00 00 00 00 00 00 00
       0.0 0.0 0.0 0.0
000080 73 a8 93 3d 99 cf 8e 43 74 2e 1c 43 28 c4 aa 46
       0.072098635 285.62186 156.18146 21858.078
000090 cc 5c 8e 39 18 43 ea 40 08 58 d7 41 c3 a7 1c 43
       0.0002715349 7.32069 26.917984 156.65532
0000a0 00 00 00 00 00 00 00 00 00 00 00 00 00 00 00 00
       0.0 0.0 0.0 0.0
0000b0 49 78 a3 3e 85 7e 9e 44 86 01 21 44 b9 51 bd 47
       0.31927708 1267.9537 644.0238 96931.445
0000c0 00 00 00 00 00 00 00 00 60 02 d5 34 60 02 d5 33
       0.0 0.0 3.967607e-07 9.9190174e-08
0000d0 00 00 00 00 13 c6 5b 3a f4 fa 77 3c 87 10 7b 3c
       0.0 0.00083837024 0.0151355155 0.015323765
0000e0 00 00 00 00 00 00 00 00 00 00 00 00 00 00 00 00
       0.0 0.0 0.0 0.0
0000f0 df ba db 3d 84 63 2b 44 5d d2 6e 43 12 82 0a 47
       0.10729002 685.55493 238.82173 35458.07
000100 00 00 00 00 00 00 00 00 46 ab 24 34 46 ab 24 33
       0.0 0.0 1.5335999e-07 3.8339998e-08
000110 59 b4 dd 3c f6 7a 14 43 cf fb 5e 42 ea 77 01 46
       0.027063536 148.48032 55.745907 8285.979
000120 39 aa 65 3d 97 fd 50 43 e8 88 e3 42 c2 62 7c 46
       0.05607054 208.99059 113.767395 16152.689
000130 00 00 00 00 00 00 00 00 00 00 00 00 00 00 00 00
       0.0 0.0 0.0 0.0
000140 00 00 00 00 00 00 00 00 00 00 00 00 00 00 00 00
       0.0 0.0 0.0 0.0
000150 5c 53 28 3e 69 07 0d 44 40 12 b6 43 98 cc 40 47
       0.16438049 564.1158 364.14258 49356.594
000160 00 00 00 00 00 00 00 00 00 00 00 00 00 00 00 00
       0.0 0.0 0.0 0.0
000170 7e 4b 0e 3c 85 11 5c 42 3c a7 96 41 47 0c 37 45
       0.008684991 55.01711 18.831657 2928.7673
000180 ff e8 86 3a 48 75 b7 41 e1 75 8f 40 30 46 da 43
       0.0010292827 22.932266 4.4831395 436.54834
000190 00 00 00 00 00 00 00 00 00 00 00 00 00 00 00 00
       0.0 0.0 0.0 0.0
0001a0 38 db 08 3b 9b 4a 88 41 01 41 05 41 b4 52 9c 44
       0.0020882618 17.036428 8.32837 1250.5845
0001b0 00 00 00 00 00 00 00 00 00 00 00 00 00 00 00 00
       0.0 0.0 0.0 0.0
0001c0 ad eb b4 3d b2 2d f7 43 45 2a 38 43 75 1d db 46
       0.08834014 494.357 184.16512 28046.729
0001d0 87 93 6e 3d 57 a9 9a 43 10 7d f9 42 90 34 8d 46
       0.05824616 309.32297 124.74426 18074.281
0001e0 dc 24 30 3b 19 64 f8 41 d6 4d f7 40 f7 c4 86 44
       0.0026877439 31.048876 7.7282515 1078.1552
0001f0 36 c2 80 3e f0 53 60 44 3f 56 ff 43 1b 4a 94 47
       0.2514817 897.3115 510.6738 75924.21
000200 3e ee bd 3c 93 10 f1 42 03 0c 4b 42 66 31 dc 45
       0.023184892 120.53237 50.76173 7046.175
000210 00 00 00 00 9d 2e f6 3a 08 86 4d 3d 22 f4 3c 3d
       0.0 0.0018782202 0.05017665 0.04613126
000220 00 00 00 00 00 00 00 00 00 00 00 00 00 00 00 00
       0.0 0.0 0.0 0.0
000230 0e ef 5d 3e fa ed 8b 44 d7 38 e8 43 7a f9 84 47
       0.21673223 1119.4368 464.44406 68082.95
000240 3a b1 89 3b 9b f7 0f 40 41 38 56 41 f6 f5 18 43
       0.0042020353 2.2494876 13.388734 152.96078
000250 2e 15 80 3d 52 b6 61 43 66 c2 f1 42 84 a4 90 46
       0.0625404 225.71219 120.879684 18514.258
000260 4d 9f f1 3b 5a 3d cd 41 41 8c 8b 41 4b 3d 03 45
       0.0073737265 25.654957 17.443483 2099.8308
000270 c5 52 94 3e c4 63 81 44 01 f2 10 44 6f 4e a9 47
       0.28969398 1035.1177 579.7813 86684.87
000280 6c 85 8a 3e 06 44 b7 44 46 1a 11 44 7b 8e a5 47
       0.27054918 1466.1257 580.4105 84764.96
000290 44 96 71 3e 84 32 ab 44 8c 74 31 44 93 2f eb 47
       0.23592478 1369.5786 709.82104 120415.15
0002a0 00 00 00 00 00 00 00 00 00 00 00 00 00 00 00 00
       0.0 0.0 0.0 0.0
0002b0 fe b4 31 3d e8 5c 4a 42 8b d3 68 42 a6 3f a9 44
       0.0433855 50.59073 58.206585 1353.989
0002c0 00 00 00 00 00 00 00 00 00 00 00 00 00 00 00 00
       0.0 0.0 0.0 0.0
0002d0 62 b2 12 3e a2 5f b4 43 4b 4c 8e 43 db f6 13 47
       0.1432586 360.74713 284.59604 37878.855
0002e0 2a b8 c7 39 56 00 69 40 b8 05 0c 40 73 7c d6 42
       0.0003809345 3.6406455 2.187849 107.243065
0002f0 fe c3 32 3d 3d b0 54 43 9e 8c ba 42 51 3a 52 46
       0.043643944 212.68843 93.27464 13454.579
000300 00 00 00 00 00 00 00 00 00 00 00 00 00 00 00 00
       0.0 0.0 0.0 0.0
000310 af e5 a5 3f 16 23 78 45 e9 b8 18 45 27 b8 c1 48
       1.2960719 3970.1929 2443.557 396737.22
000320 00 00 00 00 c4 0b 38 39 35 5d 04 37 5a 27 19 3a
       0.0 0.0001755199 7.889515e-06 0.00058423507
000330 7c 55 0a 3b d5 1d fa 40 2a 7c 9f 40 3e 5f 19 44
       0.0021108082 7.8161416 4.9839067 613.48816
000340 8f dd 21 3e ba c6 27 44 fd 8d 9e 43 76 3a 3a 47
       0.15807174 671.1051 317.10928 47674.46
000350 00 00 00 00 00 00 00 00 00 00 00 00 00 00 00 00
       0.0 0.0 0.0 0.0
000360 d8 f8 75 3b fa b3 11 42 a5 d7 1e 41 0e 43 a4 44
       0.0037532356 36.42576 9.927648 1314.0955
000370 81 6e 5f 3d 66 55 86 43 35 00 dd 42 24 e1 7f 46
       0.054548744 268.66718 110.500404 16376.285
000380 00 00 00 00 00 00 00 00 00 00 00 00 00 00 00 00
       0.0 0.0 0.0 0.0
000390 e7 f5 ad 3d 57 11 98 43 9b 15 27 43 62 17 c5 46
       0.08494168 304.13547 167.0844 25227.691
0003a0 00 00 00 00 00 00 00 00 00 00 00 00 00 00 00 00
       0.0 0.0 0.0 0.0
0003b0 00 00 00 00 00 00 00 00 00 00 00 00 00 00 00 00
       0.0 0.0 0.0 0.0
0003c0 00 00 00 00 5b 33 69 38 49 51 c8 3a 46 1a e2 3a
       0.0 5.5599357e-05 0.0015283014 0.0017250262
0003d0 00 00 00 00 bf 7c be 39 eb df 11 3c 8a c3 e6 3b
       0.0 0.00036332567 0.008903484 0.007042353
0003e0 4b 70 a5 3c 65 0c e2 42 36 98 39 42 8f 52 c3 45
       0.020195147 113.02421 46.398643 6250.32
0003f0 a8 7e 88 3c 47 44 e5 42 b4 74 1d 42 62 d4 ad 45
       0.016661957 114.633354 39.363968 5562.548

exp_avg f4 [64]
000000 7b 0d c1 38 68 74 21 bd 00 00 00 00 c6 4a be 3e
       9.205468e-05 -0.039417654 0.0 0.37166423
000010 04 00 00 00 00 00 00 00 e3 41 39 3e 00 00 00 00
       6e-45 0.0 0.1809154 0.0
000020 ac 08 e4 3c ae 28 b1 be 00 00 00 00 dc c5 0c 3d
       0.027836166 -0.3460135 0.0 0.03436838
000030 04 00 00 00 26 69 2e bc 00 00 00 00 64 f3 8e bd
       6e-45 -0.0106451865 0.0 -0.06980017
000040 04 00 00 00 99 c4 db 3c ab 61 01 3e 00 00 00 00
       6e-45 0.026827144 0.12634914 0.0
000050 00 00 00 00 84 2d 69 bd 00 00 00 00 c0 11 2b bd
       0.0 -0.056928173 0.0 -0.041764975
000060 90 87 b6 3b 00 00 00 00 dd ca 63 3d 00 00 00 00
       0.0055703595 0.0 0.055613387 0.0
000070 22 3e c7 bd fc b3 31 3e 63 ff f3 3b 50 bb d4 bc
       -0.09728648 0.17353815 0.007446216 -0.025968224
000080 d1 0c 6b 3d 49 2f f9 bc 00 00 00 00 98 a8 0d bd
       0.05738527 -0.030418055 0.0 -0.03458461
000090 9a a7 8d be 33 ef 63 3e 2c da 66 3d d0 9d c2 3c
       -0.27666932 0.22259216 0.05636041 0.023756891
0000a0 10 9f b0 bc 55 ed 98 3f 00 00 00 00 a2 07 14 bf
       -0.021560222 1.1947428 0.0 -0.57824147
0000b0 00 00 00 00 58 7a a3 3e 49 17 15 3d 07 20 1f 3e
       0.0 0.31929278 0.03639916 0.15539561
0000c0 00 00 00 00 99 bf f8 be 04 00 00 00 de 53 8a 3d
       0.0 -0.48583677 6e-45 0.06754278
0000d0 18 a3 25 bd 00 00 00 00 86 b0 cd bc 2c 32 e2 bc
       -0.04043874 0.0 -0.025108587 -0.027611814
0000e0 00 00 00 00 87 80 16 3e 00 00 00 00 00 00 00 00
       0.0 0.14697467 0.0 0.0
0000f0 04 00 00 00 14 1f 3e bd 22 f6 19 3e 78 da 10 3e
       6e-45 -0.046416357 0.15035298 0.14145839

exp_avg_sq f4 [64]
000000 09 45 67 3a 2b e4 d4 3d 00 00 00 00 02 cd 89 3f
       0.0008822238 0.10395082 0.0 1.0765688
000010 b1 f4 0c 33 00 00 00 00 e8 45 58 3f 00 00 00 00
       3.2818836e-08 0.0 0.8448167 0.0
000020 cf ad ad 3f 1d 20 85 3f 00 00 00 00 f2 d3 b9 40
       1.3568667 1.0400425 0.0 5.807122
000030 60 02 d5 31 8e b3 bf 3c 00 00 00 00 19 cd f8 3f
       6.199386e-09 0.023401048 0.0 1.9437591
000040 46 ab 24 31 98 4f e9 3e 87 b5 7e 3f 00 00 00 00
       2.3962499e-09 0.45568538 0.9949574 0.0
000050 00 00 00 00 a7 86 47 40 00 00 00 00 26 5d 41 3e
       0.0 3.1175935 0.0 0.1888319
000060 6c 20 8b 3d 00 00 00 00 26 6d 87 3d 00 00 00 00
       0.06793293 0.0 0.06612615 0.0
000070 87 01 c6 3f a5 92 81 3f 8c 01 53 3d 93 b1 92 40
       1.5469216 1.0122877 0.051515147 4.5841765
000080 44 e7 ce 3e ef 0b 4b 3d 00 00 00 00 09 c4 79 40
       0.40410817 0.049571928 0.0 3.90259
000090 d4 8e 03 3f d4 a4 89 3f 2c 5d 48 3e 5e 34 ac 40
       0.51389813 1.0753427 0.19566792 5.3813925
0000a0 b5 b4 9e 40 e2 f9 ce 40 00 00 00 00 da a5 3a 3f
       4.959559 6.4680033 0.0 0.7290932
0000b0 00 00 00 00 5f 5d 0a 40 64 02 5c 3d 1b 6a 45 3f
       0.0 2.161949 0.053713217 0.7711503
0000c0 00 00 00 00 15 09 b5 41 df b4 3b 33 58 02 85 3d
       0.0 22.629435 4.370383e-08 0.06494588
0000d0 3e 93 36 40 00 00 00 00 d7 14 ac 3d 23 4c 7b 3f
       2.852737 0.0 0.084024124 0.9816305
0000e0 00 00 00 00 9d cc b1 3f 00 00 00 00 00 00 00 00
       0.0 1.3890568 0.0 0.0
0000f0 cb 8d 5c 37 db 82 d7 3d 4f 2e c1 3e 21 3f 95 3e
       1.3146036e-05 0.105230056 0.37730643 0.29149726

exp_avg f4 [64, 64]
000000 f8 d7 a4 38 04 00 00 80 00 00 00 00 e2 1a a6 bd
       7.860357e-05 -6e-45 0.0 -0.08110596
000010 04 00 00 80 00 00 00 00 dc 47 91 3d 00 00 00 00
       -6e-45 0.0 0.07093784 0.0
000020 74 04 70 3d 68 6e 8d 3d 00 00 00 00 8e 0b b0 3d
       0.058597997 0.06905824 0.0 0.08595954
000030 04 00 00 00 04 00 00 80 00 00 00 00 74 05 1d 3e
       6e-45 -6e-45 0.0 0.15334111
000040 04 00 00 00 8b d0 91 3e e3 4c cc 3d 00 00 00 00
       6e-45 0.28479418 0.099756025 0.0
000050 00 00 00 00 41 27 37 3d 00 00 00 00 10 15 38 3e
       0.0 0.04471517 0.0 0.17976785
000060 54 6e b4 3e 00 00 00 00 cd f2 05 bd 00 00 00 00
       0.35240424 0.0 -0.032702256 0.0
000070 68 23 53 3e c0 fe d9 3b 73 9f 2c 3e c1 84 af 3d
       0.20618975 0.006652683 0.168577 0.08570243
000080 8b 14 71 3e 04 00 00 80 00 00 00 00 fa 28 cf 3d
       0.23542993 -6e-45 0.0 0.101152375
000090 b1 ad 49 bc ca c7 7e 3d ea c0 5a 3d 1c 0a bb 3d
       -0.012309478 0.062202252 0.053406633 0.091327876
0000a0 47 73 0a 3e 32 73 e1 bd 00 00 00 00 4c 50 92 3d
       0.13520537 -0.110083 0.0 0.07144222
0000b0 00 00 00 00 cd 74 05 be f6 4c eb 3d c8 c7 21 3d
       0.0 -0.13032837 0.114892885 0.039497167
0000c0 00 00 00 00 7f e5 41 3d 04 00 00 00 e8 67 3b 3d
       0.0 0.047338005 6e-45 0.04575339
0000d0 11 a6 85 3d 00 00 00 00 f0 ee 20 3e c6 a5 38 3e
       0.06525815 0.0 0.15716147 0.18031988
0000e0 00 00 00 00 b4 f2 02 3d 00 00 00 00 00 00 00 00
       0.0 0.03196974 0.0 0.0
0000f0 04 00 00 80 04 00 00 80 00 b7 d6 3c 40 1c 3a bb
       -6e-45 -6e-45 0.026210308 -0.0028398186
000100 70 e6 6e 38 04 00 00 80 00 00 00 00 10 1d 71 bd
       5.6958233e-05 -6e-45 0.0 -0.058865607
000110 04 00 00 80 00 00 00 00 1e 50 23 3d 00 00 00 00
       -6e-45 0.0 0.039871328 0.0
000120 20 6e 92 3c 51 c9 6a 3d 00 00 00 00 4d d2 1f 3d
       0.017874777 0.057320897 0.0 0.039018918
000130 00 00 00 00 04 00 00 80 00 00 00 00 26 02 bd 3d
       0.0 -6e-45 0.0 0.092289254
000140 00 00 00 00 32 6c 03 3e 98 85 4a 3d 00 00 00 00
       0.0 0.12834242 0.04944381 0.0
000150 00 00 00 00 9a 77 b7 3c 00 00 00 00 39 b1 aa 3d
       0.0 0.022395898 0.0 0.08334584
000160 f8 b2 2b 3e 00 00 00 00 bd fe c0 bc 00 00 00 00
       0.1676749 0.0 -0.023558969 0.0
000170 50 e5 fa 3d 38 a9 fe bc f4 45 98 3d 0c 30 09 3d
       0.12250769 -0.03108655 0.074352175 0.033493087
000180 78 77 f0 3d 04 00 00 80 00 00 00 00 9c 1c 01 3d
       0.11741537 -6e-45 0.0 0.031521425
000190 55 25 64 3b e8 fb 1e 3d b0 61 fb 3b 2f af 29 3d
       0.003481229 0.038814455 0.0076715574 0.041426834
0001a0 24 45 43 3d cc f5 a2 bd 00 00 00 00 41 3a 6a 3d
       0.04767336 -0.07957038 0.0 0.05718446
0001b0 00 00 00 00 cd ef b8 bd 16 38 45 3d b0 04 01 bc
       0.0 -0.09030113 0.04814919 -0.007874653
0001c0 00 00 00 00 7a f7 fb 3c 04 00 00 00 08 4c 40 3c
       0.0 0.030757654 6e-45 0.011736877
0001d0 ec b1 15 3d 00 00 00 00 8e 3d b7 3d f6 00 e1 3d
       0.036546633 0.0 0.089472875 0.109865114
0001e0 00 00 00 00 68 43 04 3c 00 00 00 00 00 00 00 00
       0.0 0.0080727115 0.0 0.0
0001f0 04 00 00 80 04 00 00 80 e0 a5 07 bc 50 cd 85 bc
       -6e-45 -6e-45 -0.008279294 -0.016333252
000200 04 00 00 00 00 00 00 00 00 00 00 00 04 00 00 00
       6e-45 0.0 0.0 6e-45
000210 04 00 00 00 00 00 00 00 04 00 00 00 00 00 00 00
       6e-45 0.0 6e-45 0.0
000220 04 00 00 00 04 00 00 00 00 00 00 00 04 00 00 00
       6e-45 6e-45 0.0 6e-45
000230 00 00 00 00 04 00 00 00 00 00 00 00 04 00 00 00
       0.0 6e-45 0.0 6e-45
000240 00 00 00 00 04 00 00 00 04 00 00 00 00 00 00 00
       0.0 6e-45 6e-45 0.0
000250 00 00 00 00 04 00 00 00 00 00 00 00 04 00 00 00
       0.0 6e-45 0.0 6e-45
000260 04 00 00 00 00 00 00 00 04 00 00 00 00 00 00 00
       6e-45 0.0 6e-45 0.0
000270 04 00 00 00 04 00 00 00 04 00 00 00 04 00 00 00
       6e-45 6e-45 6e-45 6e-45
000280 04 00 00 00 04 00 00 00 00 00 00 00 04 00 00 00
       6e-45 6e-45 0.0 6e-45
000290 00 00 00 00 04 00 00 00 04 00 00 00 00 00 00 00
       0.0 6e-45 6e-45 0.0
0002a0 04 00 00 00 04 00 00 00 00 00 00 00 04 00 00 00
       6e-45 6e-45 0.0 6e-45
0002b0 00 00 00 00 04 00 00 00 04 00 00 00 04 00 00 00
       0.0 6e-45 6e-45 6e-45
0002c0 00 00 00 00 04 00 00 00 04 00 00 00 04 00 00 00
       0.0 6e-45 6e-45 6e-45
0002d0 04 00 00 00 00 00 00 00 04 00 00 00 04 00 00 00
       6e-45 0.0 6e-45 6e-45
0002e0 00 00 00 00 04 00 00 00 00 00 00 00 00 00 00 00
       0.0 6e-45 0.0 0.0
0002f0 00 00 00 00 00 00 00 00 04 00 00 00 04 00 00 00
       0.0 0.0 6e-45 6e-45
000300 00 00 00 00 00 00 00 00 00 00 00 00 04 00 00 00
       0.0 0.0 0.0 6e-45
000310 00 00 00 00 00 00 00 00 04 00 00 00 00 00 00 00
       0.0 0.0 6e-45 0.0
000320 04 00 00 00 00 00 00 00 00 00 00 00 04 00 00 00
       6e-45 0.0 0.0 6e-45
000330 00 00 00 00 00 00 00 00 00 00 00 00 04 00 00 00
       0.0 0.0 0.0 6e-45
000340 00 00 00 00 04 00 00 00 04 00 00 00 00 00 00 00
       0.0 6e-45 6e-45 0.0
000350 00 00 00 00 04 00 00 00 00 00 00 00 04 00 00 00
       0.0 6e-45 0.0 6e-45
000360 04 00 00 00 00 00 00 00 04 00 00 00 00 00 00 00
       6e-45 0.0 6e-45 0.0
000370 04 00 00 00 04 00 00 00 04 00 00 00 04 00 00 00
       6e-45 6e-45 6e-45 6e-45
000380 04 00 00 00 00 00 00 00 00 00 00 00 04 00 00 00
       6e-45 0.0 0.0 6e-45
000390 00 00 00 00 04 00 00 00 04 00 00 00 04 00 00 00
       0.0 6e-45 6e-45 6e-45
0003a0 04 00 00 00 04 00 00 00 00 00 00 00 04 00 00 00
       6e-45 6e-45 0.0 6e-45
0003b0 00 00 00 00 04 00 00 00 04 00 00 00 04 00 00 00
       0.0 6e-45 6e-45 6e-45
0003c0 00 00 00 00 04 00 00 80 00 00 00 00 04 00 00 00
       0.0 -6e-45 0.0 6e-45
0003d0 04 00 00 00 00 00 00 00 04 00 00 00 04 00 00 00
       6e-45 0.0 6e-45 6e-45
0003e0 00 00 00 00 04 00 00 00 00 00 00 00 00 00 00 00
       0.0 6e-45 0.0 0.0
0003f0 00 00 00 00 00 00 00 00 04 00 00 00 04 00 00 00
       0.0 0.0 6e-45 6e-45

exp_avg_sq f4 [64, 64]
000000 60 ba 05 3a a5 58 38 37 00 00 00 00 cb 47 ca 3f
       0.00051013194 1.0987894e-05 0.0 1.580316
000010 42 fb da 2f 00 00 00 00 17 a3 3f 40 00 00 00 00
       3.9832498e-10 0.0 2.9943292 0.0
000020 4a a7 f1 3f 7a 3e 81 3c 00 00 00 00 24 8c b1 3f
       1.8879178 0.015776861 0.0 1.3870893
000030 65 a7 2a 31 d7 38 14 36 00 00 00 00 c7 d5 03 3f
       2.4833409e-09 2.2086804e-06 0.0 0.51498073
000040 72 aa d1 2d 04 12 0c 42 fe 3c c7 40 00 00 00 00
       2.3836242e-11 35.017593 6.2261953 0.0
000050 00 00 00 00 8c c6 d6 3d 00 00 00 00 c6 bd 18 41
       0.0 0.104870886 0.0 9.546331
000060 e8 a4 0e 42 00 00 00 00 91 da 5d 3f 00 00 00 00
       35.66104 0.0 0.8666163 0.0
000070 b9 99 c7 3f a0 01 3c 41 87 4a 2a 41 0c a1 18 40
       1.5593787 11.750397 10.643195 2.3848295
000080 4f 82 a0 41 c3 2e 10 37 00 00 00 00 5d 04 ad 40
       20.063627 8.593956e-06 0.0 5.4067826
000090 2e e8 4d 3c 50 01 26 40 b9 c4 b0 40 f5 ae db 3f
       0.012567563 2.59383 5.524014 1.7162768
0000a0 38 94 00 41 55 df 97 3e 00 00 00 00 c9 76 07 3e
       8.036186 0.29662576 0.0 0.13228907
0000b0 00 00 00 00 02 73 5d 3e 88 8a 79 41 a5 0d 47 41
       0.0 0.21625903 15.596321 12.440831
0000c0 00 00 00 00 67 6a 4e 3e e5 7b 8b 36 88 eb 8a 40
       0.0 0.20157777 4.156946e-06 4.3412514
0000d0 de 23 1d 3e 00 00 00 00 5c 70 39 40 72 11 6f 3f
       0.15345713 0.0 2.8974829 0.93385994
0000e0 00 00 00 00 a7 ce 4b 40 00 00 00 00 00 00 00 00
       0.0 3.184488 0.0 0.0
0000f0 f7 bf 98 36 6a 3b e8 36 5b 62 1e 41 50 8a ce 40
       4.5523007e-06 6.9210555e-06 9.899013 6.454384
000100 f6 ea 74 39 b5 00 32 36 00 00 00 00 be 57 45 3f
       0.00023357183 2.6524478e-06 0.0 0.7708701
000110 e7 6f 08 2f 00 00 00 00 99 1b bb 3f 00 00 00 00
       1.2408884e-10 0.0 1.4617797 0.0
000120 24 59 6b 3f b9 9f 02 3c 00 00 00 00 ac 71 2c 3f
       0.9193289 0.007972651 0.0 0.6736095
000130 00 00 00 00 b0 7c 61 34 00 00 00 00 81 d0 7b 3e
       0.0 2.1000119e-07 0.0 0.24591257
000140 00 00 00 00 59 31 88 41 75 82 41 40 00 00 00 00
       0.0 17.024096 3.0235875 0.0
000150 00 00 00 00 26 60 55 3d 00 00 00 00 c3 55 94 40
       0.0 0.052093647 0.0 4.635469
000160 a0 9d 8a 41 00 00 00 00 a6 91 da 3e 00 00 00 00
       17.326965 0.0 0.42689246 0.0
000170 55 3d 42 3f 59 ea b6 40 7f 85 a5 40 ca 89 94 3f
       0.75874835 5.716107 5.172546 1.160455
000180 4f f0 1b 41 35 40 3b 35 00 00 00 00 8d 31 28 40
       9.746169 6.975636e-07 0.0 2.6280243
000190 71 66 de 3b d8 4f a1 3f 03 16 2c 40 9b ba 55 3f
       0.0067871143 1.2602491 2.6888435 0.8348786
0001a0 c4 2c 7a 40 43 09 15 3e 00 00 00 00 cf 70 7d 3d
       3.9089823 0.14554314 0.0 0.06187516
0001b0 00 00 00 00 24 19 d7 3d be 3d f3 40 f4 97 c1 40
       0.0 0.10502842 7.601287 6.049799
0001c0 00 00 00 00 15 6c c8 3d 3b 19 a0 35 4c 74 08 40
       0.0 0.0978624 1.1928272e-06 2.1320982
0001d0 8e 7a 98 3d 00 00 00 00 b6 b4 b3 3f 6e 44 e6 3e
       0.074452505 0.0 1.4039524 0.44974083
0001e0 00 00 00 00 8d e5 c6 3f 00 00 00 00 00 00 00 00
       0.0 1.5538803 0.0 0.0
0001f0 ba d4 83 32 d9 30 87 35 7e ce 99 40 c3 64 49 40
       1.5347144e-08 1.00725e-06 4.8064566 3.146775
000200 c7 e7 23 34 00 00 00 00 00 00 00 00 b7 a2 24 34
       1.5264878e-07 0.0 0.0 1.5332886e-07
000210 41 c0 17 29 00 00 00 00 37 ec 54 36 00 00 00 00
       3.369549e-14 0.0 3.1727957e-06 0.0
000220 67 c3 17 29 6a c3 17 29 00 00 00 00 65 c3 17 29
       3.369822e-14 3.369823e-14 0.0 3.3698213e-14
000230 00 00 00 00 b7 c2 17 29 00 00 00 00 34 c6 17 35
       0.0 3.3697624e-14 0.0 5.6540307e-07
000240 00 00 00 00 ad 91 14 37 34 11 5e 36 00 00 00 00
       0.0 8.855405e-06 3.3090591e-06 0.0
000250 00 00 00 00 6a c3 17 29 00 00 00 00 23 ae 8a 36
       0.0 3.369823e-14 0.0 4.1329927e-06
000260 df e0 56 37 00 00 00 00 51 a1 a3 36 00 00 00 00
       1.2807751e-05 0.0 4.8765583e-06 0.0
000270 e4 ff 25 36 c6 61 19 35 be 2f 92 36 ee c1 17 29
       2.4735864e-06 5.713922e-07 4.356697e-06 3.3696943e-14
000280 85 df 17 37 2b c3 17 29 00 00 00 00 80 62 1c 34
       9.052344e-06 3.3698017e-14 0.0 1.4564466e-07
000290 00 00 00 00 cb 31 55 36 f7 4b ce 33 00 00 00 00
       0.0 3.1768457e-06 9.6064404e-08 0.0
0002a0 d9 2f 52 34 e8 6d 8f 33 00 00 00 00 e9 61 a0 33
       1.9575181e-07 6.678948e-08 0.0 7.46839e-08
0002b0 00 00 00 00 1a 95 b6 32 64 66 8f 37 5e 07 cd 35
       0.0 2.1255392e-08 1.7094608e-05 1.5275834e-06
0002c0 00 00 00 00 65 c3 17 29 9b c2 17 29 91 7d 6a 36
       0.0 3.3698213e-14 3.369753e-14 3.4941806e-06
0002d0 89 0d 93 34 00 00 00 00 80 59 85 36 06 a0 f7 35
       2.7390732e-07 0.0 3.974128e-06 1.8449507e-06
0002e0 00 00 00 00 cd 81 c4 35 00 00 00 00 00 00 00 00
       0.0 1.4640915e-06 0.0 0.0
0002f0 00 00 00 00 00 00 00 00 98 a9 e3 35 5d f2 a7 35
       0.0 0.0 1.6962176e-06 1.2513007e-06
000300 00 00 00 00 00 00 00 00 00 00 00 00 7b 1f f6 35
       0.0 0.0 0.0 1.833759e-06
000310 00 00 00 00 00 00 00 00 07 f7 99 35 00 00 00 00
       0.0 0.0 1.1471283e-06 0.0
000320 9a 20 24 35 00 00 00 00 00 00 00 00 8c ad 04 35
       6.11422e-07 0.0 0.0 4.9426376e-07
000330 00 00 00 00 00 00 00 00 00 00 00 00 4a d1 42 32
       0.0 0.0 0.0 1.1339873e-08
000340 00 00 00 00 6b a7 6c 37 40 fc 3d 36 00 00 00 00
       0.0 1.4105676e-05 2.8310023e-06 0.0
000350 00 00 00 00 ec cd 8f 31 00 00 00 00 00 75 ca 36
       0.0 4.1852584e-09 0.0 6.0336897e-06
000360 50 cd 92 37 00 00 00 00 ff cd ca 35 00 00 00 00
       1.7500162e-05 0.0 1.5110126e-06 0.0
000370 1a 56 9e 34 b2 ed da 36 36 a8 08 37 21 29 2d 35
       2.949244e-07 6.5245777e-06 8.145396e-06 6.450737e-07
000380 7b 2a 0f 37 00 00 00 00 00 00 00 00 7b 83 2e 36
       8.533355e-06 0.0 0.0 2.6004552e-06
000390 00 00 00 00 05 a7 92 35 76 a9 47 36 17 9d 9a 34
       0.0 1.0926457e-06 2.975195e-06 2.8799033e-07
0003a0 96 aa 66 36 06 60 4f 35 00 00 00 00 f8 5c 18 2d
       3.4371965e-06 7.725324e-07 0.0 8.660843e-12
0003b0 00 00 00 00 ed 62 3a 34 17 4f 8d 37 9b be df 36
       0.0 1.7358589e-07 1.6845339e-05 6.6681073e-06
0003c0 00 00 00 00 8b a5 00 2f 00 00 00 00 a3 25 09 37
       0.0 1.1700345e-10 0.0 8.174599e-06
0003d0 9f 43 3c 34 00 00 00 00 e6 ad de 35 b8 4f 28 33
       1.7533465e-07 0.0 1.65909e-06 3.9188052e-08
0003e0 00 00 00 00 50 53 90 35 00 00 00 00 00 00 00 00
       0.0 1.0753083e-06 0.0 0.0
0003f0 00 00 00 00 00 00 00 00 8b 27 c8 36 0c a7 aa 36
       0.0 0.0 5.965068e-06 5.0858416e-06

exp_avg f4 [64]
000000 de 23 87 3d fd e2 1b 3d 04 00 00 00 04 00 00 00
       0.06598638 0.03805827 6e-45 6e-45
000010 96 b0 5f 3d 7d 59 c7 b9 3d 30 63 bd b0 2c f0 3a
       0.054611765 -0.00038022912 -0.055465925 0.0018323865
000020 58 97 89 ba 02 d7 30 3d 00 00 00 00 1e 0b b5 3c
       -0.0010497374 0.043173797 0.0 0.022100028
000030 7d ab 50 3d 82 f4 81 3d d8 ff 96 3a d0 2e fd 3a
       0.050944794 0.06345464 0.0011520339 0.0019316319
000040 b0 e1 81 3b e8 b7 21 3a b8 20 84 3a 20 ee 67 3a
       0.0039636716 0.0006169067 0.0010080552 0.0008847434
000050 00 00 00 00 99 3e 56 3d ba 20 bd bc e8 be 0d 3b
       0.0 0.05230579 -0.023086894 0.0021628682
000060 00 bf 09 3b 81 bb 14 03 c2 8c e8 3c cd 62 b3 3c
       0.0021018386 4.3708535e-37 0.028387431 0.021897698
000070 04 00 00 00 77 05 4c 3d e8 e3 57 3c ad 14 41 3d
       6e-45 0.0498099 0.013176896 0.04713886
000080 17 c3 f3 3c 74 7b 26 22 24 5e cb 3d c2 8c 79 3d
       0.029756112 2.256255e-18 0.09930065 0.060925253
000090 9b c2 23 b9 d0 96 d0 3a b9 fb b2 3d 98 b5 cf 3b
       -0.00015617388 0.0015914086 0.087394185 0.0063387863
0000a0 00 00 00 00 a8 eb 54 3c 10 39 22 3c 00 00 00 00
       0.0 0.012995638 0.0099013 0.0
0000b0 12 bc f9 bc fc 54 52 3c 20 ed 8b 3a be 7b a6 3c
       -0.030485187 0.012837645 0.0010675527 0.020322677
0000c0 04 00 00 00 f8 ca 01 3b 90 a5 84 b8 40 d9 fc 3a
       6e-45 0.0019804817 -6.325089e-05 0.001929082
0000d0 46 45 a7 3b 00 00 00 00 02 c6 10 3d 04 00 00 00
       0.0051046936 0.0 0.035345085 6e-45
0000e0 f4 70 53 3c 04 00 00 00 24 4d 1a bb c9 ac 98 3d
       0.012905348 6e-45 -0.0023544515 0.07454831
0000f0 f7 91 f8 01 8b 66 f2 bc d6 6e 97 3d df 67 ec 29
       9.131026e-38 -0.029589912 0.07394187 1.0498524e-13

exp_avg_sq f4 [64]
000000 1b 2e 0a 3d 9c 7b 84 3c 14 0a 23 33 c3 da 21 31
       0.033735376 0.016172223 3.796056e-08 2.3552935e-09
000010 a5 f1 5e 3c 34 e5 2f 3b 5f 9b 53 3e 06 13 25 3d
       0.013607417 0.0026839497 0.20664738 0.040301345
000020 f4 8c 1f 3b 2c 8c 53 3c 00 00 00 00 a2 1a b9 3d
       0.002434549 0.012911838 0.0 0.09038283
000030 39 71 d5 3c 5a e3 fc 3c 95 92 89 3c 66 4b 4a 3d
       0.026054965 0.030870128 0.016793529 0.04938831
000040 c6 dd 51 3e 99 3e 64 3b 0b 33 42 3c 04 17 7a 3c
       0.20494756 0.003482735 0.01185299 0.015264276
000050 00 00 00 00 97 37 54 3c a4 73 ed 3e bb 10 7c 3d
       0.0 0.012952707 0.4637729 0.061539393
000060 9f 48 69 3d c5 ad 17 35 4d a3 b2 3e 43 a8 9d 3d
       0.056954022 5.650475e-07 0.34890214 0.07698109
000070 82 ec de 33 84 dd e6 3c dd 65 bd 3e 45 61 91 3e
       1.0380701e-07 0.028181799 0.36991778 0.28394523
000080 4d 81 6f 3c 4d b0 c0 3a 96 d7 5d 3d 07 74 17 3d
       0.01461823 0.0014700979 0.054160677 0.036975887
000090 b7 85 53 39 33 95 07 3d 04 24 d8 3c a3 16 33 3c
       0.00020172341 0.03310127 0.026384361 0.01093069
0000a0 00 00 00 00 fa d0 2b 3d 66 32 08 3d 00 00 00 00
       0.0 0.041947342 0.03325119 0.0
0000b0 d0 25 19 3f d6 7e 0d 3e 12 2d c9 3a 13 48 84 3e
       0.5982332 0.13817915 0.0015348515 0.25836238
0000c0 3a 20 af 32 8f c0 4a 3d 73 3f b6 38 cf 1c e1 3c
       2.0387336e-08 0.049500044 8.6902546e-05 0.027479557
0000d0 cc 00 27 3c 00 00 00 00 23 61 c1 3b ed 40 33 31
       0.010193061 0.0 0.005901472 2.6084834e-09
0000e0 f9 70 20 3c 41 ba 17 2e a5 b6 10 3c 5d 6b 05 3d
       0.00979256 3.449885e-11 0.008832608 0.032573093
0000f0 b1 ff 3f 37 62 0a 05 3d b1 aa 02 3d e7 2c ad 3a
       1.144402e-05 0.032480605 0.031901065 0.0013212234
