trained_models/tetris_auto_1000.pt (torch, 61767 bytes, 15 tensors)

conv1.0.weight f4 [64, 4]
00000000: 88c9 09bc b939 8e3e 4b67 903d d552 69bd
00000010: 53e1 7ebe 0ab0 24bd be24 5dbe dec0 9b3e
00000020: 9028 883d acf9 48bd 80ef 9bbb eced 0cbe
00000030: 2d39 673c 4913 15be b9f4 bbbd 41ba 993c
00000040: 007f 8d3a e417 b4be 420d 9d3d 038a 44be
00000050: 3472 533e 2fd0 81be 69b2 023e 5a6b 733e
00000060: eab2 2ebd c985 9bbe d9db bb3d 009e 6f3e
00000070: 00c7 603e e81c 2bbe 0010 2e39 6e15 71be
00000080: 9527 4f3e 2514 923c 9b74 923e a744 733e
00000090: 7509 353e 96c0 123e 9d38 843e 3531 8b3d
000000a0: b8e7 253e fe0d 343e d7c1 6dbe 4c0d 25be
000000b0: e33d a33d 754e a9be 8b65 28bd 135c 2d3d
000000c0: 0e1e dc3d d4e9 2c3e 7540 a03d 19d4 17bd
000000d0: e9ee 10be 0223 3fbe e14c 87be 58f2 54bd
000000e0: c6a4 5cbd e029 853e f776 083c 9d9a 4e3e
000000f0: ec75 93bd 8ab0 dbbd 6438 8d3c d431 003e
00000100: 3600 f53e 485e 1e3e 23c3 a83e 00ef 3c3e
00000110: 6c3d 7fbd 76d8 4e3e f0d0 8ebd ca38 29be
00000120: 384e 64be 44bb 943e bc9b 4ebe 1b60 2dbe
00000130: 1a21 23be 0770 8e3e 45ed e2bd 7ac3 443e
00000140: f6fe 8a3e fd1b ea3d 0138 6c3e 36e5 0b3d
00000150: 1dd5 4d3e b49a 813d 4f72 333e 73f4 26be
00000160: e8cb 6e3e f89d f1bb 38e2 273d 7c14 87ba
00000170: 1a14 a63e c82f 08be 7741 503e c3d0 f73c
00000180: ee94 31be 9cb6 113e 1df2 97be d988 89be
00000190: 5313 dd3d 31dc 493e df6f 3cbe dbbe 1a3e
000001a0: 5f3d 463e 0aee 58be d837 6abe c7d9 873e
000001b0: c684 1abd 8dd1 013d 4a47 10be a5c4 e03d
000001c0: e78b 10be 5082 c3bc 209d 5f3d 2042 fdbd
000001d0: 6370 7bbe af6c 6fbe 1352 22be 367e 6d3e
000001e0: ad13 7b3d b779 343d f02b aabd af52 243e
000001f0: 90ec c13d 581b 1fbe 1d17 523e 64c6 21bd
00000200: 0e10 563e e844 7a3d 3a0f c4bd 2703 f73d
00000210: a298 21be 8523 6b3e 6b0a f23b 405f 7bbd
00000220: 0498 423e 9824 21bd b494 47be 361b 02be
00000230: e0fc 1fbc 00e2 283b d1f6 26be 108c 86bd
00000240: 9c80 163e e878 86bd b888 923e 8a9d 58bd
00000250: d3fe 63be fbec 95be ce7e 49be 603a cdbc
00000260: fc52 653d 6a2b 46be 92c3 4b3e f30c 783e
00000270: b603 7abe cae0 883e fb25 8bbe 8917 90be
00000280: 8a5f 2e3c 2422 1cbd 2610 743e d5f8 653e
00000290: 1636 d93d 94f7 cdbd ba62 81bd 3171 513e
000002a0: ae48 a6be 886b a3bd 5166 2abe 6d1e 723e
000002b0: 14e8 4abe b89e 913e 9389 a03d 16ba 92be
000002c0: 16fe 6cbd 6729 4f3d af12 b4bd 7e95 5b3e
000002d0: 9065 44bd 041f 2e3e de4a debd 05fb 04be
000002e0: ddac 29be ba78 aabd 6f0c 943c a5c2 c63d
000002f0: f926 973d c8b2 093e 7806 2abd 8e41 8d39
00000300: 56cf 3a3e 03b6 633e 652c 623e 5582 98be
00000310: c8e1 cb3d 333f 343e 1181 583e ab4f 67bd
00000320: 4b99 17bd 12cf 83bd 155b 8fbe c3bc 333e
00000330: a0e4 413d e037 753e 18cc 7dbd 0cae 78be
00000340: 3ad4 96be 71bd fc3d c533 c93d 1ab2 63bc
00000350: 5d22 213e 7a48 cc3d 8c6c fc3c 5061 6d3d
00000360: e0ce 473d 4464 62bd 7cb0 49be 00af 87bd
00000370: 7426 8d3e fbd0 7a3e d947 013e 4188 933d
00000380: 7d7e 42be 8134 f93c 0a63 043e 8f70 913e
00000390: 4d79 083e 9b2a a83e 0c8e c63d a04d f63d
000003a0: b5da dbbc 2810 8ebe 7474 6fbd aec2 893e
000003b0: c0a2 04be 1647 91be d260 61be abfe 903e
000003c0: 56eb d43e 0eff 373d 115b 363e 15cd 673e
000003d0: 9917 0cbe ff6c 47bc 98d3 923d 71b6 863e
000003e0: 7e58 b6bd 039d 86ba 41b8 d33c 2f01 23be
000003f0: 2e70 973c 8191 023e 0839 04be 02f9 563e
-0.008409865 0.27778414 0.070509516 -0.05696376 -0.24890642 -0.040206946 -0.21596047 0.30420583
0.06648362 -0.04906623 -0.0047587752 -0.13762635 0.014112753 -0.14558138 -0.091775365 0.01876557
0.0010795295 -0.35174477 0.07668544 -0.19193272 0.20649034 -0.25354144 0.1276337 0.2377142
-0.042651094 -0.30375507 0.09172792 0.23400116 0.21950912 -0.16710246 0.00016599894 -0.23543331
0.20229943 0.017831871 0.28604588 0.23756658 0.17679389 0.14331278 0.25824443 0.06796495
0.16201675 0.17583463 -0.23218475 -0.16118354 0.07970788 -0.3306767 -0.041112464 0.042324137
0.1074792 0.16886073 0.07824794 -0.037067506 -0.14153637 -0.18665698 -0.2642584 -0.05198893
-0.053868078 0.2600851 0.008329145 0.20176168 -0.07200226 -0.107270315 0.017238803 0.12519008
0.47851723 0.15465653 0.32961378 0.18450546 -0.062314436 0.20199761 -0.069734454 -0.1652557
-0.22295463 0.29049122 -0.20176595 -0.16931193 -0.15930596 0.27819845 -0.11080412 0.19215193
0.27147645 0.114311196 0.23068239 0.03415414 0.20100828 0.063283354 0.17524074 -0.16304187
0.23319972 -0.0073735677 0.040987223 -0.0010305787 0.3243721 -0.13299477 0.20337473 0.030250913
-0.17341968 0.14229816 -0.29676905 -0.2686222 0.107947014 0.19712903 -0.1840205 0.15111868
0.19359349 -0.21184555 -0.22872865 0.26533338 -0.03772428 0.031693984 -0.14089695 0.10975007
-0.14115869 -0.023865849 0.054593205 -0.12366128 -0.24554591 -0.23381303 -0.15851621 0.23192677
0.06129806 0.04406139 -0.08309162 0.16047166 0.09468949 -0.15537775 0.2051663 -0.03949584
0.20904562 0.06110087 -0.09573217 0.12061148 -0.15780881 0.22962768 0.007386496 -0.061370134
0.19003302 -0.03934154 -0.1949032 -0.12705693 -0.00976488 0.0025769472 -0.1630509 -0.065696836
0.14697498 -0.0656603 0.28619933 -0.052884616 -0.22265176 -0.29282364 -0.19677278 -0.02505225
0.055987343 -0.19352499 0.19898823 0.2422369 -0.24415478 0.26734 -0.27177414 -0.28142956
0.0106428955 -0.038118497 0.23834285 0.22458203 0.10606019 -0.100569874 -0.06317659 0.20453335
-0.32477325 -0.07979494 -0.16640593 0.23644419 -0.19815093 0.28441405 0.0783874 -0.28657597
-0.057859503 0.050576594 -0.08792626 0.21443745 -0.04794842 0.17004019 -0.108541235 -0.12986381
-0.16569848 -0.08323808 0.018072335 0.09705094 0.0738048 0.13447106 -0.041510075 0.00026942458
0.18243155 0.222374 0.22087248 -0.29786935 0.09955174 0.17602234 0.21142985 -0.05647246
-0.037011426 -0.0643598 -0.27999178 0.17552476 0.047337174 0.23947096 -0.061962217 -0.24285144
-0.2945879 0.123408206 0.098243274 -0.013897443 0.15735765 0.09974761 0.030813478 0.057954133
0.048781276 -0.055271402 -0.1969623 -0.066251755 0.275684 0.24493782 0.12625064 0.07203723
-0.18993564 0.030420544 0.12928405 0.28406188 0.13327523 0.32845005 0.09695062 0.120265245
-0.026837686 -0.277467 -0.058460668 0.2690634 -0.12952709 -0.28374547 -0.2200959 0.28319296
0.41585797 0.044920973 0.17808177 0.22636826 -0.13680877 -0.012171983 0.071692646 0.26311067
-0.08903597 -0.0010270182 0.025844695 -0.1591842 0.018486109 0.12750818 -0.1291238 0.20993426

conv1.0.bias f4 [64]
00000000: 230b 2b3f f781 bebe 0000 0000 e8c8 d83e
00000010: 5eea d23e 5090 cc3e d9b8 ea3e 0000 0000
00000020: 864c 0cbf 77fd aabe 0000 0000 690b dc3e
00000030: 0657 c3be 0000 0000 f414 edbe 2ef1 ec3e
00000040: 36a0 18bf 0000 0000 0000 0000 999a efbe
00000050: 2a6c 28bf a315 913e 9f8a 343f 26a0 bc3e
00000060: 0000 0000 bbcf 0ebf 22b5 ff3e b4eb 123f
00000070: 0000 0000 bd2a c23e 9437 d63e 907f b83e
00000080: 7f99 e53e aacf 313f 0000 0000 0000 0000
00000090: ed04 7e3e 0000 0000 113a e1be 0000 0000
000000a0: aa15 eb3e 25a7 113f 7209 eabe af54 d83e
000000b0: 8b6c b53e 0000 0000 2ae4 09bf ab30 2a3f
000000c0: badf ab3e 1ec4 3c3e 42ef 17bf 0000 0000
000000d0: 32b9 fb3e 474d d4be 0000 0000 fa59 a93e
000000e0: e3ab ce3e c650 f5be 6272 f63e 7da5 013f
000000f0: 9487 9c3e 3be4 c63e c4c2 cb3e 5ffe f3be
0.6681387 -0.3720853 0.0 0.4234078 0.41194433 0.39953852 0.45844153 0.0
-0.54804265 -0.33396503 0.0 0.42977455 -0.3815233 0.0 -0.46305048 0.46277755
-0.5961946 0.0 0.0 -0.46797636 -0.65790045 0.2833682 0.7052402 0.36840934
0.0 -0.5578572 0.4994288 0.57390904 0.0 0.37923232 0.41839278 0.36034822
0.4484367 0.69457495 0.0 0.0 0.24806567 0.0 -0.43989614 0.0
0.45914966 0.5689567 -0.4571033 0.42252108 0.35434374 0.0 -0.53863776 0.6648051
0.33569127 0.18434188 -0.59349453 0.0 0.4916473 -0.41465208 0.0 0.3307646
0.40365514 -0.47913188 0.48134142 0.5064314 0.30572188 0.38846 0.39797032 -0.47655007

conv2.0.weight f4 [64, 64]
00000000: 3583 e5bd ab6f 00be 3c67 003d ba6b 1dbe
00000010: e5cf 583e 9e33 46be 0962 5cbe 2a2b e83d
00000020: 4cdc 323d ece6 1bbd 48df 20be 4ac3 cc3d
00000030: 1ae7 27be 1436 483d 71fc 49be 33f8 03be
00000040: 6a0d 8cbd 3bbe 3d3e 60d8 aebc 8019 08be
00000050: a006 bc3c b024 8abc 9024 503c 9ae8 a5bd
00000060: c236 963d 17c1 19be 9862 843c 3aa4 d73d
00000070: 2aef 10be ef4f 233e c60b 26be 20cd 76bd
00000080: eede 883d af85 233e f0cc 513c c215 8e3d
00000090: 7cba 80bd 27a7 37be 483a bbbd f288 80bd
000000a0: ef5b 5c3e 4410 723d d087 823c 2099 18be
000000b0: 4308 56be 8583 373e 63ab 303e 3619 9bbd
000000c0: 0047 383b 3c38 1a3d bca4 09be e4b2 5dbd
000000d0: 5ccc 4b3d 41ee 393e 96d0 1bbe 20c7 813b
000000e0: 0eb1 8f3d 3b7a e9bd 855e 45be 748d 4ebe
000000f0: 2bfb 5cbe 7437 6e3d 6430 46bd daa4 d93d
00000100: 0079 1fbe 2c7d 863e 6081 d13c 2088 b3be
00000110: 9d86 083d ac03 bb3d 5c80 813d 60a4 de3b
00000120: eda0 863d 1e2e 463d 6042 ae3c 630f 26be
00000130: e26f 963d c995 c3bd a307 3b3d e8c5 bfbc
00000140: 1a32 c2bd 7486 2dbe f4b3 3cbd 028b 683c
00000150: 65bc 673a 117d b4bc 461d eebe fbb3 a83d
00000160: d2c6 8e3d 1c33 013d 4b25 a03d be3c 78bd
00000170: 1fe4 5a3e 389f 693e 5313 8d3d 9619 51be
00000180: fc1c 21be 9a23 cabd a944 503e e183 54be
00000190: 568a f3bd ae91 3fbe 2735 59bc 5347 0b3e
000001a0: 672c f0bd b70d a3bd e781 8c3e e5dd 00be
000001b0: cf9e 183e 734c 583e b3cd e33d 0212 d1bd
000001c0: 7aac 7bbd 614c cebc 29d4 8e3e e4ae b1bd
000001d0: 20ce 093e fcce bc3d bfae 23be 9da4 8abc
000001e0: 090d 2dbe 559a cf3d 7446 c73d b3b1 1d3e
000001f0: 0422 ee3c 9393 9bbc e228 123e 2f03 123d
00000200: 07f3 c0bd 9ab4 2a3e dbab 20be a432 803d
00000210: f85b 513b 854b 1bbe 4086 cbbd e424 20be
00000220: 7ede 21bd 2156 18bd bc6b 44be 39eb 0abe
00000230: 3c58 f73c a440 c2bd 4dc3 7cbd 0f6a 023e
00000240: 1f18 ce3d a060 0ebe ea11 8e3d 2e30 1e3d
00000250: 545c 303d 9e54 863d 5701 93be 2175 653e
00000260: f229 ea3d 44d9 6f3e 556d 143d fafe 02be
00000270: 1e8c 36be 7299 b5bc 54f8 12be d200 1dbe
00000280: 71d2 59bd df6d 70be a868 c63c 00d7 c83a
00000290: 64e6 183e 86dd 943d 30fa 6b3e dec7 b9bd
000002a0: 98ec b83c 246b 99bc 1baf 03bd eb37 c3bc
000002b0: 1ca5 14be 9a15 f93d 557d 0a3c c2df 893d
000002c0: 17cd 153e 23b5 cd3d 4305 353e 016e 2f3e
000002d0: d4ec 0ebe 0c7a bd3d 88b0 51be c95f 003e
000002e0: 11d7 0e3d d9ce a93d da3c 503e bc3c bfbd
000002f0: a78b 4e3e e7a7 1fbe c3f4 53bd 0f35 5d3e
00000300: f8f7 3dbe 94a2 2c3d 8042 46be 28f4 74be
00000310: c223 f5bd 7cbf b53b 14cc 463e 3623 af3d
00000320: e008 15bd 5541 183d d0f2 3a3c 0daf 24be
00000330: 3612 2dbe bf32 36be 4a13 c53d 0a61 b1bc
00000340: 8d2e 253e ba16 e0bd 700c 773c e930 d8bd
00000350: 3e3b 353e 6adf ec3d 6892 74be 23f7 493e
00000360: e4c5 3b3d afbd 7ebc 0849 fc3d aaec b2bc
00000370: e8e2 2fbe 02cc 4abe 5956 ab3c 40d5 783d
00000380: 81b4 823d 5b3b 8dbd 02f1 df3d 4e5b a0bd
00000390: 514b 01bc 67eb 2d3e 0c29 183e 2041 d03b
000003a0: 8a5e 093d 1539 1a3e 39f3 123e 66b9 793d
000003b0: d43a 5cbc 2742 0abe e028 e23d a9f6 bbbc
000003c0: 8bf9 b43c ff16 f43d da10 f1bb 6325 09be
000003d0: 94e6 28bd 4fba e43d 1800 c3bc eb2d 8a3d
000003e0: 3001 483e f29f 0b3c dd46 1cbe 3bd2 39be
000003f0: 924e 143d 6cca 3e3e 6f4e 823d 0991 0fbd
-0.112066664 -0.12542598 0.031348452 -0.15373126 0.21173055 -0.19355628 -0.21521772 0.11336358
0.043667123 -0.03806202 -0.15710175 0.09998186 -0.16396752 0.048879698 -0.19725205 -0.12887649
-0.06838496 0.18529598 -0.02134341 -0.13290977 0.022952378 -0.016863197 0.01270403 -0.08101006
0.07334663 -0.15015064 0.016160294 0.105293706 -0.14153734 0.15948461 -0.16215429 -0.060254216
0.066831455 0.15968965 0.012805209 0.06937744 -0.06285569 -0.17934857 -0.09141976 -0.0627612
0.21519445 0.059097543 0.015933901 -0.14902163 -0.20901589 0.17921264 0.17252879 -0.07573168
0.0028118491 0.037651286 -0.13441747 -0.05412568 0.04975544 0.18157293 -0.15216288 0.003960505
0.070161924 -0.11400267 -0.19274338 -0.20171148 -0.21580188 0.058158353 -0.048385993 0.10627146
-0.15573502 0.26267374 0.025574386 -0.35064793 0.033331502 0.0913156 0.06323311 0.0067944974
0.06573663 0.048383825 0.021271884 -0.16216807 0.07345559 -0.095500536 0.04566158 -0.023409799
-0.09482212 -0.16945821 -0.046070054 0.014193298 0.00088400237 -0.022032293 -0.4650671 0.082374536
0.06971516 0.031542882 0.07819613 -0.060604803 0.21376084 0.22814643 0.068884514 -0.20419917
-0.15733713 -0.09870072 0.20338692 -0.20753433 -0.1189162 -0.18707916 -0.013257301 0.13601427
-0.11727219 -0.079616 0.27442858 -0.12584646 0.1490433 0.21122913 0.111232184 -0.10208513
-0.061443783 -0.025182905 0.2789624 -0.08675936 0.13457537 0.09219167 -0.15984629 -0.016924197
-0.16899504 0.101368584 0.09730235 0.15399818 0.029068954 -0.018991267 0.14273408 0.035647567
-0.09421354 0.16670457 -0.15690558 0.06259659 0.0031945687 -0.15165527 -0.099377155 -0.15639073
-0.039518826 -0.037191514 -0.19181722 -0.13566293 0.03019344 -0.094849855 -0.06170969 0.1273577
0.100631945 -0.13904047 0.069370106 0.038620166 0.0430568 0.06559108 -0.2871196 0.22407962
0.11433782 0.23422724 0.03623708 -0.12792578 -0.17826888 -0.022167895 -0.14352542 -0.15332344
-0.05317921 -0.23479412 0.024219826 0.0015322864 0.14931637 0.07268815 0.23044658 -0.09071325
0.022573754 -0.018727846 -0.032149415 -0.023830375 -0.14516109 0.12162323 0.008452733 0.067321315
0.14629017 0.10044315 0.17677788 0.17131807 -0.1395753 0.09251794 -0.20477498 0.12536539
0.034873072 0.08291406 0.20335713 -0.09337756 0.2017046 -0.15591393 -0.051747095 0.21602271
-0.18551624 0.042147234 -0.19361305 -0.23921263 -0.11969711 0.0055465084 0.19413787 0.08551638
-0.036385417 0.03717168 0.01141043 -0.16082402 -0.16901478 -0.17792796 0.0962282 -0.021652717
0.16131039 -0.10941835 0.015078649 -0.10556204 0.1769838 0.1156605 -0.23883975 0.19723181
0.04584302 -0.015548154 0.12318617 -0.021841366 -0.17176402 -0.19804385 0.020915197 0.060750246
0.06382085 -0.06896087 0.109346405 -0.07829915 -0.007891492 0.1698433 0.14859408 0.0063554198
0.033537425 0.15060838 0.14350595 0.060967825 -0.01344176 -0.13501798 0.110429525 -0.022944765
0.022091648 0.11918449 -0.007356745 -0.13393168 -0.04123552 0.11168348 -0.023803756 0.067470394
0.19531703 0.008522021 -0.15261407 -0.18146603 0.036207743 0.18631905 0.06362616 -0.035050426

conv2.0.bias f4 [64]
00000000: 0000 0000 ab80 0bbf 7b81 b6be 28ff 9cbe
00000010: 669d ab3e 7f42 b5be 638e d4be 7f2b 033f
00000020: 489c ad3e a265 103f 7584 5fbc 0000 0000
00000030: 8775 a7be 2f71 d63e 1e8b 8fbc d42b cc3e
00000040: ab51 b63e 4d36 afbb 0000 0000 377a b23e
00000050: 3fdd 56bc fc98 c0be 5266 fb3e d88d 62bc
00000060: 2255 d43e cc78 c7be 9402 ba3e ad82 ce3e
00000070: 8b2d a8bc 944b a83e 0000 0000 761e 123f
00000080: 25f9 ba3e 0000 0000 bd27 ac3e f8ef 08bf
00000090: 0000 0000 0000 0000 6620 bd3e 7f22 ae3e
000000a0: a30d ae3e 9507 66be 186b cbbe 0000 0000
000000b0: ddcd 9cbc 1dac b4bc b2bf b43e 5127 b6bb
000000c0: 0000 0000 0000 0000 a995 b53e 0000 0000
000000d0: 5fc1 aa3e 0000 0000 a7e9 a7be 7eda a7be
000000e0: f74e 00bf 2e54 aa3e 3868 f73e 8964 a8be
000000f0: 339c c93e 0000 0000 c8d7 aebe 778a a33e
0.0 -0.54493207 -0.3564566 -0.3066342 0.33518523 -0.35402295 -0.41514882 0.51238245
0.33908296 0.5640508 -0.01364242 0.0 -0.32706854 0.41883227 -0.017522391 0.39877188
0.35609183 -0.0053470493 0.0 0.34858868 -0.013114273 -0.37616718 0.49101502 -0.0138277635
0.414712 -0.38959348 0.36330092 0.40334073 -0.02052953 0.32870162 0.0 0.5707773
0.36518207 0.0 0.33624068 -0.53491163 0.0 0.0 0.3693878 0.34010693
0.3399478 -0.2246383 -0.39730144 0.0 -0.019141132 -0.022054726 0.35302502 -0.005558886
0.0 0.0 0.35465744 0.0 0.33350655 0.0 -0.3279545 -0.32783884
-0.5012049 0.3326735 0.483217 -0.32889202 0.39376983 0.0 -0.34149003 0.31941578

conv3.0.weight f4 [1, 64]
00000000: 5456 813d c38e 8dbe aa3e 68be 12e9 67be
00000010: c0db 663e 8f1e 52be 890a 79bd 2071 103f
00000020: 92f3 913e 38d0 c03e b2ca 1d3e a6b0 223e
00000030: 1e5b 92be f705 183e 7862 0ebe 0d5f 223f
00000040: f787 c03d 12af 54be 14c4 78be 65a2 a43e
00000050: fb04 febd 64b5 21be 3ce4 913e 7a17 64be
00000060: 2798 f33e 60b1 94bd 83c9 453e 5b3e a23e
00000070: 2307 18be 67e7 e03d 06c4 59be 859d 463e
00000080: 3851 f53e 4814 223e 123b 983e 6baf 15bd
00000090: 6e11 163e 50f6 e7bd c104 853e 07d8 093e
000000a0: 064d da3e 5ca9 e8be ddb8 efbd ee18 873e
000000b0: 7668 65be 5871 ccbd e9f4 e43e b718 0ebe
000000c0: 3846 fb3d 0034 55bb 53f2 103d 38c3 1abe
000000d0: 1c27 af3e 90e6 8bbc ff77 6ebe 257a 98be
000000e0: 6296 1ebd 02f4 8a3e 6f2e 123f 42be fbbd
000000f0: d29c 603e a82e 893e cfd2 94be 497a 623e
0.06315294 -0.2764798 -0.22680154 -0.22647503 0.22544765 -0.2051947 -0.060801063 0.56422615
0.28506142 0.37658858 0.15409353 0.15887699 -0.28585142 0.14846025 -0.1390475 0.63426286
0.09400933 -0.20769909 -0.24293548 0.32155147 -0.12403294 -0.15791851 0.28494442 -0.2227458
0.4757702 -0.07260394 0.19315152 0.31688198 -0.14846472 0.109816365 -0.21266183 0.19396026
0.47913527 0.15828049 0.29732567 -0.036544245 0.14655086 -0.11326277 0.2598019 0.13461314
0.4263689 -0.4544171 -0.11705182 0.26386207 -0.2240313 -0.09982556 0.44718102 -0.13876615
0.122692525 -0.0032532215 0.03538735 -0.15113533 0.34209526 -0.017077714 -0.23287962 -0.2978069
-0.038717635 0.27139288 0.571021 -0.12292148 0.21934822 0.26793408 -0.29067084 0.2211696

exp_avg f4 [64, 4]
00000000: 0dff 0dbb 86a4 50c0 8e3f 23c0 c484 57c1
00000010: b8d3 5b39 4422 923e 1747 003e 24c8 353f
00000020: 0000 0000 0000 0000 0000 0000 0000 0000
00000030: c953 c1ba 54d5 f0bc d168 543e 1f3f 9bbe
00000040: 0000 0000 53ae 8406 30cf a5ba 4125 10bc
00000050: d6ee 77b9 709e 76be 5987 0fbe 2af5 21bf
00000060: c479 44ba 6475 48bf bb26 e9be f867 05c0
00000070: 0000 0000 0000 0000 0000 0000 0000 0000
00000080: 568e bd39 9c2b bc3e d1eb 6c3e b1ba 793f
00000090: 8289 9f39 4505 9c3e e74d 4e3e 4b6a 503f
000000a0: 0000 0000 0000 0000 0000 0000 0000 0000
000000b0: 810a 05ba 630d 803b 6f5b 4e3e c6e0 ad3e
000000c0: e8a6 0e39 bcb6 ac3e f514 5a3e e594 973f
000000d0: 0000 0000 0000 0000 0000 0000 0000 0000
000000e0: 060b 533a e27a 553f 6c37 f83e 166f 0840
000000f0: dcff 3bba 58fe 38bf 1876 e4be 4ce4 f2bf
00000100: 2379 d939 9804 db3e 063b 853e d94b 8d3f
00000110: 0000 0000 0000 0000 0000 0000 0000 0000
00000120: 0000 0000 0000 0000 0000 0000 0000 0000
00000130: cc4c 8439 3dd5 a73e d485 1e3e d283 5b3f
00000140: f6cd 113a e0e2 1c3f 19b3 b13e 4e80 cd3f
00000150: 0400 0080 3551 f33b d4dd 923b a0a9 603b
00000160: a41f 0cbb b622 27c0 9211 acbf 66df cfc0
00000170: e80b 01ba 8848 58be 3a23 1cbe 6111 3bbf
00000180: 0000 0000 0000 0000 0000 0000 0000 0000
00000190: 7233 313a 388d 3d3f 4cc5 e13e 09a3 fc3f
000001a0: cce5 f5b9 d37c efbe 8558 9cbe a3bc 96bf
000001b0: 7661 5eba 3424 63bf df59 0cbf 5665 16c0
000001c0: 0000 0000 0000 0000 0000 0000 0000 0000
000001d0: fe95 28b9 d099 f3bd 4e7d 93bd aee8 85be
000001e0: b2be 1bba 683c 14bf 0aff c2be 436d cdbf
000001f0: f900 57b9 e3ce a8bd 1660 b3bd 7d17 5abe
00000200: ea45 a8b9 34dd adbe a4a4 42be 7c65 62bf
00000210: 762e 00bb a97e 42c0 4230 efbf aab6 2ac1
00000220: 0000 0000 0000 0000 0000 0000 0000 0000
00000230: 0000 0000 0000 0000 0000 0000 0000 0000
00000240: 1f90 1b39 5f71 bc3d dfd5 0a3e 9791 0a3f
00000250: 0000 0000 0000 0000 0000 0000 0000 0000
00000260: 6ca2 113a 1a15 153f df07 b53e c422 cd3f
00000270: 0000 0000 0000 0000 0000 0000 0000 0000
00000280: 2688 e4b9 aa0d c2be ebcb 8cbe 3f0f 79bf
00000290: fbd7 cbb9 e0db d6be 3c26 71be d485 8fbf
000002a0: e6fb 203a 2ac3 243f ae9f ba3e 822a d73f
000002b0: 0000 0000 15a6 568a b756 750e d846 f10d
000002c0: 026d d7b9 b077 c9be f720 86be 0e52 8dbf
000002d0: 0000 0000 0000 0000 0000 0000 0000 0000
000002e0: 9ef7 823a f1fc 853f 9bcb 163f cc55 3040
000002f0: 3c3d aeba 8a86 b4bf 5447 52bf c4c8 6bc0
00000300: 0000 0000 cecd f63b b672 243c 3e11 423c
00000310: 4fd8 00b7 b459 b83c dc92 b3bb 44b5 483d
00000320: cab2 b439 b0a1 c83e 095a 5e3e 3a76 713f
00000330: 0000 0000 0000 0000 0000 0000 0000 0000
00000340: 7654 f7b9 5798 e9be 1263 9bbe b7f2 a2bf
00000350: 24f4 3b3a 2ae4 3c3f 5427 e03e 4a31 f63f
00000360: 0000 0000 0000 0000 0000 0000 0000 0000
00000370: 15ca 3fb9 ca75 1bbe 9ed8 e9bd 29ea d0be
00000380: 2aab 25b9 1520 4bbe dcdc b4bd d20c 06bf
00000390: fc0a 1e3a c822 2a3f 7e49 bb3e 3cdd dd3f
000003a0: acbe fab9 e78d ffbe 72ef 86be f8f3 a2bf
000003b0: dedd 21ba ec1a 21bf 431d c2be 8c36 c8bf
000003c0: 12b6 72b8 7d02 c7bd 2815 eabc 5416 88be
000003d0: bca0 c1b9 24cf b6be dac7 6ebe 9d63 7abf
000003e0: 0000 0000 a570 828d a593 111c d042 8d1b
000003f0: 9574 ee39 f448 053f faa7 8b3e 1998 b33f
-0.0021666915 -3.2600417 -2.550754 -13.4699135 0.00020964339 0.28541768 0.12527119 0.71008515
0.0 0.0 0.0 0.0 -0.0014749701 -0.029398598 0.2074311 -0.30321595
0.0 4.990903e-35 -0.0012650248 -0.0087979445 -0.00023644729 -0.24083877 -0.14016475 -0.63264716
-0.0007494951 -0.78304124 -0.45537362 -2.0844707 0.0 0.0 0.0 0.0
0.00036154938 0.3675202 0.23136832 0.97550493 0.00030429295 0.3047277 0.20146905 0.8141219
0.0 0.0 0.0 0.0 -0.00050751126 0.003907846 0.20152067 0.3396055
0.00013604353 0.33733165 0.21297057 1.1842314 0.0 0.0 0.0 0.0
0.0008050654 0.8339063 0.48479784 2.1317801 -0.000717161 -0.722631 -0.44621348 -1.8975921
0.0004147972 0.42776942 0.26021594 1.1038772 0.0 0.0 0.0 0.0
0.0 0.0 0.0 0.0 0.0002523422 0.32779875 0.15480739 0.85748017
0.00055620016 0.61283684 0.34706953 1.605478 -6e-45 0.007425452 0.0044820104 0.0034280792
-0.0021381164 -2.6114936 -1.3442862 -6.4960203 -0.00049227336 -0.21121418 -0.15247813 -0.73073393
0.0 0.0 0.0 0.0 0.000675968 0.7404361 0.44095838 1.9737254
-0.00046901254 -0.4677492 -0.30536285 -1.1776317 -0.0008483151 -0.88727117 -0.5482463 -2.349935
0.0 0.0 0.0 0.0 -0.00016077605 -0.11894572 -0.07201634 -0.26154083
-0.00059411966 -0.5790467 -0.38085204 -1.6048969 -0.0002050436 -0.082425855 -0.08758561 -0.21298023
-0.00032095547 -0.33957827 -0.19008118 -0.884361 -0.0019558943 -3.0389807 -1.8686602 -10.669596
0.0 0.0 0.0 0.0 0.0 0.0 0.0 0.0
0.00014835641 0.09201311 0.13558148 0.541284 0.0 0.0 0.0 0.0
0.0005555514 0.58235323 0.35357568 1.6026235 0.0 0.0 0.0 0.0
-0.00043588987 -0.3790105 -0.27499327 -0.9728889 -0.00038880095 -0.41964626 -0.23549742 -1.1212716
0.00061410514 0.64360297 0.3644995 1.6809847 0.0 -1.0334962e-32 3.0240333e-30 1.4869827e-30
-0.00041089213 -0.39349127 -0.26197025 -1.1040666 0.0 0.0 0.0 0.0
0.0009992009 1.0467817 0.5890443 2.7552366 -0.0013293396 -1.4103558 -0.8214009 -3.6841288
0.0 0.007531858 0.010037115 0.011844931 -7.679758e-06 0.022503711 -0.0054801535 0.049000993
0.00034465484 0.39185858 0.21714033 0.94321024 0.0 0.0 0.0 0.0
-0.0004717444 -0.4562404 -0.30349022 -1.2730321 0.00071698637 0.7378565 0.43780005 1.9233792
0.0 0.0 0.0 0.0 -0.00018290461 -0.15181652 -0.114182696 -0.4080365
-0.0001579939 -0.19836457 -0.08831188 -0.5236331 0.00060288585 0.6645932 0.36579508 1.733314
-0.00047825777 -0.4991295 -0.26354557 -1.2730703 -0.00061747234 -0.62931705 -0.3791295 -1.5641646
-5.7866862e-05 -0.097172715 -0.028574541 -0.26579535 -0.00036931585 -0.3570491 -0.23318425 -0.9780825
0.0 -8.038987e-31 4.81673e-22 2.336967e-22 0.00045481758 0.5206444 0.27276593 1.4030792

exp_avg_sq f4 [64, 4]
00000000: 5c80 2f38 1b08 3643 1b66 5d41 2c11 6044
00000010: 7d85 2c35 9342 4a40 296d 913e 7260 7141
00000020: 0000 0000 0000 0000 0000 0000 0000 0000
00000030: fe95 3136 ecb5 b73f e547 a43f dc12 9e41
00000040: 0000 0000 9d6b bb3b 5fe7 1e3e 4ca4 db3d
00000050: 36d2 bc35 75db 6f40 a760 a43e b032 8f41
00000060: e00d de36 d01d b141 6284 e03f 66d4 db42
00000070: 0000 0000 0000 0000 0000 0000 0000 0000
00000080: ad55 a335 833d 9e40 6832 ba3e 9bbb bf41
00000090: fb80 3a35 d2fa 0040 c427 203e 955f 1f41
000000a0: 0000 0000 0000 0000 0000 0000 0000 0000
000000b0: fccc 9d37 ad25 1640 a880 2340 22ee de41
000000c0: 385c 6235 7858 8b40 a8aa a93e 8b50 ab41
000000d0: 0000 0000 0000 0000 0000 0000 0000 0000
000000e0: e175 0437 27eb cb41 c7a3 0340 0f53 fd42
000000f0: 8235 c836 1e65 a241 8f01 cc3f 074f c942
00000100: c072 c235 33a7 9e40 026d bb3e 3412 c741
00000110: 0000 0000 0000 0000 0000 0000 0000 0000
00000120: 0000 0000 0000 0000 0000 0000 0000 0000
00000130: ddbc ac35 d619 9540 5486 be3e 452e b441
00000140: 9617 3936 e787 2d41 0da3 4e3f c90a 5842
00000150: 3b6d b633 2810 c93d e298 1c3e 0116 8c3e
00000160: 7cab 0a38 f7e0 d842 6fbc 0f41 4d9e 0f44
00000170: 42e7 6e36 b4b8 5840 a0cb 563f 9f15 9c41
00000180: 0000 0000 0000 0000 0000 0000 0000 0000
00000190: bb52 b136 6562 a141 dd1a d93f fbcf c742
000001a0: 23b6 5236 c745 3e41 03a0 6c3f 9414 6942
000001b0: 972c eb36 4101 db41 6886 0740 c158 0443
000001c0: 0000 0000 0000 0000 0000 0000 0000 0000
000001d0: d169 1035 9b84 dd3f a8fd 1a3e a9a8 0b41
000001e0: 62d6 6a36 c009 2e41 b66f 663f 8c25 5342
000001f0: f26b 1736 0ddc bb3e 8ada 523f 0b12 5940
00000200: 9120 a535 4751 b640 3e84 ec3e 35b2 d841
00000210: 36b8 2e38 5fe5 d943 4014 f941 e6c5 f944
00000220: 0000 0000 0000 0000 0000 0000 0000 0000
00000230: 0000 0000 0000 0000 0000 0000 0000 0000
00000240: 255f e735 7571 a23e e977 cb3e 1315 0f40
00000250: 0000 0000 0000 0000 0000 0000 0000 0000
00000260: 50e4 5536 3318 3341 3e3c 603f b38c 5742
00000270: 0000 0000 0000 0000 0000 0000 0000 0000
00000280: 6c0f e835 f899 ab40 af2a d53e 6df5 d641
00000290: bc2f 0f36 435b f340 4bbf 193f f4ce 1c42
000002a0: ebe5 8636 7be1 4a41 583a 873f 074d 7c42
000002b0: 0000 0000 df77 883b d597 743d 5b68 413d
000002c0: ff10 1236 f235 b840 9ab4 083f 4771 d841
000002d0: 0000 0000 0000 0000 0000 0000 0000 0000
000002e0: 622e 1d37 71a0 0742 b004 2940 e69b 2943
000002f0: c057 8337 0e70 8542 3e6e 9e40 ea9f a343
00000300: 0000 0000 cff5 f73c 1335 653d 0871 fd3d
00000310: a57d 6033 b401 f93d d814 c83c e011 e83e
00000320: 7580 d035 8193 f540 eb95 433f 59d0 1e42
00000330: 0000 0000 0000 0000 0000 0000 0000 0000
00000340: bd4d b635 3730 9840 7525 b93e 436e ba41
00000350: 20c7 de36 8303 a941 3135 df3f 740c cb42
00000360: 0000 0000 0000 0000 0000 0000 0000 0000
00000370: 1ba2 dd34 caed 5b3f 96b4 b43d 382b 8640
00000380: 7737 bb34 c9b7 fd3f 05df 2c3e 6f9d 1441
00000390: b5c6 af36 5538 9741 d274 c03f 8905 ba42
000003a0: 1e3a 7936 ec6a 6841 cd14 913f 106c 8e42
000003b0: 48b3 b236 a0a3 9e41 d855 c83f bb50 c742
000003c0: 3e3a 7c34 a7f3 543f 580a 993d 7765 7540
000003d0: 7d49 0336 ea15 b840 7be5 f53e b75f db41
000003e0: 0000 0000 7187 893b b844 853c 2489 993c
000003f0: c87a 0f36 d5eb 0541 940f 293f cf16 2442
4.1842795e-05 182.03166 13.837428 896.2683 6.4269244e-07 3.1603134 0.28403595 15.086046
0.0 0.0 0.0 0.0 2.6462362e-06 1.4352393 1.283444 19.759209
0.0 0.0057196156 0.15517949 0.107246965 1.4068271e-06 3.7477696 0.3210499 17.89975
6.617731e-06 22.139557 1.75404 109.91484 0.0 0.0 0.0 0.0
1.2169381e-06 4.9450088 0.36366582 23.966604 6.947809e-07 2.0153089 0.1564017 9.960835
0.0 0.0 0.0 0.0 1.8811312e-05 2.3460495 2.5547276 27.866276
8.4325757e-07 4.3545494 0.33138013 21.414328 0.0 0.0 0.0 0.0
7.895259e-06 25.48982 2.0568712 126.662224 5.9666936e-06 20.299374 1.5937976 100.65435
1.4487523e-06 4.95791 0.36606604 24.883888 0.0 0.0 0.0 0.0
0.0 0.0 0.0 0.0 1.2869965e-06 4.659404 0.3721186 22.522593
2.7580877e-06 10.845679 0.80717546 54.010532 8.494904e-08 0.09817535 0.15292695 0.27360538
3.306147e-05 108.439384 8.983504 574.47345 3.5599373e-06 3.3862734 0.8390446 19.510557
0.0 0.0 0.0 0.0 5.284642e-06 20.173044 1.6961323 99.90621
3.1398456e-06 11.8920355 0.9243166 58.270096 7.0087367e-06 27.375612 2.1175785 132.3467
0.0 0.0 0.0 0.0 5.3798163e-07 1.7306093 0.15135825 8.728677
3.4993504e-06 10.87738 0.9001421 52.786667 2.2563586e-06 0.36691323 0.82364714 3.3917263
1.2302936e-06 5.6974216 0.46194643 27.087015 4.1656393e-05 435.79196 31.134888 1998.1843
0.0 0.0 0.0 0.0 0.0 0.0 0.0 0.0
1.7238532e-06 0.31727186 0.39739922 2.2356613 0.0 0.0 0.0 0.0
3.1872369e-06 11.193408 0.8759192 53.8874 0.0 0.0 0.0 0.0
1.7289835e-06 5.362545 0.41634127 26.869837 2.1336446e-06 7.6048903 0.60057515 39.202103
4.020277e-06 12.680049 1.056468 63.075222 0.0 0.0041646804 0.05971511 0.04721866
2.1765588e-06 5.756585 0.53400576 27.055311 0.0 0.0 0.0 0.0
9.368729e-06 33.90668 2.640911 169.60898 1.5657279e-05 66.71886 4.9509573 327.24933
0.0 0.030268578 0.05595882 0.123750746 5.2268337e-08 0.12158528 0.024424002 0.45326138
1.5534594e-06 7.674256 0.7640063 39.703465 0.0 0.0 0.0 0.0
1.3582682e-06 4.7558856 0.3616139 23.303839 6.6392968e-06 21.126715 1.7438108 101.52432
0.0 0.0 0.0 0.0 4.1282405e-07 0.8590971 0.088235065 4.1927757
3.487182e-07 1.9821712 0.1688195 9.288436 5.238539e-06 18.902506 1.5035651 93.01081
3.713772e-06 14.526104 1.1334473 71.21106 5.3256845e-06 19.829895 1.5651197 99.65768
2.3490517e-07 0.83184284 0.07472676 3.834318 1.9563297e-06 5.752675 0.48026642 27.421736
0.0 0.004197054 0.01626812 0.018742152 2.1380129e-06 8.370076 0.66039395 41.022274

exp_avg f4 [64]
00000000: 1881 53be 6286 373c 0000 0000 dba2 67bc
00000010: c042 9ebb 902f 5bbc 0ae7 2abd 0000 0000
00000020: 60c3 9f3c 66d9 873c 0000 0000 5a99 cfbb
00000030: 649b 773c 0000 0000 b895 323d 33f7 24bd
00000040: 9941 b63c 0000 0000 0000 0000 20e8 603c
00000050: a09e e73c 006f bc38 3c0b febd b440 c6bc
00000060: 0000 0000 b5b8 2d3d 6e7c ddbc eb8a 43bd
00000070: 0000 0000 85d4 13bc 201c 0bbd 78f0 d8ba
00000080: 1791 90bc b21f b7bd 0000 0000 0000 0000
00000090: f092 ca3b 0000 0000 162e f93c 0000 0000
000000a0: 6883 cebc a787 bcbc bfd5 fc3c e511 40bb
000000b0: d8dd b6bc 0000 0000 9746 3f3d c358 95bd
000000c0: 1e9a a0bb b79b d3ba 9b0b b53c 0000 0000
000000d0: 6168 d3bc cb29 103d 0000 0000 e06d 3abc
000000e0: d06e 16bc 1a18 083d 800e d2bc c040 17bd
000000f0: def3 6fbb 7765 b0bc f403 d0ba 135f bc3c
-0.20654714 0.011201473 0.0 -0.014137949 -0.0048297346 -0.013378039 -0.041724242 0.0
0.019502342 0.016583156 0.0 -0.0063354196 0.015112732 0.0 0.043599814 -0.04027481
0.022248076 0.0 0.0 0.013727218 0.02827388 8.985214e-05 -0.124044865 -0.024200775
0.0 0.04241248 -0.027036872 -0.047739904 0.0 -0.009022837 -0.03396237 -0.0016551157
-0.01764731 -0.08941592 0.0 0.0 0.006182067 0.0 0.030417483 0.0
-0.025209144 -0.023013903 0.03086364 -0.002930754 -0.02232258 0.0 0.04669818 -0.072923206
-0.0049011847 -0.0016144429 0.02210026 0.0 -0.025806608 0.035196107 0.0 -0.011378735
-0.009181693 0.03322611 -0.02564168 -0.036926985 -0.0036613862 -0.021532757 -0.0015870319 0.022994554

exp_avg_sq f4 [64]
00000000: 4cb3 b13d b594 073b 0000 0000 589b ec3d
00000010: 1716 7a3d 23e5 3a3c ecf0 ff3c 0000 0000
00000020: 862e 343b 3141 663a 0000 0000 e15b d93d
00000030: 3586 f23a 0000 0000 1f8c af3c 3476 d13c
00000040: 0a6b da3a 0000 0000 0000 0000 3600 723b
00000050: 2c83 4f3b 3749 283c 1738 0f3d 7261 0e3d
00000060: 0000 0000 8728 3e3c 0a9f 6e3c 64af b93c
00000070: 0000 0000 57c0 0c3b 7f9d aa3c 6753 213d
00000080: b6fb c23b 446f 563e 0000 0000 0000 0000
00000090: 7fc9 753c 0000 0000 348b 0b3c 0000 0000
000000a0: 50ba 253c 05da c93b 3047 153c f172 443d
000000b0: c4a0 913c 0000 0000 b18e 803c 055d 103d
000000c0: 1b75 b63b 1195 873a 7052 2a3b 0000 0000
000000d0: 3635 423b 5f07 ad3c 0000 0000 559f b43b
000000e0: 255f 843b 5573 813c a118 a13c 7b05 da3c
000000f0: 309c 283b 03ab b03c dd74 313c f837 9b3b
0.08676776 0.0020688002 0.0 0.11553067 0.061056223 0.0114071695 0.03124281 0.0
0.002749355 0.0008783518 0.0 0.10613228 0.0018503132 0.0 0.02142912 0.025569059
0.001666398 0.0 0.0 0.0036926395 0.0031663878 0.010271362 0.0349656 0.0347609
0.0 0.011606342 0.014564285 0.02266664 0.0 0.0021476948 0.020827053 0.03938618
0.0059504164 0.20940882 0.0 0.0 0.015001654 0.0 0.008517075 0.0
0.010115221 0.006160023 0.009111211 0.04796118 0.017776854 0.0 0.01569304 0.03524496
0.0055681593 0.0010344108 0.0025989078 0.0 0.0029633767 0.021121679 0.0 0.005512158
0.0040396624 0.015802065 0.019665064 0.026613941 0.002572786 0.02156592 0.010831085 0.0047368966

exp_avg f4 [64, 64]
00000000: 0000 0000 0000 0000 0000 0000 0000 0000
00000010: 0000 0000 0000 0000 0000 0000 0000 0000
00000020: 0000 0000 0000 0000 0000 0000 0000 0000
00000030: 0000 0000 0000 0000 0000 0000 0000 0000
00000040: 0000 0000 0000 0000 0000 0000 0000 0000
00000050: 0000 0000 0000 0000 0000 0000 0000 0000
00000060: 0000 0000 0000 0000 0000 0000 0000 0000
00000070: 0000 0000 0000 0000 0000 0000 0000 0000
00000080: 0000 0000 0000 0000 0000 0000 0000 0000
00000090: 0000 0000 0000 0000 0000 0000 0000 0000
000000a0: 0000 0000 0000 0000 0000 0000 0000 0000
000000b0: 0000 0000 0000 0000 0000 0000 0000 0000
000000c0: 0000 0000 0000 0000 0000 0000 0000 0000
000000d0: 0000 0000 0000 0000 0000 0000 0000 0000
000000e0: 0000 0000 0000 0000 0000 0000 0000 0000
000000f0: 0000 0000 0000 0000 0000 0000 0000 0000
00000100: bf74 663d a0ce 353e 0000 0000 0d7a eb3a
00000110: 0400 0000 363a 0b3e 376f e63d 0000 0000
00000120: 3c14 6c3e 9ee4 0b3e 0000 0000 3168 123a
00000130: bd11 f53c 0000 0000 5425 673e be9e 963d
00000140: 1417 733e 0000 0000 0000 0000 5408 4f3e
00000150: a8e9 bb3d 2e95 8db8 fa00 693c 5ebd a73c
00000160: 0000 0000 babc 073e 9812 db3d ce6d 9b3d
00000170: 0000 0000 ecc8 af3d 1a2d 013e 30a8 66b9
00000180: 6ace ca3d 3ee9 2f3c 0000 0000 0000 0000
00000190: f69a ee3b 0000 0000 1056 223e 0000 0000
000001a0: 7769 563e 8935 fd3d f204 f93d 0400 0000
000001b0: 5d7b 2b3e 0000 0000 e366 3b3d e220 2a3d
000001c0: 0400 0000 a506 483d 95d7 663d 0000 0000
000001d0: b2a0 493d 9dd1 963d 0000 0000 463e 1d3e
000001e0: df40 823e a9bd 4b3e a243 f73d 9f01 cf3d
000001f0: 4d28 633e a2ac 5c3e 0400 0000 728e 2c3e
00000200: 03be 303d 3c41 123e 0000 0000 1b69 9a3a
00000210: ccf4 7fb8 9936 d73d bb5e b13d 0000 0000
00000220: 3e6b 393e b7ed da3d 0000 0000 fc57 81ba
00000230: 7223 c03c 0000 0000 f83f 383e 2fcc 683d
00000240: fc02 3f3e 0000 0000 0000 0000 122f 263e
00000250: 3de7 933d 2c38 abb9 6d58 1b3c 5ac3 593c
00000260: 0000 0000 3486 dd3d cc74 ad3d 811e 763d
00000270: 0000 0000 6800 8b3d ae27 cc3d 4ced ffba
00000280: ee69 a03d 141f e43b 0000 0000 0000 0000
00000290: fe81 4b3b 0000 0000 a249 fe3d 0000 0000
000002a0: 607b 263e 447c c63d b6aa c93d 137b 3889
000002b0: 84b6 073e 0000 0000 6095 173d abb9 033d
000002c0: 1859 4839 b4e8 163d 3663 3d3d 0000 0000
000002d0: 662b 193d c4d1 713d 0000 0000 0445 f63d
000002e0: 7721 4c3e b304 223e 033f c13d 9a92 a33d
000002f0: b895 313e b60c 2d3e 7a08 d896 16c9 0a3e
00000300: e4fd 2f3d 90e6 113e 0000 0000 a6a1 bf3a
00000310: fa80 7fb8 1ef3 d73d 004f b23d 0000 0000
00000320: 220c 393e cb30 da3d 0000 0000 b634 f9b9
00000330: 8cc2 bf3c 0000 0000 427c 373e 3eb3 693d
00000340: 1473 3e3e 0000 0000 0000 0000 b56c 253e
00000350: 8835 933d d55b 8cb9 3760 1f3c 7e7c 5f3c
00000360: 0000 0000 74f9 dc3d 16f3 ad3d 5d2e 763d
00000370: 0000 0000 3793 8b3d eaf9 cb3d e2d0 d1ba
00000380: 0e43 a03d 98bf e13b 0000 0000 0000 0000
00000390: 4b97 5a3b 0000 0000 5948 fe3d 0000 0000
000003a0: 8a8a 263e 9bd0 c63d 6047 c93d 4f49 3d89
000003b0: 2d8b 073e 0000 0000 665b 173d a2ab 033d
000003c0: ee68 5039 e952 163d 4ef0 3c3d 0000 0000
000003d0: 0c1d 193d fafd 703d 0000 0000 ea96 f53d
000003e0: 2ffc 4b3e c438 213e 95ff c13d 8648 a43d
000003f0: f370 313e dafa 2c3e 905c d996 3c42 0a3e
0.0 0.0 0.0 0.0 0.0 0.0 0.0 0.0
0.0 0.0 0.0 0.0 0.0 0.0 0.0 0.0
0.0 0.0 0.0 0.0 0.0 0.0 0.0 0.0
0.0 0.0 0.0 0.0 0.0 0.0 0.0 0.0
0.0 0.0 0.0 0.0 0.0 0.0 0.0 0.0
0.0 0.0 0.0 0.0 0.0 0.0 0.0 0.0
0.0 0.0 0.0 0.0 0.0 0.0 0.0 0.0
0.0 0.0 0.0 0.0 0.0 0.0 0.0 0.0
0.05626368 0.17754602 0.0 0.0017965451 6e-45 0.13596424 0.11251681 0.0
0.23054594 0.1366143 0.0 0.0005584984 0.029915685 0.0 0.22572833 0.073544964
0.23739272 0.0 0.0 0.2021802 0.09175426 -6.751191e-05 0.014221424 0.02047604
0.0 0.13255587 0.10696906 0.07589303 0.0 0.08583245 0.12614861 -0.00021997164
0.099026516 0.010736762 0.0 0.0 0.0072816564 0.0 0.15853143 0.0
0.20938669 0.12363727 0.12159146 6e-45 0.16746278 0.0 0.045752417 0.041535266
6e-45 0.04883446 0.05635794 0.0 0.049225517 0.07364199 0.0 0.15355787
0.25440118 0.19896568 0.12073447 0.10107731 0.22183342 0.21550229 6e-45 0.16851214
0.04314996 0.14282697 0.0 0.0011780591 -6.1024723e-05 0.105084606 0.086606465 0.0
0.18107316 0.10689872 0.0 -0.000986814 0.023454402 0.0 0.17993152 0.05683535
0.18653482 0.0 0.0 0.16228893 0.072218396 -0.00032657513 0.009481532 0.013291204
0.0 0.10816613 0.08469543 0.060087685 0.0 0.06787187 0.09968506 -0.0019525676
0.078327045 0.0069617126 0.0 0.0 0.0031052823 0.0 0.12416388 0.0
0.16258001 0.096916705 0.09847014 -2.2206064e-33 0.13253218 0.0 0.03700769 0.03215949
0.00019106676 0.036843017 0.046237193 0.0 0.037394904 0.05903794 0.0 0.120248824
0.19934641 0.15822105 0.09435847 0.079869464 0.1734227 0.1689938 -3.4902032e-25 0.1355327
0.04296674 0.14248109 0.0 0.0014620319 -6.0916856e-05 0.10544418 0.08706474 0.0
0.18071035 0.10653838 0.0 -0.00047532254 0.023408197 0.0 0.17918494 0.057055704
0.18598586 0.0 0.0 0.1615475 0.07187945 -0.000267713 0.009727529 0.013640521
0.0 0.10789767 0.084936306 0.06010281 0.0 0.068151884 0.09959777 -0.0016007686
0.0782529 0.006889295 0.0 0.0 0.0033354338 0.0 0.12416143 0.0
0.16263786 0.09707757 0.09828067 -2.2784517e-33 0.13236685 0.0 0.0369524 0.032146104
0.00019875515 0.036700163 0.04612761 0.0 0.037381217 0.05883596 0.0 0.11991675
0.19920419 0.1574431 0.094725765 0.08021645 0.17328243 0.16892567 -3.5116656e-25 0.13501829

exp_avg_sq f4 [64, 64]
00000000: 0000 0000 0000 0000 0000 0000 0000 0000
00000010: 0000 0000 0000 0000 0000 0000 0000 0000
00000020: 0000 0000 0000 0000 0000 0000 0000 0000
00000030: 0000 0000 0000 0000 0000 0000 0000 0000
00000040: 0000 0000 0000 0000 0000 0000 0000 0000
00000050: 0000 0000 0000 0000 0000 0000 0000 0000
00000060: 0000 0000 0000 0000 0000 0000 0000 0000
00000070: 0000 0000 0000 0000 0000 0000 0000 0000
00000080: 0000 0000 0000 0000 0000 0000 0000 0000
00000090: 0000 0000 0000 0000 0000 0000 0000 0000
000000a0: 0000 0000 0000 0000 0000 0000 0000 0000
000000b0: 0000 0000 0000 0000 0000 0000 0000 0000
000000c0: 0000 0000 0000 0000 0000 0000 0000 0000
000000d0: 0000 0000 0000 0000 0000 0000 0000 0000
000000e0: 0000 0000 0000 0000 0000 0000 0000 0000
000000f0: 0000 0000 0000 0000 0000 0000 0000 0000
00000100: b83f 933d acf3 a53f 0000 0000 53d1 0537
00000110: 0970 0b2c 98ce d13e dd0d 803e 0000 0000
00000120: 58c0 b63f 2a52 083f 0000 0000 0a8a f439
00000130: d77d 493d 0000 0000 e611 f33f e208 0d3e
00000140: 9ac0 cd3f 0000 0000 0000 0000 1ffa e03f
00000150: 4af3 633e 48c5 eb32 3048 563a 6247 d93b
00000160: 0000 0000 ed51 653f da41 db3e 8e3a 713e
00000170: 0000 0000 96bf 7d3e b878 163f 1f4a 1f3a
00000180: ae6b cc3e d002 9b3c 0000 0000 0000 0000
00000190: bf18 623b 0000 0000 b9b9 163f 0000 0000
000001a0: 20ee 8c3f c948 f73e 9029 193f 8d32 e62b
000001b0: b350 833f 0000 0000 0100 7d3d 387b 903d
000001c0: c3e3 0b2c db42 db3d 4207 743e 0000 0000
000001d0: 0de0 893d 09da 493e 0000 0000 f6f1 4e3f
000001e0: 531a f93f bddb b83f 2f87 cc3e a4fa b73e
000001f0: 8340 b43f 7ffc b13f fda5 552b 0ce0 983f
00000200: c20d 3f3d d9ff 623f 0000 0000 950e 8137
00000210: 9295 5537 01af 893e 002c 2a3e 0000 0000
00000220: 2fca 6e3f f121 b23e 0000 0000 6cc4 203b
00000230: 6265 0b3d 0000 0000 74f1 a33f 9fb4 bd3d
00000240: 4640 863f 0000 0000 0000 0000 b8e6 9c3f
00000250: b4f7 103e e19e ca39 80ac ba3a faab 453c
00000260: 0000 0000 0981 203f de68 933e 4180 273e
00000270: 0000 0000 2fa7 2a3e 2bca d03e 3ee7 e03a
00000280: 1fa5 8e3e 1b8b 413c 0000 0000 0000 0000
00000290: 79fe c73b 0000 0000 91fc c13e 0000 0000
000002a0: aec7 383f d5dd a73e 88d7 d03e 9838 0636
000002b0: 01bf 343f 0000 0000 fac1 253d 1b30 3b3d
000002c0: d614 6239 6933 8d3d 2988 2e3e 0000 0000
000002d0: bd9e 2f3d 804e 063e 0000 0000 b3cb 0b3f
000002e0: 831f a43f db2d 783f 7a1e 893e 7f60 7f3e
000002f0: 7d3f 6d3f c34c 6d3f 4d63 2439 e401 523f
00000300: a011 423d da76 6d3f 0000 0000 2c44 b737
00000310: 0e44 bb37 f1ad 903e d736 333e 0000 0000
00000320: bac3 793f 9b04 bc3e 0000 0000 602b 7e3b
00000330: 870a 163d 0000 0000 4652 ac3f 0589 c93d
00000340: 94df 8c3f 0000 0000 0000 0000 799c a63f
00000350: 00a9 163e 6112 0a3a bf4b e63a e9c2 713c
00000360: 0000 0000 8fbd 293f 096a 983e 59a8 303e
00000370: 0000 0000 155d 2f3e 0a2e de3e 97ed 0c3b
00000380: db70 983e dded 433c 0000 0000 0000 0000
00000390: 0b30 ed3b 0000 0000 b22e c93e 0000 0000
000003a0: 2736 423f bd8b b13e 4670 d93e e499 1d37
000003b0: 22a9 3f3f 0000 0000 d219 2a3d 6803 413d
000003c0: 3200 8539 d3ee 973d 41c6 373e 0000 0000
000003d0: 0fee 393d bcdd 0b3e 0000 0000 30d6 143f
000003e0: 9459 ac3f d897 823f 08fb 8f3e 2209 863e
000003f0: 6e97 793f bdc1 793f 65ed 8139 38f8 5c3f
0.0 0.0 0.0 0.0 0.0 0.0 0.0 0.0
0.0 0.0 0.0 0.0 0.0 0.0 0.0 0.0
0.0 0.0 0.0 0.0 0.0 0.0 0.0 0.0
0.0 0.0 0.0 0.0 0.0 0.0 0.0 0.0
0.0 0.0 0.0 0.0 0.0 0.0 0.0 0.0
0.0 0.0 0.0 0.0 0.0 0.0 0.0 0.0
0.0 0.0 0.0 0.0 0.0 0.0 0.0 0.0
0.0 0.0 0.0 0.0 0.0 0.0 0.0 0.0
0.07189888 1.2964988 0.0 7.976155e-06 1.981528e-12 0.4097793 0.25010577 0.0
1.4277449 0.5325037 0.0 0.00046642154 0.049192276 0.0 1.8989837 0.1377292
1.6074402 0.0 0.0 1.7576331 0.22260776 2.7447314e-08 0.0008174209 0.006630824
0.0 0.89578134 0.42823678 0.23557493 0.0 0.24780115 0.5877795 0.00060764136
0.39925903 0.01892224 0.0 0.0 0.0034499613 0.0 0.5887714 0.0
1.101017 0.48297718 0.59829044 1.6356514e-12 1.0259002 0.0 0.06176758 0.07054752
1.9879521e-12 0.10706111 0.23830894 0.0 0.067321874 0.1971208 0.0 0.80837953
1.9461159 1.4442059 0.39946887 0.3593341 1.4082187 1.3905181 7.5903156e-13 1.1943374
0.04664398 0.8867164 0.0 1.5384789e-05 1.2730614e-05 0.2689133 0.16618347 0.0
0.9327726 0.3479152 0.0 0.002453114 0.034032233 0.0 1.2808061 0.09262966
1.0488365 0.0 0.0 1.225791 0.14156991 0.00038646816 0.0014242083 0.012064928
0.0 0.6269689 0.28790945 0.16357519 0.0 0.16665338 0.40779242 0.0017158759
0.27860352 0.0118129505 0.0 0.0 0.0061033336 0.0 0.37888005 0.0
0.7217969 0.32786432 0.40789437 2.0000498e-06 0.7060395 0.0 0.040468194 0.045700174
0.00021560802 0.06894571 0.17044128 0.0 0.042875994 0.13115883 0.0 0.54607695
1.2822117 0.9694497 0.26781064 0.24939154 0.92675 0.92695254 0.00015677251 0.82034135
0.04738009 0.9275948 0.0 2.1847045e-05 2.2323828e-05 0.28257707 0.17501388 0.0
0.9756428 0.36722264 0.0 0.0038783178 0.036631133 0.0 1.3462608 0.098405875
1.1005731 0.0 0.0 1.3016502 0.14712906 0.0005267021 0.0017570182 0.014755943
0.0 0.6630487 0.29768398 0.1725172 0.0 0.17125352 0.433945 0.002150392
0.29773602 0.0119585665 0.0 0.0 0.007238393 0.0 0.39293438 0.0
0.7586388 0.34676924 0.4246847 9.39376e-06 0.7486745 0.0 0.04152853 0.04712239
0.00025367882 0.07418599 0.17946722 0.0 0.045393046 0.13658804 0.0 0.58139324
1.3464837 1.0202589 0.2812121 0.26178843 0.9749669 0.97561246 0.0002478167 0.8631625

exp_avg f4 [64]
00000000: 0000 0000 1c89 8a3c 802c 3b3c 474c 403c
00000010: 1a97 42bc e45d 293c 6185 3d3b f852 f0bc
00000020: 2a4a 9bbc 6942 9fbc acb2 0738 0000 0000
00000030: c09e 723c 794e 04bc 0400 0000 9b62 16bd
00000040: 2c0c a2bb 0400 0000 0000 0000 61a6 89bc
00000050: 2cb1 9626 e0c7 ee3b f2aa 72bc 0400 0000
00000060: f689 c8bc a669 623b 7645 2abc 87c4 88bc
00000070: 0400 0000 4965 bdbb 0000 0000 8a28 25bc
00000080: a9da cebc 0000 0000 154d 80bc 823e bd3a
00000090: 0000 0000 0000 0000 3cfb 5cbc 5624 e8bb
000000a0: d5fb b7bc 1246 b43c 4717 ad3b 0000 0000
000000b0: 62e8 fd2a b5be 2000 e60e c1bc 0400 0000
000000c0: 0000 0000 0000 0000 a704 f3ba 0000 0000
000000d0: fe8f 93bc 0000 0000 c02b 2a3c 8263 603c
000000e0: 6ed1 d13a ae49 6abc 2167 f6bc 5563 d13b
000000f0: 524f 3dbc 0000 0000 8744 4d3c 32df 3ebc
0.0 0.016911082 0.011424184 0.011736936 -0.011876846 0.010337327 0.0028918611 -0.029336438
-0.018956263 -0.019440847 3.235291e-05 0.0 0.014808357 -0.00807535 6e-45 -0.03671513
-0.0049452987 6e-45 0.0 -0.016802968 1.0456363e-15 0.0072870106 -0.014811264 6e-45
-0.024479847 0.0034547835 -0.010392537 -0.016695274 6e-45 -0.0057798964 0.0 -0.010080466
-0.02525075 0.0 -0.015661756 0.0014438184 0.0 0.0 -0.013487633 -0.0070844097
-0.02245895 0.022006068 0.005282316 0.0 4.5103076e-13 3.007149e-39 -0.023566674 6e-45
0.0 0.0 -0.0018540815 0.0 -0.018012997 0.0 0.010386407 0.0136955995
0.001600785 -0.014299793 -0.030078473 0.006390015 -0.011554556 0.0 0.012528545 -0.011649894

exp_avg_sq f4 [64]
00000000: 0000 0000 7737 cf3a 5c9e 863b 8e1e df3b
00000010: 519a 363c 29f4 5c3b f0d6 6939 e006 963c
00000020: 28ed 793c 5281 f83b c8e4 c536 0000 0000
00000030: 8b43 1f3c 4f64 333a 1aaf fc33 01ab 243d
00000040: 6f94 cd3a 1924 b235 0000 0000 4339 7a3c
00000050: 0acb 8536 181f c73a 9931 633b fffc b934
00000060: 81f7 f93c 389d a239 ca5b 8c3b c5db 473c
00000070: 1ac2 1437 9c7b 383b 0000 0000 20b9 3d3a
00000080: c449 ff3c 0000 0000 6612 8d3c 6934 ca37
00000090: 0000 0000 0000 0000 3853 3f3c cf2a 673b
000000a0: 3e50 513c 6a8b 023a e1c8 7c3a 0000 0000
000000b0: 9712 2b39 3727 8936 f983 023d ac3f 2d35
000000c0: 0000 0000 0000 0000 3d84 8039 0000 0000
000000d0: fd64 c43c 0000 0000 0e66 b43b b07f 1b3c
000000e0: 4ced 0038 1676 833c 4adc 493b 8493 d63a
000000f0: 6893 923b 0000 0000 ce85 033c a4e0 5c3c
0.0 0.0015809376 0.0041082334 0.0068090623 0.01114519 0.0033714867 0.00022300682 0.018313825
0.015254296 0.0075837756 5.897691e-06 0.0 0.009720693 0.0006843255 1.1766515e-07 0.040202145
0.0015684495 1.3272539e-06 0.0 0.015272441 3.9873457e-06 0.0015191762 0.0034667014 3.4643014e-07
0.030513527 0.00031016185 0.004283403 0.012198393 8.86668e-06 0.0028149849 0.0 0.00072373636
0.031163104 0.0 0.017220687 2.4104682e-05 0.0 0.0 0.011677556 0.0035273319
0.012775479 0.0004979881 0.00096429704 0.0 0.00016314756 4.0874834e-06 0.03186414 6.4540177e-07
0.0 0.0 0.00024512588 0.0 0.023973936 0.0 0.00550533 0.009490892
3.0738578e-05 0.016047519 0.0030801469 0.0016370867 0.0044731386 0.0 0.008027507 0.013481293

exp_avg f4 [1, 64]
00000000: 0000 0000 44cd 01bf b2dc 03bf 6eb1 3cbf
00000010: f18d 85be 12bb 3cbf a36e 0fbf 8eb9 36be
00000020: 9c99 16be bfab 17be 134a c038 0000 0000
00000030: 8884 d3be 010e c8bd 0400 0080 8e61 5fbd
00000040: 1f01 cbbe 0400 0080 0000 0000 68f7 e1bd
00000050: 18a8 68a3 c7cc a6be 4cfd 00be 0400 0080
00000060: 51c6 53be 141a 33bf 600a 88bd 8a62 85be
00000070: 0400 0080 22f5 08bf 0000 0000 ebc7 42bd
00000080: 546f 06be 0000 0000 5824 3ebe df85 93be
00000090: 0000 0000 0000 0000 fa0c dabd 562f fcbe
000000a0: f150 c5bd ec96 efbc 8364 2dbf 0000 0000
000000b0: 46d3 51a6 3220 0080 07fe 3fbe 0400 0080
000000c0: 0000 0000 0000 0000 b156 04bf 0000 0000
000000d0: d850 5bbe 0000 0000 b3cf 20bf 2cc2 d4be
000000e0: 5c8b 27bf 09cb 88be 2282 18be 41df 09bf
000000f0: 6e32 ddbd 0000 0000 1258 d3be 5c45 4cbf
0.0 -0.50703835 -0.5150863 -0.73708236 -0.26084855 -0.73722947 -0.56028193 -0.17844221
-0.14707035 -0.1481161 9.169071e-05 0.0 -0.4131205 -0.09768296 -6e-45 -0.054536395
-0.39649293 -6e-45 0.0 -0.11033517 -1.26123404e-17 -0.32578108 -0.12596625 -6e-45
-0.2068112 -0.6996167 -0.06642604 -0.26051742 -6e-45 -0.53499043 0.0 -0.047553938
-0.13128406 0.0 -0.18568552 -0.28813073 0.0 0.0 -0.10647006 -0.49254864
-0.09634579 -0.02924677 -0.67731494 0.0 -7.279777e-16 -1.155e-41 -0.18749247 -6e-45
0.0 0.0 -0.5169478 0.0 -0.21417558 0.0 -0.62816924 -0.4155439
-0.6544702 -0.26717404 -0.14893392 -0.53856283 -0.10800634 0.0 -0.4127813 -0.79793334

exp_avg_sq f4 [1, 64]
00000000: 0000 0000 0367 3d41 1695 1841 4e63 8041
00000010: 7ccd 4640 6892 a341 15fd 4941 b87e 4e3f
00000020: 50f0 903f 7ee8 573f b3b8 8c3c 0000 0000
00000030: a5f1 a340 8181 073f 895b c334 f116 bc3e
00000040: 08c3 bd40 6f5b c929 0000 0000 c02b 093f
00000050: e92d a52c f17c 7240 e15d 183f 2968 2834
00000060: d3b9 0540 5f52 5d41 9792 c63e 3b21 fb3f
00000070: 7dab 682d 6ad2 5541 0000 0000 f0c5 233e
00000080: 8d6b 0d3f 0000 0000 cde3 bf3f 8594 4e40
00000090: 0000 0000 0000 0000 7316 ea3f f9d8 0d41
000000a0: 9b17 283e 9b48 ce3b 0a94 9941 0000 0000
000000b0: f95c 723a 6694 b72d f10f 923f 4b8a a72c
000000c0: 0000 0000 0000 0000 f95f 2741 0000 0000
000000d0: 8255 303f 0000 0000 c3e8 4d41 bbc8 a740
000000e0: 60e3 9741 b83d 6940 190e 3d3e 9a5d 1a41
000000f0: 7461 ca3e 0000 0000 4b75 9540 f124 f941
0.0 11.837649 9.536398 16.048489 3.1062918 20.446487 12.624288 0.8066211
1.1323338 0.8433913 0.017177915 0.0 5.1232476 0.5293198 3.638818e-07 0.36736253
5.9300575 8.942054e-14 0.0 0.5358238 4.694679e-12 3.7888758 0.5951825 1.5684112e-07
2.0894668 13.83261 0.38783714 1.9619516 1.3225751e-11 13.363871 0.0 0.15993476
0.55242234 0.0 1.4991394 3.227815 0.0 0.0 1.8288101 8.865472
0.16415255 0.0062952763 19.197285 0.0 0.00092454214 2.0870593e-11 1.1411115 4.761779e-12
0.0 0.0 10.460931 0.0 0.68880475 0.0 12.869327 5.243253
18.986023 3.644392 0.18462409 9.647852 0.39527476 0.0 4.670568 31.143038
