trained_models/tetris_auto_4000.pt (torch, 61767 bytes, 15 tensors)

conv1.0.weight f4 [64, 4]
00000000: 440f 243e c9d5 323e 1893 ecbd 3e62 bdbd
00000010: d8d3 3b3e a8a6 913e 3315 cd3d 791e 96be
00000020: ca88 62be 001d b43b 6026 73bd fa7a 94be
00000030: f274 fd3e 82e8 84be 3f2f 93bd 3055 c33d
00000040: 00ea 083e 00af 253e 2f4e fabd ae5e c2bd
00000050: 2334 14be de91 28be 5297 3cbe c050 823b
00000060: 85dd 003e f264 513e c042 e7bc 36e3 e23c
00000070: 12ef d7bd a086 653c 1282 b7bd 6989 58be
00000080: efcd b3be ccf9 82be ce18 9f3d 38fd 653d
00000090: 285d d2be 8eb3 3d3f 5d27 873e c96f 85be
000000a0: 30ad e3bc 514f 12be a414 36be c068 7ebe
000000b0: 2768 573f 5b8a 3dbe ebc3 18be 66ae 823d
000000c0: 4a08 933e f2b2 71be 4d73 0a3e 1f5f 98be
000000d0: cc7a 61bd a8a1 4b3d a126 7e3d 24ab 67be
000000e0: fa96 813e 2ed5 32be 288b 38be 4021 acbb
000000f0: a06d 9cbe 72b7 283e e96d e23d 34b6 b3bc
00000100: 700d 083d dda5 16be 0425 853d c9cc 22be
00000110: c05a 19bd 3009 543d 523a 3c3e 522d 3b3e
00000120: b65d fc3d 176a 033e 85f2 593d d281 533d
00000130: 3026 743e 730a 83be 5ed7 aabd 6fc4 25be
00000140: e3a7 28be 14f3 063e 4062 32be 1636 6cbe
00000150: 2ca0 26be 980b efbd 2109 373d 2b10 233c
00000160: 9407 ccbd 47cf 93be 601e b7bd 1699 70be
00000170: f162 3bbd 0681 6dbd c2f6 8c3d 8309 a23d
00000180: e510 18bf 0352 1a3b 6cb8 cd3e adaa 153e
00000190: 73da 38be 80b6 ee3c 60fe 3f3c 08f8 97be
000001a0: b5c0 88bf ad0d 0ebd 23e8 103c efc8 a33c
000001b0: f882 52be 0246 7dbe 7c92 ae3d 78df 65be
000001c0: e2f0 923d d691 8a3e 2d77 23be f84e 58bb
000001d0: 8d00 0c3e a18b 71be a505 20be 9647 313e
000001e0: 5c73 433e 6037 fdbc 725e 77be c0d7 a53d
000001f0: 2869 973e d9d6 95be d490 13be 5e8e c63d
00000200: 8228 3a3e 19b7 243e 1dbd 183e 325b cd3d
00000210: 935b 20bf b6b3 23bf cddb 183e 8f8b 523d
00000220: 603b df3c 8b66 24be 034f 84be b833 79bd
00000230: e85e c1be 916e 42be 470c 39be 5179 e23d
00000240: f351 9d3e e2e0 1cbe af7a d23e fe1d fabd
00000250: 76de d53e 7d8a 2d3e 0372 2d3e ae75 bb38
00000260: 609f b43d 207a 00bf 1399 503e 6ee9 c53d
00000270: 3ab7 3c3f 2e4c 8dbe 7703 edbd 81df a53d
00000280: 2ee2 cf3d 5ffa 4cbe c134 18be ef22 093e
00000290: fb1c 39bf b89d 38be 8768 44be cb5d 7b3d
000002a0: 6003 d03d 6c84 8c3d 1871 0abe 4d90 97be
000002b0: 76f2 613f 3ae6 813e fb60 f23e 7961 cebd
000002c0: 9cad c73d e994 87be 2a39 37be ca19 4dbe
000002d0: a89c b2be fc4a bdbe 8b47 813e 33d8 223d
000002e0: a1df 50bf d578 39be 9432 cf3e 0151 3a3d
000002f0: ff69 7c3e b275 1ebe 1f3b 20bd ee78 213e
00000300: e3ae 5fbe d505 6cbe 6cf3 4abd 002c 9b3a
00000310: 407b 44be 2b6d 51be 0382 55be 4dfc 2a3d
00000320: 70a1 7d3d aeab 3e3e 50ff b3bd a430 e0bd
00000330: 2352 ad3e f87c c5be 8ec0 aebd 4c38 a43d
00000340: 44f8 f7bd a644 6fbd e387 8cbd b706 cdbc
00000350: d8bb d33d 00f9 d63b b54a 89be 5ce0 d8bd
00000360: d3f3 b0be 1b83 003e d63c 8e3e f27e 11bc
00000370: b197 d4bb 318e 6d3e da3a 7f3d 81f7 bbbc
00000380: 60e2 7b3e 2ca8 87bd 20cd 4f3d 6474 60be
00000390: fec6 103e 4748 933d 829e 8abd b870 a33d
000003a0: 0159 7cbe c5da 39be aa19 a2bd d52d 89be
000003b0: 7547 01be 69a6 0ebe baeb 64be 0030 2139
000003c0: d0b8 cd3c 7328 88bd 7fbd a43d c891 18be
000003d0: 3868 263d 3f1f 863e 220c e03d a9e1 afbe
000003e0: 0a26 353f aa43 31be da37 db3c 0514 f93d
000003f0: 7bc8 0b3f 2ef2 04be fa75 91be 2a70 0a3e
0.16021448 0.17464365 -0.115514934 -0.09247254 0.1834253 0.2844746 0.10013809 -0.29320124
-0.22122493 0.005496621 -0.05936277 -0.29000074 0.49503285 -0.2595864 -0.07186746 0.095377326
0.13370514 0.16180038 -0.122219436 -0.09490715 -0.14473014 -0.16461894 -0.18417099 0.0039769113
0.12584503 0.20448664 -0.028230071 0.027696233 -0.10543646 0.014009148 -0.08960356 -0.21146168
-0.35118052 -0.25581205 0.07768403 0.05614969 -0.41086698 0.74102104 0.2639722 -0.26061848
-0.027792543 -0.1428807 -0.17781311 -0.24844646 0.841433 -0.1850981 -0.14918487 0.0638092
0.28717262 -0.23603418 0.13520546 -0.29760072 -0.05504875 0.049714714 0.06204856 -0.22623879
0.25310498 -0.17464134 -0.18021834 -0.005252987 -0.30552387 0.16476229 0.1105612 -0.021937467
0.03321594 -0.1471171 0.06501201 -0.15898432 -0.03744006 0.051766574 0.18381622 0.18279007
0.123225614 0.12833439 0.0532098 0.05163748 0.23842692 -0.2559391 -0.08341859 -0.16188215
-0.16470294 0.13178664 -0.17420292 -0.23067507 -0.16272038 -0.11672133 0.04468644 0.009952585
-0.09962383 -0.28869078 -0.089413404 -0.23495898 -0.045748655 -0.057984374 0.06883003 0.079119705
-0.5940078 0.0023547418 0.40179765 0.14615889 -0.18052082 0.029139757 0.011718363 -0.2968142
-1.068381 -0.03468101 0.008844408 0.019993274 -0.20557773 -0.24733737 0.085240334 -0.22448528
0.07174851 0.2706439 -0.1596343 -0.0033006053 0.13672085 -0.2358842 -0.15627153 0.17312464
0.19086975 -0.030910194 -0.24157122 0.08097792 0.29572415 -0.29265478 -0.14410716 0.09695123
0.18179515 0.16085471 0.14915891 0.1002716 -0.6263973 -0.6394609 0.14927597 0.051402625
0.027249992 -0.16054742 -0.2584153 -0.06084034 -0.3776772 -0.1898749 -0.1807109 0.110582955
0.30726585 -0.15320161 0.41109225 -0.12212752 0.41771287 0.1694736 0.16938023 8.9387744e-05
0.08819461 -0.5018635 0.20370893 0.09663664 0.7371708 -0.27597183 -0.115729265 0.080992706
0.10150562 -0.20017384 -0.14863874 0.13392232 -0.72309846 -0.18028915 -0.19180499 0.061368745
0.10156894 0.06861195 -0.13519704 -0.2960228 0.8826059 0.2537096 0.47339615 -0.10077185
0.0974991 -0.26480797 -0.178929 -0.20029369 -0.34885144 -0.3697127 0.25249895 0.039756965
-0.8159123 -0.181125 0.40468276 0.045487408 0.2464981 -0.15474585 -0.039118882 0.15768787
-0.21844058 -0.230491 -0.04954855 0.0011838675 -0.19187641 -0.204518 -0.20850377 0.04174452
0.061921537 0.18620178 -0.08788931 -0.109467775 0.33851728 -0.38571906 -0.08532821 0.0801855
-0.121079 -0.058415078 -0.06861856 -0.025027616 0.10338563 0.006560445 -0.2681481 -0.10589668
-0.34561023 0.12550013 0.2778079 -0.008880364 -0.0064878096 0.23198773 0.062311985 -0.022945167
0.24598074 -0.06623873 0.05073273 -0.219194 0.1413841 0.0719152 -0.06768514 0.07980484
-0.24643327 -0.1814986 -0.07915051 -0.2679278 -0.12624915 -0.13930668 -0.22355548 0.00015372038
0.02511254 -0.0664834 0.08043956 -0.14899361 0.040626734 0.26195714 0.10939814 -0.34351853
0.7076117 -0.17310968 0.02676003 0.121620215 0.54602784 -0.12983009 -0.2841032 0.1351935

conv1.0.bias f4 [64]
00000000: 267d b2bd 1411 0f3f 0000 0000 3fcc ebbf
00000010: b32e dcbb 0000 0000 2402 c4bf 0000 0000
00000020: 850c 943f 3537 433f 0000 0000 00a2 a53f
00000030: 21db 19bd 0329 5c3e 0000 0000 1817 c73f
00000040: 3721 85bc 9131 a4bf d7d2 b1bf 0000 0000
00000050: 0000 0000 3dc5 953f 0000 0000 51c7 8e3f
00000060: 1cc3 283f 0000 0000 1541 a9bf 0000 0000
00000070: 37a4 de3f d069 dabf e2f3 a73f 4072 b33f
00000080: 4f03 aabf 330b c93e 0000 0000 9782 a93f
00000090: 49a6 563f 1474 c0bf dc81 3b3f 666e b23f
000000a0: 03ba a33f 6ba0 febf 0000 0000 47af 01bd
000000b0: 0000 0000 7eb1 e7bf bd14 683e 096c dfbf
000000c0: 0000 0000 9174 a23f b564 90bc 36e7 0a3f
000000d0: 7ceb aa3f 0000 0000 a1bf 893f 37f5 b63f
000000e0: 0000 0000 2920 e1bf 0000 0000 0000 0000
000000f0: 3a6b 7fbd d467 f93e 4f90 dbbf 45dc c9bf
-0.087152764 0.55885434 0.0 -1.8421706 -0.006719434 0.0 -1.5313153 0.0
1.1566321 0.76256114 0.0 1.2940063 -0.037562493 0.2150002 0.0 1.5553923
-0.01625119 -1.2827626 -1.3892468 0.0 0.0 1.1700817 0.0 1.1154577
0.65922713 0.0 -1.3222986 0.0 1.7393864 -1.7063541 1.3121302 1.4019241
-1.328226 0.39266357 0.0 1.3242978 0.8384748 -1.5035424 0.73245025 1.3939941
1.2791141 -1.9892706 0.0 -0.031661298 0.0 -1.8101041 0.22664161 -1.7454845
0.0 1.2691823 -0.017626146 0.5425905 1.3353114 0.0 1.0761606 1.4293584
0.0 -1.758794 0.0 0.0 -0.06235812 0.48712027 -1.7153414 -1.5770346

conv2.0.weight f4 [64, 64]
00000000: e8ab 3a3e 697c b53d e19d 283e 1020 8b3e
00000010: b92b f83c 573a 043e 28c6 333e c9eb e6bd
00000020: b4b6 e5bc 3629 adbd 1c8e 373d c655 aabe
00000030: 251f 203d a54a 6d3d ae99 ff3d 9ae9 05be
00000040: b612 473e 7196 443e c41e 283e 00bf 1a3b
00000050: 5962 413e ed6d d2be e423 123d 0322 0f3e
00000060: faf9 cabc a1f6 2d3e b130 fd3d b4ed 4c3d
00000070: 88c0 50be 17bd 5dbd 7265 f3bc ee4b 42be
00000080: 567e 14bd 8c25 9ebe b045 a83c 3658 9bbe
00000090: fc9f d03d 58e6 163e 1a8e 8b3d 2e7b ad3c
000000a0: e169 d4bd 6e85 163e 88f3 e43c 24ed 02be
000000b0: 0226 de3d 727a 8f3e 380b 6e3d 595e 223e
000000c0: c001 92bd 938d 05be 41e2 013e 63fa 383d
000000d0: f8cc 65be c947 343e 7152 68bd d337 f1bd
000000e0: b21b f43d 0aa5 6a3e f8d7 57bd e296 e73d
000000f0: 4d0c cd3d ca1b 00be 1c30 dfbd 0a39 773e
00000100: 75c4 1c3e 406e 713e b4bc 743d b739 8d3e
00000110: 7388 393e c447 1dbd 5af3 4bbd 58c6 d4bc
00000120: 0149 bdbd ddfe 57be bd57 233e 5ac2 a43d
00000130: 2fe0 fcbd eb5a 4c3e c6c2 983d a358 d6bc
00000140: 98ff 53bd cb32 063e 31bb 3f3e d045 0dbd
00000150: a452 12be 384f 42be f5b8 c9bd 83f2 44be
00000160: 1290 1b3d f070 623c b171 45be e291 863d
00000170: a91f 0bbe a64d 403e 57e5 f33d a3e1 973d
00000180: 788b 123a dc09 c93d e126 ddbd bab2 36be
00000190: 2a27 103c 438f 53bc a26b d9bd 865d e53b
000001a0: 5d87 8fbe 0a6e 023f 9821 a0bc 5846 7d3d
000001b0: 8054 8f3a 9bb8 f73e 6d61 abbd 7391 0b3e
000001c0: 9a16 0fbe 3e5a abbe 117d 053e 0b14 2d3e
000001d0: fb68 9dbd 4018 e4bc ddb1 06be be0a 9dbc
000001e0: 105e 99bc d5ca 8d3c a20e ee3d 00b6 a9ba
000001f0: c754 973d def8 413d ea7e e43d 6407 17be
00000200: bf3a 3c3e 3bde 49be 9544 193e 7c76 46be
00000210: 8e6f 333e fbdf 243e 6e22 263e 4c87 393d
00000220: 3e68 4a3e 5bf9 a53d 9443 23be 5388 283c
00000230: 2826 4bbe be64 373d 6ea4 e23d 5ea7 1abe
00000240: 0389 153e 835a a5bb 7559 313e 9ae8 07be
00000250: 6c4a 74bd 0cfa 2a3e fde1 e6bd 26e5 69be
00000260: c2c4 69bd 6f6d 1a3e a12a bfbd 9158 f4bd
00000270: 1b70 72be 85a7 6ebe 31e9 193d 2342 e03d
00000280: bdd8 40bd 97db e23d 90be 23bc 96f5 a4bd
00000290: 03b6 4cbe 5f1c 9a3d c365 82b9 6ce6 39be
000002a0: 2bd7 4fbb dec5 b5bd aac2 bf3d 434f efbd
000002b0: e2a1 31be 7bf2 81bd 5e88 89bb bc1c d13d
000002c0: 8067 82bc e4a4 fa3c f3d0 f93d 56fb ddbd
000002d0: 2354 e0bd adcc 193e 67b1 803d 98de d9ba
000002e0: 982a f0bc db98 7f3d 3c95 2cbd 602e 9d3b
000002f0: fb23 0f3e 466e 37be 0ef5 0abe 247c 823b
00000300: ea83 f13d 405e 43be 907d 723c 03e8 86bc
00000310: b099 a63c ac2e f4bd 89c6 2dbe c019 0f3c
00000320: d77e 32bd e46d 4bbe 3835 aebd 9192 e03d
00000330: cf40 333e 66f8 98bd 70a5 e33c 9819 47be
00000340: 5a24 843d d7ad 713d 1d6c 1b3e 1a3d e03d
00000350: 1748 d8bd a0c7 75bd 0b4c bcbd 8684 d63c
00000360: 2d8d 3cbe a8c6 a5bc e9d1 2fbd 8a40 b2bd
00000370: a79c f23d 2d5b b2bd 2e39 063e 994d e9bd
00000380: 9aa4 dd3c a056 c9bd d079 d4bc e426 63bc
00000390: fc55 1a3d 3a41 1cbe 998f 5bbe 204c 093e
000003a0: 8642 cf3c 5bf8 bdbc 605c c3bc a004 13be
000003b0: 9c20 033d d3ea 72be 3879 a0bd 19a1 913d
000003c0: 435f c7bd 44fa dd3d ba59 be3d 47f9 b63d
000003d0: e587 09be b238 fc3d 1533 92bd 1e07 52bd
000003e0: 6fd2 fcbd 462e 47bd f86c c73c 9156 433e
000003f0: 28f2 cf3c 2442 d4bd 73d7 76be 0a49 123d
0.1822964 0.0886162 0.16466476 0.271729 0.030294286 0.1291288 0.1755606 -0.11275441
-0.028041221 -0.08455126 0.04481326 -0.33268565 0.0390922 0.057932515 0.12480484 -0.13077393
0.19440731 0.19198014 0.16417986 0.002361238 0.18885173 -0.41099492 0.03567876 0.13977818
-0.024777401 0.16988613 0.12362803 0.05003138 -0.20385945 -0.05413541 -0.029711459 -0.18974277
-0.036253296 -0.3088802 0.020541042 -0.30340737 0.101867646 0.14736307 0.06814213 0.0211769
-0.10371757 0.14699337 0.027948156 -0.12785774 0.10847093 0.28023106 0.058116168 0.15856303
-0.0712924 -0.13042288 0.12683965 0.045160662 -0.2244147 0.17605509 -0.056719247 -0.11778226
0.11919345 0.2291452 -0.0526962 0.113080755 0.10012112 -0.125106 -0.10897848 0.24142852
0.15309317 0.23577213 0.059750274 0.27583095 0.18118457 -0.03839852 -0.049792625 -0.025973484
-0.0924244 -0.21093316 0.15951438 0.08044882 -0.12347447 0.19956557 0.07459025 -0.026165312
-0.051757425 0.13105313 0.18723752 -0.034490407 -0.14289337 -0.18975532 -0.09849731 -0.19233136
0.037979193 0.013820872 -0.19281651 0.06570794 -0.13586296 0.1877962 0.119089775 0.07416084
0.00055902405 0.09816334 -0.10798431 -0.17841616 0.0087984 -0.012912574 -0.106162325 0.0069996743
-0.2803296 0.50949156 -0.019547269 0.061834663 0.0010935217 0.4838303 -0.08368192 0.13629703
-0.13973466 -0.33467287 0.1303599 0.16902177 -0.07686039 -0.027843595 -0.13153787 -0.019170161
-0.01872161 0.017308632 0.11623885 -0.0012947917 0.07389217 0.04735648 0.111570194 -0.14748913
0.18381785 -0.1971368 0.14967568 -0.19381136 0.17523023 0.16101067 0.16224071 0.045295045
0.19766328 0.081042014 -0.15943748 0.0102864085 -0.19838774 0.04477381 0.11066519 -0.15102908
0.14603047 -0.00504619 0.17319281 -0.13272324 -0.059641287 0.16696948 -0.112735726 -0.2284132
-0.05707241 0.15080808 -0.09334303 -0.11930955 -0.23675577 -0.23306091 0.037575904 0.109501146
-0.047081698 0.1107704 -0.009994164 -0.08054654 -0.19991307 0.075249426 -0.0002487135 -0.18154305
-0.0031713943 -0.08875631 0.09363301 -0.1168504 -0.1734691 -0.063450776 -0.0041971644 0.10210559
-0.015918493 0.030596204 0.12198057 -0.10838954 -0.10953548 0.15019484 0.06283837 -0.0016622124
-0.029317185 0.062401634 -0.04213451 0.004796788 0.13978569 -0.1791316 -0.13570043 0.003982084
0.11792739 -0.19078922 0.014800444 -0.016468054 0.020336956 -0.119229645 -0.16970266 0.008734167
-0.043577995 -0.19866139 -0.085062444 0.10965455 0.17505191 -0.07469253 0.027788848 -0.19443357
0.06452246 0.059003677 0.1517796 0.10949154 -0.10560625 -0.06000483 -0.091941915 0.026186239
-0.1841323 -0.020236328 -0.042924795 -0.08703716 0.11846285 -0.08708797 0.1310775 -0.11391754
0.027056027 -0.098309755 -0.025936991 -0.013864253 0.037679657 -0.15259257 -0.21441497 0.13407946
0.025300276 -0.023189714 -0.023847759 -0.14357233 0.03201352 -0.23722391 -0.07835621 0.07110805
-0.097349666 0.1083875 0.09294458 0.08934265 -0.13430746 0.12315501 -0.071386494 -0.05127632
-0.123448245 -0.048628114 0.024343953 0.19075991 0.025384024 -0.10364178 -0.24105625 0.035714187

conv2.0.bias f4 [64]
00000000: c52a 98bf d603 a6bf 58d0 6cbc 1a27 8fbc
00000010: 1513 a1bf b5a3 70bf e1c4 b13f 71a5 7a3f
00000020: 9c11 673d 0cab 9dbf 0000 0000 63d9 6d3f
00000030: 0306 97bf cdb3 343e 075e 643f ad7d 683f
00000040: 0d1b a43f fae8 583f 82a9 633f 8799 61bf
00000050: 0000 0000 2585 aabf 55e8 ba3f 6e3a 623f
00000060: 3a1a 6e3f d1a1 69bc 00a6 993f a8a2 653f
00000070: fbb9 e0bb 5d57 96bf f6a0 8a3f d0c0 5b3f
00000080: a179 93bf 186f 69bf 82d6 a9bf dc1e 93bf
00000090: b149 7bbf 9b05 633f 0cc0 a8bf 6cc6 7dbf
000000a0: 0000 0000 1b14 683f 3b6a 653f 0000 0000
000000b0: 7251 853f 458c 643f e278 843f 1326 963f
000000c0: 4827 b6bb a7cf 6c3f 568d 1e3f 1717 6a3f
000000d0: cdd9 b73f 5e8f 70bc f43b a6bf f057 ebbb
000000e0: 5b69 283e d48a 28bd 4e64 1dbf a1ac b5bf
000000f0: 9402 c63d 39ec 8a3f 98fc 9ebf 8dcd 83bf
-1.1888052 -1.2969921 -0.01445397 -0.0174747 -1.2583948 -0.939998 1.3888208 0.97908694
0.056413278 -1.2317824 0.0 0.9290983 -1.179871 0.17646714 0.89205974 0.90816766
1.2820755 0.84730494 0.88930523 -0.8812489 0.0 -1.3321882 1.4602152 0.88370407
0.9300877 -0.014259771 1.2003784 0.8970132 -0.006858108 -1.1745411 1.0830371 0.85841084
-1.1521493 -0.9118514 -1.3268588 -1.1493793 -0.9815932 0.8868043 -1.3183608 -0.9913089
0.0 0.9065568 0.8961522 0.0 1.041548 0.89276534 1.034939 1.1730369
-0.005558882 0.9250435 0.6193441 0.9144148 1.4363343 -0.014682619 -1.2987046 -0.007182114
0.1644644 -0.04114802 -0.6148118 -1.4193307 0.096684605 1.085334 -1.2420835 -1.0297104

conv3.0.weight f4 [1, 64]
00000000: fcf3 a2be 4232 87be 39d2 d2bd 2477 3a3c
00000010: 1a10 a0be e78c d7bd 2f13 853f d8ae 9e3e
00000020: 8222 5dbe 4e8d 6ebe 454b 6dbe 1ab8 163f
00000030: ffbb 97be b12f c3bf 021c 413e 6ab4 a73e
00000040: 174f 323f a63f be3d 85de 253e a343 52be
00000050: 7e55 043e 8031 b7be 8681 a93f ad9c c63e
00000060: 7ccd bc3e 0979 5dbe 1505 8c3f 3623 083f
00000070: 8fed 6bbe c106 8fbe 8427 8c3f c0c3 7a3f
00000080: e4cc 53be 84ec 92bd 3c16 efbe f315 a7be
00000090: 8950 11bd 75b8 8d3e d1c2 14bf 5720 2bbe
000000a0: 52b8 833e d54f b13e 527c de3e fb2e 04be
000000b0: 77de b93f 454f 483f 2e34 fd3d 5066 783f
000000c0: 67ba cbbd ed17 af3e d4a1 513d 6ce7 b33e
000000d0: 5e13 b93e 18a6 243d 7db5 8ebe bfbd a53c
000000e0: 6263 60bf 53bb ee3c 4fc9 a4be 9ff7 fcbe
000000f0: 1d58 4c3e 50a5 ea3e 502a a8be c8ee 8bbd
-0.3182677 -0.2640553 -0.10294003 0.011380944 -0.31262285 -0.10524922 1.0396479 0.3099277
-0.21595195 -0.23296091 -0.23173244 0.58874667 -0.29635617 -1.5248929 0.1885834 0.32754833
0.6965193 0.09289484 0.16198166 -0.20533614 0.12923238 -0.35779953 1.3242652 0.3879141
0.36875522 -0.21628202 1.0939051 0.5317873 -0.2303984 -0.2793484 1.0949559 0.9795494
-0.20683628 -0.07174018 -0.4669665 -0.32633933 -0.035477195 0.27679792 -0.58109766 -0.16711555
0.25726563 0.3463122 0.43454224 -0.12908547 1.4521016 0.78245956 0.12363468 0.97031116
-0.09947663 0.3419794 0.051179722 0.35137498 0.36147588 0.04019746 -0.2787284 0.02023208
-0.87651646 0.029142058 -0.32184836 -0.4940767 0.19955488 0.45829248 -0.32844782 -0.06832653

exp_avg f4 [64, 4]
00000000: 0400 0000 0cb5 9015 0165 7414 50bf ea15
00000010: 0000 0000 93a2 1931 f190 11bd ee90 91bc
00000020: 0000 0000 0000 0000 0000 0000 0000 0000
00000030: b8b1 473e 6017 d040 0d43 8d40 0eb4 5342
00000040: 0000 0000 0400 0000 0400 0000 0400 0000
00000050: 0000 0000 0000 0000 0000 0000 0000 0000
00000060: 8771 1b3e 2877 2640 21bf 1b40 633a e541
00000070: 0000 0000 0000 0000 0000 0000 0000 0000
00000080: e41b 12be 745a 87c0 8b69 b7c0 f618 20c2
00000090: 1291 27bd e0dc 323f b395 c740 f150 5e41
000000a0: 0000 0000 0000 0000 0000 0000 0000 0000
000000b0: b5f1 a0be bac5 01c1 9c1c 0dc1 14fb 95c2
000000c0: 0000 0000 0000 0000 0400 0000 0400 0000
000000d0: 0000 0000 0400 0080 0400 0000 0400 0000
000000e0: 0000 0000 0000 0000 0000 0000 0000 0000
000000f0: 728b 6fbe d57a 17c1 a4ac 14c1 7e0d 9bc2
00000100: 0000 0000 0000 0000 0400 0000 0400 0000
00000110: 3570 c03d dc62 cb3f 6831 ed3f 343a 8e41
00000120: 244a fd3d 95b9 3c40 1c92 5a40 c81c ed41
00000130: 0000 0000 0000 0000 0000 0000 0000 0000
00000140: 0000 0000 0000 0000 0000 0000 0000 0000
00000150: 20e1 72be e81b b7c0 0742 09c1 2d91 6fc2
00000160: 0000 0000 0000 0000 0000 0000 0000 0000
00000170: 59c1 46bd f05b 0cc0 f3ed f5bf 3bfc 7ec1
00000180: 0c2a d03b 0fba 80bf d227 c8bf d7fc 96c0
00000190: 0000 0000 0000 0000 0000 0000 0000 0000
000001a0: 14eb 8c3c afab 0640 6818 d23f 0686 7f41
000001b0: 0000 0000 0000 0000 0000 0000 0000 0000
000001c0: a3e4 62be 5e13 c8c0 fdd3 bfc0 c407 5cc2
000001d0: 9f30 fd3d c83e b540 6a38 8240 84c8 3042
000001e0: 7858 42bd 2429 6abf 5340 a8bf ec5d 23c1
000001f0: a558 90be 777f 07c1 9191 1cc1 464d 98c2
00000200: bcc1 913d f294 0940 266a 4440 21ad ab41
00000210: bf6e 3fbe 4058 123e 76a9 0240 c92f 9bc1
00000220: 0000 0000 0000 0000 0000 0000 0000 0000
00000230: d7d6 7fbe 448e e3c0 92bf 03c1 2a7c 80c2
00000240: daf0 5e3c 9d81 ac3d ce66 453f b4d4 2940
00000250: 733e 163e a851 5540 1815 3740 b163 1242
00000260: 64ff 81bc e094 a9be 59cd edbf 3d88 9dc0
00000270: aaae a0be 384f 09c1 da01 1fc1 7171 99c2
00000280: 9465 87be 1008 d9c0 6c2a 09c1 f20e 84c2
00000290: e802 e63e 48d0 c941 8f0a 1541 316b 2543
000002a0: 0000 0000 0000 0000 0000 0000 0000 0000
000002b0: b51a 4ebd 5831 9f3e 5aba bd3e 2822 103f
000002c0: 0000 0000 0000 0000 0000 0000 0000 0000
000002d0: fa97 4c3e 97af c540 08f1 cb40 4887 09c1
000002e0: dced a03c 509f ccbe 9632 93bf 0c28 aabf
000002f0: 8c5e de3d 158a 8c40 3635 5440 7904 0c42
00000300: 0000 0000 0000 0000 0000 0000 0000 0000
00000310: 4683 d2be c692 34c1 acbd 5fc1 f289 0dc3
00000320: 0000 0000 0400 0000 0400 0000 0400 0000
00000330: 1624 d1bc e4af 803f 8882 57be bca4 7b40
00000340: 9c09 70bb c165 91bf cb0e 1dc0 a602 dec0
00000350: 0000 0000 0000 0000 0000 0000 0000 0000
00000360: 3679 08bd aeac 48c0 4e59 3bc0 67e3 a4c1
00000370: 31db 24be 4ae3 c4c0 19cf c1c0 9a3f 4fc2
00000380: 0000 0000 0000 0000 0000 0000 0000 0000
00000390: 06f2 243e b791 6640 00f3 1540 b37a 0742
000003a0: 0000 0000 0000 0000 0000 0000 0000 0000
000003b0: 0000 0000 0000 0000 0000 0000 0000 0000
000003c0: 0000 0000 0400 0080 0400 0000 0400 0000
000003d0: 0000 0000 0400 0000 0400 0000 0400 0000
000003e0: 7b9b c63d 7e5f 6440 f6b1 6040 26ec ee41
000003f0: 60a4 9b3d 4174 7b40 f868 1940 3226 ed41
6e-45 5.844678e-26 1.23387714e-26 9.4813685e-26 0.0 2.2356843e-09 -0.035538618 -0.017769303
0.0 0.0 0.0 0.0 0.19501388 6.5028534 4.414435 52.925835
0.0 6e-45 6e-45 6e-45 0.0 0.0 0.0 0.0
0.15180026 2.6010227 2.4335406 28.65351 0.0 0.0 0.0 0.0
-0.14268452 -4.2297916 -5.7316337 -40.024376 -0.040909834 0.6986828 6.237024 13.894761
0.0 0.0 0.0 0.0 -0.31434408 -8.110773 -8.819485 -74.99039
0.0 0.0 6e-45 6e-45 0.0 -6e-45 6e-45 6e-45
0.0 0.0 0.0 0.0 -0.23393038 -9.467488 -9.292149 -77.52635
0.0 0.0 6e-45 6e-45 0.09396402 1.5889544 1.8530703 17.77842
0.12367657 2.948827 3.4151678 29.639053 0.0 0.0 0.0 0.0
0.0 0.0 0.0 0.0 -0.23718691 -5.7221565 -8.57862 -59.891773
0.0 0.0 0.0 0.0 -0.048524234 -2.1931114 -1.9213241 -15.93658
0.0063526686 -1.005678 -1.5637152 -4.7183642 0.0 0.0 0.0 0.0
0.017201938 2.1042287 1.6413698 15.970221 0.0 0.0 0.0 0.0
-0.2215753 -6.252364 -5.9946275 -55.007584 0.12362789 5.6639137 4.0693865 44.195816
-0.04744765 -0.91469026 -1.314463 -10.21043 -0.2819263 -8.468619 -9.785539 -76.150925
0.0711703 2.149716 3.0689788 21.459536 -0.1869459 0.14291477 2.041593 -19.398333
0.0 0.0 0.0 0.0 -0.24984299 -7.1111164 -8.23427 -64.24251
0.013607228 0.08423159 0.7710999 2.6536074 0.1467226 3.333109 2.8606625 36.597355
-0.01586885 -0.33121395 -1.8578292 -4.9228806 -0.31383258 -8.5818405 -9.937952 -76.721565
-0.26444685 -6.782234 -8.572857 -66.02919 0.44924092 25.2267 9.315078 165.41872
0.0 0.0 0.0 0.0 -0.05031844 0.31092334 0.37056237 0.5630212
0.0 0.0 0.0 0.0 0.1997985 6.1776843 6.3731728 -8.595528
0.01964467 -0.39965296 -1.1499813 -1.3293471 0.10857877 4.3918557 3.3157477 35.004368
0.0 0.0 0.0 0.0 -0.4111578 -11.285833 -13.983807 -141.53885
0.0 6e-45 6e-45 6e-45 -0.025529902 1.0053678 -0.21045887 3.9319296
-0.0036626821 -1.1359178 -2.454028 -6.9378233 0.0 0.0 0.0 0.0
-0.03331872 -3.1355395 -2.9273257 -20.611036 -0.1609924 -6.1527452 -6.0565305 -51.81211
0.0 0.0 0.0 0.0 0.1610795 3.6026437 2.3429565 33.869823
0.0 0.0 0.0 0.0 0.0 0.0 0.0 0.0
0.0 -6e-45 6e-45 6e-45 0.0 6e-45 6e-45 6e-45
0.09697624 3.5683284 3.5108619 29.865307 0.075997114 3.9289706 2.3970318 29.64365

exp_avg_sq f4 [64, 4]
00000000: 52ae c131 9439 d03f cb2b c03d 488f d640
00000010: 0000 0000 dd9f 123d 043d b03e 0329 963e
00000020: 0000 0000 0000 0000 0000 0000 0000 0000
00000030: 12c0 c73e 1ea4 8444 93cf aa43 5671 a347
00000040: 0000 0000 d197 7e36 fd8b 3534 537f 2737
00000050: 0000 0000 0000 0000 0000 0000 0000 0000
00000060: 98b2 773e f86d 1944 783c 5443 9f0d 3b47
00000070: 0000 0000 0000 0000 0000 0000 0000 0000
00000080: 4d1f 873e f343 2744 96cc 8743 2cd0 4a47
00000090: f083 ea3b 1986 4e42 b5ab 6543 3163 9544
000000a0: 0000 0000 0000 0000 0000 0000 0000 0000
000000b0: f1ab 8a3f 39b5 2b45 7ee5 8a44 0e8b 4f48
000000c0: 0000 0000 0000 0000 aba5 1c34 aba5 1c33
000000d0: 0000 0000 2a9f a139 5e5d b63b 19a2 b83b
000000e0: 0000 0000 0000 0000 0000 0000 0000 0000
000000f0: 0522 0c3f 2d8e d044 be8a 0c44 26c1 ec47
00000100: 0000 0000 0000 0000 ec31 7233 ec31 7232
00000110: 7c4b 933d cd95 4443 e23e ad42 b791 5746
00000120: 9d5c 5f3e 757a 0544 a0b7 4d43 8c69 2447
00000130: 0000 0000 0000 0000 0000 0000 0000 0000
00000140: 0000 0000 0000 0000 0000 0000 0000 0000
00000150: 0c39 3e3f c379 ec44 516b 3744 2b8e 1548
00000160: 0000 0000 0000 0000 0000 0000 0000 0000
00000170: 225d 643d 63f8 3043 9dd9 1a42 826e 4146
00000180: 1ec2 9a3c d8ff 8442 ed88 3141 25b7 7a45
00000190: 0000 0000 0000 0000 0000 0000 0000 0000
000001a0: 8299 cd3b 2572 8c42 e876 ed41 995b bb45
000001b0: 0000 0000 0000 0000 0000 0000 0000 0000
000001c0: 51a0 bd3e 87f9 8144 5a1a c643 6bf1 9847
000001d0: 08ae a13e 41d4 6944 fe5d 7d43 9876 8547
000001e0: e853 103c a5c2 0042 af27 5e41 2f9e e644
000001f0: ebf3 6e3f c529 1645 848f 6744 7df5 3948
00000200: 665c 773d 5655 1d43 3df9 9742 909c 3646
00000210: 1fc0 c33b 4d21 d83f 777e 3f41 a4b1 d443
00000220: 0000 0000 0000 0000 0000 0000 0000 0000
00000230: 0612 3e3f 0694 0045 6664 4144 b128 1748
00000240: d094 0a3c a814 4440 965a d341 3436 5943
00000250: 5fbe a13e 1641 4844 c1ca 8343 2caa 7547
00000260: 4018 423d faed ee42 8ca1 fa41 3d6f 0346
00000270: 061b 943f 1fd6 3645 2d48 8744 8a5d 5e48
00000280: 6ae1 693f 1a12 2045 3bd8 6744 7e18 3448
00000290: 7134 ed3f c87d d445 6bfa f444 4974 0849
000002a0: 0000 0000 0000 0000 0000 0000 0000 0000
000002b0: fba9 083e 0a99 b742 81b8 0943 8300 6345
000002c0: 0000 0000 0000 0000 0000 0000 0000 0000
000002d0: 6197 913f f77d d644 39b3 d144 e329 5748
000002e0: 4a83 6d3c 7647 2642 cdcd f640 26a1 2e45
000002f0: a741 6f3e 0516 2944 114d 4743 3660 4547
00000300: 0000 0000 0000 0000 0000 0000 0000 0000
00000310: 31a4 9c40 f1c3 3c46 e559 8945 18e1 7449
00000320: 0000 0000 f258 8738 50ae 4236 2b42 6139
00000330: 712a 073c 4059 5041 30e3 2241 a48f 7a44
00000340: 4d48 a33e 41cd 4f44 9a12 b243 b35d 7547
00000350: 0000 0000 0000 0000 0000 0000 0000 0000
00000360: 950d 0c3d 5797 f242 df8f e041 0797 0746
00000370: acfc 963e 634f 4c44 c6b9 8b43 4056 7947
00000380: 0000 0000 0000 0000 0000 0000 0000 0000
00000390: ddad d83e 3d10 8844 8bf1 ae43 1564 a547
000003a0: 0000 0000 0000 0000 0000 0000 0000 0000
000003b0: 0000 0000 0000 0000 0000 0000 0000 0000
000003c0: 0000 0000 f97e ab37 5650 133a a346 263a
000003d0: 0000 0000 a415 0c39 888d 563b 21b4 293b
000003e0: 7726 c13d 432e 8843 dbe6 ca42 bb8b 9e46
000003f0: 29f2 ec3d 0fe7 b943 e645 c042 6b5a d346
5.636857e-09 1.6267571 0.09383353 6.7049904 0.0 0.03579699 0.3442155 0.29328164
0.0 0.0 0.0 0.0 0.39013726 1061.1287 341.62167 83682.67
0.0 3.7937318e-06 1.6907866e-07 9.983621e-06 0.0 0.0 0.0 0.0
0.24189222 613.71826 212.2362 47885.62 0.0 0.0 0.0 0.0
0.26391068 669.0617 271.59833 51920.17 0.0071568415 51.630955 229.67073 1195.0997
0.0 0.0 0.0 0.0 1.0833722 2747.3264 1111.1716 212524.22
0.0 0.0 1.4588902e-07 3.6472255e-08 0.0 0.000308269 0.0055653295 0.005634558
0.0 0.0 0.0 0.0 0.5473941 1668.443 562.16785 121218.3
0.0 0.0 5.639042e-08 1.4097605e-08 0.07192132 196.58516 86.62282 13796.429
0.21812673 533.9134 205.71729 42089.547 0.0 0.0 0.0 0.0
0.0 0.0 0.0 0.0 0.74305797 1891.805 733.6768 153144.67
0.0 0.0 0.0 0.0 0.05575288 176.97026 38.712513 12379.627
0.01889139 66.499695 11.095929 4011.4465 0.0 0.0 0.0 0.0
0.006274403 70.22294 29.68306 5995.4497 0.0 0.0 0.0 0.0
0.37036374 1039.7977 396.20587 78306.836 0.31578088 935.31647 253.36716 68333.19
0.008809067 32.190083 13.884688 1844.9432 0.9334094 2402.6106 926.24243 190421.95
0.060390852 157.33334 75.98679 11687.141 0.0059738304 1.6885163 11.968375 425.38782
0.0 0.0 0.0 0.0 0.7424625 2057.2515 773.5687 154786.77
0.008458331 3.0637608 26.419231 217.21173 0.31590554 801.01697 263.584 62890.17
0.047386408 119.4648 31.32888 8411.81 1.1570747 2925.3826 1082.2555 227702.16
0.9135958 2561.1313 927.3786 184417.97 1.8531629 6799.7227 1959.8256 558916.56
0.0 0.0 0.0 0.0 0.13346092 91.798904 137.72072 3632.032
0.0 0.0 0.0 0.0 1.1374322 1715.9364 1677.6007 220327.55
0.014496634 41.569786 7.712622 2794.0718 0.23364888 676.34406 199.30104 50528.21
0.0 0.0 0.0 0.0 4.895043 12080.985 4395.237 1.0030255e+06
0.0 6.453869e-05 2.9009716e-06 0.00021482322 0.008249865 13.02179 10.180466 1002.2444
0.318911 831.2071 356.14532 62813.7 0.0 0.0 0.0 0.0
0.03419264 121.295586 28.07025 8677.757 0.29489648 817.2404 279.45135 63830.25
0.0 0.0 0.0 0.0 0.42320147 1088.5074 349.88705 84680.164
0.0 0.0 0.0 0.0 0.0 0.0 0.0 0.0
0.0 2.0443915e-05 0.0005619576 0.0006342923 0.0 0.00013359502 0.0032738168 0.0025894719
0.09431165 272.36142 101.45089 20293.865 0.11569626 371.80515 96.13652 27053.209

exp_avg f4 [64]
00000000: 54ce 4d12 2ea5 acbe 0000 0000 02a4 cf3e
00000010: 0400 0000 0000 0000 f12a 313e 0000 0000
00000020: 4113 e5be c4ec 2fbe 0000 0000 6603 52bf
00000030: 0400 0000 9cba debd 0000 0000 4c30 72bf
00000040: 0400 0000 525f 643e 4872 b53e 0000 0000
00000050: 0000 0000 b865 41bf 0000 0000 8f83 2abe
00000060: 9549 3ebc 0000 0000 0c84 843e 0000 0000
00000070: 4c6b 34bf c30b be3e 4a42 1bbe 8ac8 61bf
00000080: 6630 9e3e cc50 9c3d 0000 0000 5bec 4abf
00000090: fe93 be3d f3e1 be3e bbcc 21bd 66bf 5cbf
000000a0: e252 4dbf fc28 0e40 0000 0000 8670 e83e
000000b0: 0000 0000 4aeb f33e 9c9b 5e3d 357e 8a3e
000000c0: 0000 0000 ca9f ecbf 0400 0000 69ec a63c
000000d0: c0f8 b0be 0000 0000 3541 6dbe e50e 21bf
000000e0: 0000 0000 d089 223e 0000 0000 0000 0000
000000f0: 0400 0000 999d acbe 6d4c 8b3e 7450 843e
6.4940913e-28 -0.33719772 0.0 0.40554816 6e-45 0.0 0.17301537 0.0
-0.44741252 -0.17180163 0.0 -0.82036436 6e-45 -0.10875437 0.0 -0.94604945
6e-45 0.22301987 0.35438752 0.0 0.0 -0.75545835 0.0 -0.16651748
-0.011614223 0.0 0.25881994 0.0 -0.7047622 0.37118348 -0.15162006 -0.88196623
0.308963 0.07632598 0.0 -0.792669 0.09305571 0.3728176 -0.039501887 -0.8622955
-0.80204594 2.2212515 0.0 0.4539835 0.0 0.4764045 0.05434762 0.27049413
0.0 -1.8486264 6e-45 0.020376401 -0.3456478 0.0 -0.23169406 -0.6291335
0.0 0.15872884 0.0 0.0 6e-45 -0.33713987 0.27206746 0.2584263

exp_avg_sq f4 [64]
00000000: de7b aa39 5a2e 433f 0000 0000 4cc3 8040
00000010: 7551 4f32 0000 0000 7fcc 1c40 0000 0000
00000020: 4654 5640 3a9b 4741 0000 0000 b4f6 5541
00000030: aba5 1c31 32eb 973d 0000 0000 3d2e d340
00000040: ec31 7230 0d2f 5b3f 152b 1840 0000 0000
00000050: 0000 0000 1274 1041 0000 0000 1d8b 343f
00000060: 9906 ae3e 0000 0000 981f 983e 0000 0000
00000070: 1b43 8d40 5e33 5040 e99b f13d 7cd6 3641
00000080: 067f 403f 3e6b 7b3f 0000 0000 6f2e 1141
00000090: 6755 c83f 017c 5040 42c4 2b3f 7933 6141
000000a0: 662c 3441 1a5f d341 0000 0000 204f 1840
000000b0: 0000 0000 effe 5441 88d6 973e 6d9f 1d40
000000c0: 0000 0000 55cc 6342 1c0a 8a32 df72 323e
000000d0: d3dd 9b40 0000 0000 6ff9 e63e 7cfe 6140
000000e0: 0000 0000 8d26 8940 0000 0000 0000 0000
000000f0: 0432 a236 0a2a 4a3f e7c4 883f 8be1 9e3f
0.00032517215 0.762426 0.0 4.02384 1.2067507e-08 0.0 2.4499815 0.0
3.3488936 12.475397 0.0 13.37273 2.279516e-09 0.07417907 0.0 6.5993943
8.811003e-10 0.8561867 2.3776295 0.0 0.0 9.0283375 0.0 0.7052477
0.3398941 0.0 0.29711604 0.0 4.4144416 3.2531352 0.117973156 11.427364
0.7519382 0.98210514 0.0 9.073836 1.5651063 3.2575686 0.6709634 14.075067
11.260839 26.421436 0.0 2.3798294 0.0 13.31224 0.29655862 2.4628556
0.0 56.949543 1.6069912e-08 0.17426632 4.870828 0.0 0.45112178 3.5311575
0.0 4.285956 0.0 0.0 4.833799e-06 0.78970397 1.068509 1.241258

exp_avg f4 [64, 64]
00000000: 12df 5a10 0400 0080 0000 0000 53ed 993e
00000010: 0400 0080 0000 0000 cc3f a23e 0000 0000
00000020: 2f13 c73e 824d d2bd 0000 0000 432f ac3e
00000030: 0400 0000 0400 0080 0000 0000 0c4f 853e
00000040: 0400 0000 562f ee3f 46e9 0e3f 0000 0000
00000050: 0000 0000 1241 d13d 0000 0000 d73a 5c3f
00000060: 6cc0 ef3f 0000 0000 e65c 6d3c 0000 0000
00000070: d0f9 963e 9f83 823f 00d7 1c3f a92b 053f
00000080: 3e7f 953f 2561 cf3c 0000 0000 7622 403f
00000090: 8c05 8e3b 1add 743e d9fd 093f b1e5 d73e
000000a0: a633 803f 00a1 b13b 0000 0000 004b 333d
000000b0: 0000 0000 a433 b63b 2cfa 263f 0b94 8b3f
000000c0: 0000 0000 22b7 a13d 0400 0000 b091 713e
000000d0: 4cb7 d11e 0000 0000 fa73 ea3e 7f94 883e
000000e0: 0000 0000 0146 153f 0000 0000 0000 0000
000000f0: 0400 0080 0400 0080 7a3d 4f3f 3411 2c3f
00000100: c74f 2610 0400 0080 0000 0000 946b 7d3e
00000110: 0400 0080 0000 0000 3eaf a13e 0000 0000
00000120: 9702 993e 5e93 4abb 0000 0000 5c8a 8c3e
00000130: 0000 0000 0400 0080 0000 0000 45b5 6c3e
00000140: 0000 0000 f632 c83f a8fa fd3e 0000 0000
00000150: 0000 0000 e78d 983d 0000 0000 7ad8 323f
00000160: 7998 c43f 0000 0000 40c9 483c 0000 0000
00000170: 7763 9a3e 7cda 553f b152 063f f270 d73e
00000180: ad8e 803f eade 6f3c 0000 0000 99d9 1b3f
00000190: a630 90ba 880a 663e 4af3 ce3e 26af ad3e
000001a0: c42e 4f3f 0065 4bb9 0000 0000 d177 413d
000001b0: 0000 0000 7861 b8bc 40cf f43e b4ec 663f
000001c0: 0000 0000 ac90 833d 0400 0000 f81b 3f3e
000001d0: f331 1a1e 0000 0000 1d2e c13e cf59 813e
000001e0: 0000 0000 1a51 053f 0000 0000 0000 0000
000001f0: 0400 0080 0400 0080 9d48 273f 6075 123f
00000200: 0400 0000 0000 0000 0000 0000 0400 0000
00000210: 0400 0000 0000 0000 0400 0000 0000 0000
00000220: 0400 0000 0400 0000 0000 0000 0400 0000
00000230: 0000 0000 0400 0000 0000 0000 0400 0000
00000240: 0000 0000 0400 0000 0400 0000 0000 0000
00000250: 0000 0000 0400 0000 0000 0000 0400 0000
00000260: 0400 0000 0000 0000 0400 0000 0000 0000
00000270: 0400 0000 0400 0000 0400 0000 0400 0000
00000280: 0400 0000 0400 0000 0000 0000 0400 0000
00000290: 0000 0000 0400 0000 0400 0000 0000 0000
000002a0: 0400 0000 0400 0000 0000 0000 0400 0000
000002b0: 0000 0000 0400 0000 0400 0000 0400 0000
000002c0: 0000 0000 0400 0000 0400 0000 0400 0000
000002d0: 0400 0000 0000 0000 0400 0000 0400 0000
000002e0: 0000 0000 0400 0000 0000 0000 0000 0000
000002f0: 0000 0000 0000 0000 0400 0000 0400 0000
00000300: 0000 0000 0000 0000 0000 0000 0400 0000
00000310: 0000 0000 0000 0000 0400 0000 0000 0000
00000320: 0400 0000 0000 0000 0000 0000 0400 0000
00000330: 0000 0000 0000 0000 0000 0000 0400 0000
00000340: 0000 0000 0400 0000 0400 0000 0000 0000
00000350: 0000 0000 0400 0000 0000 0000 0400 0000
00000360: 0400 0000 0000 0000 0400 0000 0000 0000
00000370: 0400 0000 0400 0000 0400 0000 0400 0000
00000380: 0400 0000 0000 0000 0000 0000 0400 0000
00000390: 0000 0000 0400 0000 0400 0000 0400 0000
000003a0: 0400 0000 0400 0000 0000 0000 0400 0000
000003b0: 0000 0000 0400 0000 0400 0000 0400 0000
000003c0: 0000 0000 0400 0080 0000 0000 0400 0000
000003d0: 0400 0000 0000 0000 0400 0000 0400 0000
000003e0: 0000 0000 0400 0000 0000 0000 0000 0000
000003f0: 0000 0000 0000 0000 0400 0000 0400 0000
4.3164766e-29 -6e-45 0.0 0.30063877 -6e-45 0.0 0.31689298 0.0
0.38881823 -0.1026869 0.0 0.33629808 6e-45 -6e-45 0.0 0.2603687
6e-45 1.8608196 0.55824697 0.0 0.0 0.10217489 0.0 0.8602728
1.8730597 0.0 0.014487481 0.0 0.29487467 1.0196418 0.61265564 0.52019745
1.1679456 0.025314877 0.0 0.75052583 0.0043341573 0.23912469 0.53902966 0.42167428
1.0015762 0.005420804 0.0 0.043772697 0.0 0.0055603553 0.6522548 1.0904554
0.0 0.07896258 6e-45 0.23590732 2.2204546e-20 0.0 0.45791608 0.26675794
0.0 0.5830994 0.0 0.0 -6e-45 -6e-45 0.8095318 0.6721375
3.2799186e-29 -6e-45 0.0 0.24748069 -6e-45 0.0 0.31579012 0.0
0.29884788 -0.0030910592 0.0 0.2744931 0.0 -6e-45 0.0 0.23116024
0.0 1.5640552 0.49605298 0.0 0.0 0.07448941 0.0 0.6986157
1.5359031 0.0 0.012255013 0.0 0.3015401 0.83536506 0.5246993 0.42078358
1.0043541 0.014640549 0.0 0.608789 -0.0011000826 0.22464955 0.4041999 0.3392269
0.80930734 -0.00019397214 0.0 0.047233406 0.0 -0.022507414 0.4781437 0.9020493
0.0 0.06424078 6e-45 0.18663013 8.163021e-21 0.0 0.37730494 0.2526383
0.0 0.52076876 0.0 0.0 -6e-45 -6e-45 0.65345174 0.5721035
6e-45 0.0 0.0 6e-45 6e-45 0.0 6e-45 0.0
6e-45 6e-45 0.0 6e-45 0.0 6e-45 0.0 6e-45
0.0 6e-45 6e-45 0.0 0.0 6e-45 0.0 6e-45
6e-45 0.0 6e-45 0.0 6e-45 6e-45 6e-45 6e-45
6e-45 6e-45 0.0 6e-45 0.0 6e-45 6e-45 0.0
6e-45 6e-45 0.0 6e-45 0.0 6e-45 6e-45 6e-45
0.0 6e-45 6e-45 6e-45 6e-45 0.0 6e-45 6e-45
0.0 6e-45 0.0 0.0 0.0 0.0 6e-45 6e-45
0.0 0.0 0.0 6e-45 0.0 0.0 6e-45 0.0
6e-45 0.0 0.0 6e-45 0.0 0.0 0.0 6e-45
0.0 6e-45 6e-45 0.0 0.0 6e-45 0.0 6e-45
6e-45 0.0 6e-45 0.0 6e-45 6e-45 6e-45 6e-45
6e-45 0.0 0.0 6e-45 0.0 6e-45 6e-45 6e-45
6e-45 6e-45 0.0 6e-45 0.0 6e-45 6e-45 6e-45
0.0 -6e-45 0.0 6e-45 6e-45 0.0 6e-45 6e-45
0.0 6e-45 0.0 0.0 0.0 0.0 6e-45 6e-45

exp_avg_sq f4 [64, 64]
00000000: 52fa 4439 6a91 8736 0000 0000 6b9f 3340
00000010: f709 212f 0000 0000 8423 4840 0000 0000
00000020: f1b7 2240 cb12 c83d 0000 0000 b2f2 2140
00000030: 81ff 7a30 4101 5a35 0000 0000 d96f 063f
00000040: 3a30 1a2d 641f 5142 6e5d d140 0000 0000
00000050: 0000 0000 9c64 2d3e 0000 0000 252f 3b41
00000060: e913 4242 0000 0000 e061 d53e 0000 0000
00000070: a4bc ee3f cedc 9d41 7c0e 2d41 34f0 9f40
00000080: 42c6 c041 654c 1d3b 0000 0000 7ed8 1941
00000090: addd de3b ce3d d53f 32bc d340 a184 5e40
000000a0: af6a 7541 407e 0b3f 0000 0000 698d 1f3e
000000b0: 0000 0000 8bd5 613e e409 1c41 8793 9d41
000000c0: 0000 0000 3885 e93e 2927 cd35 80db 6340
000000d0: f3fa 853d 0000 0000 e940 1240 19f8 5e3f
000000e0: 0000 0000 b7cf c640 0000 0000 0000 0000
000000f0: 1aaa e035 90c8 2a36 5a4a 4441 3f1c 2f41
00000100: 396c b438 30e7 8235 0000 0000 399c d23f
00000110: f1ab 482e 0000 0000 71b6 d63f 0000 0000
00000120: a93c ba3f 03bf 073d 0000 0000 3d25 bd3f
00000130: 0000 0000 b7d2 a533 0000 0000 a6ec 833e
00000140: 0000 0000 0b36 ec41 864a 6440 0000 0000
00000150: 0000 0000 108a c63d 0000 0000 22ef d140
00000160: 3147 d941 0000 0000 b454 5b3e 0000 0000
00000170: 2a2b 7d3f d001 3741 8199 be40 13c1 3c40
00000180: 64e5 5441 af48 e63a 0000 0000 ed4c b340
00000190: a0d5 4d3b 92f8 573f 85c7 7040 550e 0340
000001a0: 4ef1 0e41 c97a a23e 0000 0000 2a32 7e3d
000001b0: 0000 0000 37d4 fd3d d237 a540 b747 3541
000001c0: 0000 0000 35f1 893e 2f79 eb34 f459 fc3f
000001d0: 731b 063d 0000 0000 47a8 973f e422 de3e
000001e0: 0000 0000 3a1e 6340 0000 0000 0000 0000
000001f0: ade5 c131 c8d6 c634 1fee de40 d843 cb40
00000200: 6812 7133 0000 0000 0000 0000 6525 7233
00000210: 0e32 5f28 0000 0000 6a95 9c35 0000 0000
00000220: ad36 5f28 b136 5f28 0000 0000 aa36 5f28
00000230: 0000 0000 9f35 5f28 0000 0000 b33a 5f34
00000240: 0000 0000 ee83 5a36 ea4e a335 0000 0000
00000250: 0000 0000 b136 5f28 0000 0000 90f8 cb35
00000260: 8205 9e36 0000 0000 d1aa f035 0000 0000
00000270: ef26 7435 1d98 6134 d502 d735 8134 5f28
00000280: 0160 5f36 3f36 5f28 0000 0000 b802 6633
00000290: 0000 0000 94c8 9c35 f3b5 1733 0000 0000
000002a0: 5592 9a33 ccf4 d232 0000 0000 f7e3 eb32
000002b0: 0000 0000 7145 0632 bce9 d236 36c7 1635
000002c0: 0000 0000 aa36 5f28 7a35 5f28 bc71 ac35
000002d0: 0b49 d833 0000 0000 7921 c435 8f1a 3635
000002e0: 0000 0000 ed82 1035 0000 0000 0000 0000
000002f0: 0000 0000 0000 0000 4f6c 2735 1d04 f734
00000300: 0000 0000 0000 0000 0000 0000 b8ff 3435
00000310: 0000 0000 0000 0000 9573 e234 0000 0000
00000320: fa65 7134 0000 0000 0000 0000 8124 4334
00000330: 0000 0000 0000 0000 0000 0000 d044 8f31
00000340: 0000 0000 0309 ae36 1cb7 8b35 0000 0000
00000350: 0000 0000 fd81 d330 0000 0000 01e3 1436
00000360: acea d736 0000 0000 8724 1535 0000 0000
00000370: 88e1 e833 1000 2136 d7fe 4836 42af 7e34
00000380: a491 5236 0000 0000 0000 0000 5f56 8035
00000390: 0000 0000 4eb2 d734 dad4 9235 da67 e333
000003a0: e2a1 a935 e680 9834 0000 0000 9418 602c
000003b0: 0000 0000 8211 8933 57d6 cf36 a58a 2436
000003c0: 0000 0000 a936 3d2e 0000 0000 59b7 4936
000003d0: 1c73 8a33 0000 0000 26c2 2335 938d 7732
000003e0: 0000 0000 2046 d434 0000 0000 0000 0000
000003f0: 0000 0000 0000 0000 9b31 1336 f1fe fa35
0.00018785268 4.040242e-06 0.0 2.806605 1.4646405e-10 0.0 3.1271677 0.0
2.542477 0.097692095 0.0 2.530438 9.1312563e-10 8.1213153e-07 0.0 0.52514416
8.764595e-12 52.280655 6.542655 0.0 0.0 0.1693291 0.0 11.69901
48.519444 0.0 0.41676235 0.0 1.8651319 19.732815 10.816036 4.9980717
24.096806 0.0024001834 0.0 9.615355 0.006801328 1.6659486 6.616723 3.476845
15.338546 0.5448952 0.0 0.15581287 0.0 0.22054116 9.752415 19.697035
0.0 0.4560945 1.5285087e-06 3.5602722 0.065420054 0.0 2.2852118 0.87097317
0.0 6.212856 0.0 0.0 1.6738807e-06 2.5448717e-06 12.268152 10.944396
8.603227e-05 9.753039e-07 0.0 1.6453925 4.562745e-11 0.0 1.6774427 0.0
1.4549762 0.033141147 0.0 1.4776989 0.0 7.72174e-08 0.0 0.25766486
0.0 29.526388 3.5670485 0.0 0.0 0.09694302 0.0 6.560441
27.159761 0.0 0.2141903 0.0 0.9889399 11.4379425 5.9562383 2.9492843
13.306004 0.0017569269 0.0 5.6031404 0.0031407848 0.84363663 3.7621777 2.0477498
8.933912 0.31734303 0.0 0.06205956 0.0 0.123939924 5.163064 11.3300085
0.0 0.2694184 4.3860334e-07 1.9714952 0.03274102 0.0 1.1848229 0.43385994
0.0 3.54872 0.0 0.0 5.6431504e-09 3.7036648e-07 6.9665675 6.3520317
5.6128926e-08 0.0 0.0 5.6379026e-08 1.2389841e-14 0.0 1.1666391e-06 0.0
1.2390843e-14 1.2390846e-14 0.0 1.239084e-14 0.0 1.2390614e-14 0.0 2.0789848e-07
0.0 3.2561325e-06 1.2167413e-06 0.0 0.0 1.2390846e-14 0.0 1.519702e-06
4.709408e-06 0.0 1.7931108e-06 0.0 9.095374e-07 2.1010096e-07 1.6019573e-06 1.2390372e-14
3.328547e-06 1.23907495e-14 0.0 5.355352e-08 0.0 1.1681282e-06 3.532291e-08 0.0
7.1978015e-08 2.4558538e-08 0.0 2.7461267e-08 0.0 7.815616e-09 6.285698e-06 5.6169245e-07
0.0 1.239084e-14 1.2390583e-14 1.28481e-06 1.007157e-07 0.0 1.461288e-06 6.783893e-07
0.0 5.38347e-07 0.0 0.0 0.0 0.0 6.236996e-07 4.6010328e-07
0.0 0.0 0.0 6.7427345e-07 0.0 0.0 4.2179877e-07 0.0
2.2481973e-07 0.0 0.0 1.817407e-07 0.0 0.0 0.0 4.169671e-09
0.0 5.186653e-06 1.0409599e-06 0.0 0.0 1.5389215e-09 0.0 2.2185852e-06
6.4348187e-06 0.0 5.555998e-07 0.0 1.0844366e-07 2.3990906e-06 2.9950659e-06 2.3719352e-07
3.1377213e-06 0.0 0.0 9.56188e-07 0.0 4.0176604e-07 1.0939796e-06 1.0589402e-07
1.2638595e-06 2.8405992e-07 0.0 3.1845958e-12 0.0 6.382744e-08 6.194033e-06 2.4518606e-06
0.0 4.3022173e-11 0.0 3.0058056e-06 6.447064e-08 0.0 6.1004755e-07 1.44094825e-08
0.0 3.95391e-07 0.0 0.0 0.0 0.0 2.1933581e-06 1.8700649e-06

exp_avg f4 [64]
00000000: 8773 f83d 7470 c43d 0400 0000 0400 0000
00000010: 309e d83d 55a5 823a 65a0 65bd 0c2f c5bd
00000020: ecb1 b83c 3015 973d 0000 0000 fb0e cabd
00000030: e874 eb3d 04d4 babb 71d1 6fbd b186 d0bd
00000040: 4d48 5fbe 259a d0bc 481e 4bbd cbbe 513d
00000050: 0000 0000 9934 c93d 4e98 1dbe 8e8e e7bd
00000060: bdb4 eabd 0400 0000 04cf 32be aefc 02be
00000070: 0400 0000 7e0a d63d 98c0 06be a0a8 1dbe
00000080: 7c68 9e3d 0400 0000 ce8b 2c3e bbba 123e
00000090: 2a1d 553a ecab aebd e193 1d3e 7676 353d
000000a0: 0000 0000 ea66 b5bd e9f3 87bd 0000 0000
000000b0: 7a7c b2bd 56dd 35bd 828b c4bc 7f4a 1ebe
000000c0: 0400 0000 b0b5 d9bd b42a 11bc fee8 d1bd
000000d0: cdfe 8abd 0400 0000 efb4 e63d 0400 0000
000000e0: 4414 80bd 525a 0214 d239 1abd b41c 343e
000000f0: 0f33 d6bb a16c a9bd 8844 0c3e b6ce c019
0.1213141 0.09591761 6e-45 6e-45 0.10577047 0.0009967486 -0.056061167 -0.09628114
0.022545777 0.07377088 0.0 -0.098661385 0.114969075 -0.0057015438 -0.05854935 -0.1018194
-0.21804924 -0.025464127 -0.049589425 0.051207345 0.0 0.09824485 -0.15390131 -0.11306487
-0.11460254 6e-45 -0.17461783 -0.12791702 6e-45 0.1045122 -0.13159406 -0.15396357
0.077347726 6e-45 0.16850206 0.14329045 0.0008129651 -0.08528885 0.15388443 0.044302426
0.0 -0.0885752 -0.06638319 0.0 -0.08715148 -0.044400536 -0.023992304 -0.15458106
6e-45 -0.10630357 -0.008860279 -0.10249518 -0.06786881 6e-45 0.11264979 6e-45
-0.06253865 6.581135e-27 -0.037652798 0.17589074 -0.0065368484 -0.082726724 0.13698018 1.9935825e-23

exp_avg_sq f4 [64]
00000000: f0a6 7d3d 6b95 103d 76cc 6f32 500e 6e30
00000010: a4ce 1e3d 15bb 813a 0bb5 153f 1991 983d
00000020: 9c7e 823b 6ef9 df3c 0000 0000 5b2a 673e
00000030: a4d1 503d 93a6 f63e 8c89 e93c a01a b03d
00000040: ef44 c23e 10b2 d03b 63e1 aa3c d2b1 e93c
00000050: 0000 0000 e265 393d 9a7e 813f f6de e93d
00000060: 3a19 d63d ea16 5f34 5bf0 4c3f b35f 433e
00000070: 2bf0 2333 3471 483d 711d 523f fb57 233f
00000080: 43fc d23c 11b4 0d3a 82b2 e03d 0ac4 803d
00000090: b561 b338 7582 733d b23d e73d a871 9d3c
000000a0: 0000 0000 1673 af3d 947c dc3d 0000 0000
000000b0: 515e a83f d35b b63e 9588 fa3b ebe0 1d3f
000000c0: 9dc9 0032 0c14 ba3d 9ab4 a439 da90 9e3d
000000d0: 672b 7d3d b429 3f31 c293 c73c acd2 8330
000000e0: 533c 0b3d 9fc5 1d2e 3058 a73c 0fc0 c23d
000000f0: 11f2 8238 17ab c63d e1dd 7c3d bcc1 fe39
0.061926782 0.035298746 1.395812e-08 8.6604235e-10 0.038771287 0.0009897674 0.58479375 0.0744955
0.003982378 0.027340617 0.0 0.22574751 0.05098118 0.4817396 0.02850797 0.08598828
0.37943217 0.006368883 0.020859426 0.028527174 0.0 0.04526318 1.0116761 0.114194795
0.1045403 2.077683e-07 0.80054253 0.19079475 3.8169826e-08 0.048936084 0.82076174 0.6380612
0.025755053 0.0005405555 0.10971548 0.062873915 8.5535845e-05 0.059450585 0.11291064 0.019219235
0.0 0.08566873 0.10765949 0.0 1.3153783 0.3561693 0.0076456764 0.6167132
7.496422e-09 0.09085855 0.00031415076 0.07742472 0.06180897 2.7817864e-09 0.024362449 9.591381e-10
0.033993077 3.587319e-11 0.020427793 0.095092885 6.2439714e-05 0.097006015 0.061735038 0.00048591

exp_avg f4 [1, 64]
00000000: f634 22bf 43b4 f1bd 0400 0080 0400 0000
00000010: 7439 c13d 75d2 4cbc c0a6 1abf 2df9 24c0
00000020: 0c90 34be 1e88 47be 0000 0000 5634 1dbf
00000030: 4a8a 2bbf 8c85 f83e e94b 7bc0 0b21 88c0
00000040: 03c9 0fc0 a83e babf b24a 35c0 c412 d5bf
00000050: 0000 0000 30ca b83e 345a 37bf 4b98 b9bf
00000060: 0b83 01c0 0400 0080 853b 4fbf 5240 4bbf
00000070: 0400 0080 e690 51bf 4d36 f7be 74f3 34bf
00000080: 36ab 35bf 0400 0080 37dd a33d a738 62be
00000090: 04d2 863b b7d5 08c0 035b 293f 2bee 04c0
000000a0: 0000 0000 8981 bebf c2a4 17bf 0000 0000
000000b0: 9b53 2fbf ec67 e5be 36fb 05bf 7a21 87bf
000000c0: 0400 0080 c09b 11c0 f6be 77bd 16a6 97bf
000000d0: 6346 fbbe 0400 0000 94f2 173e 0400 0000
000000e0: 8ddd c43e 79bd 4995 1014 003e 25a4 c83e
000000f0: 882a 79bd aaca 1dbf 751b 27bf d0e2 0d9a
-0.6336206 -0.1180196 -6e-45 6e-45 0.094347864 -0.012501349 -0.6041069 -2.5777085
-0.17633075 -0.19485518 0.0 -0.61407983 -0.6700789 0.48539388 -3.9265082 -4.2540336
-2.2466438 -1.4550371 -2.832684 -1.6646352 0.0 0.36091757 -0.71622014 -1.4499601
-2.0236232 -6e-45 -0.80950195 -0.7939502 -6e-45 -0.8186172 -0.48283616 -0.7068398
-0.7096437 -6e-45 0.08001178 -0.22091924 0.0041143913 -2.138044 0.661545 -2.0770366
0.0 -1.4883281 -0.59235775 0.0 -0.68486947 -0.4480585 -0.5233644 -1.0557091
-6e-45 -2.2751312 -0.06048485 -1.184756 -0.49077138 6e-45 0.1483863 6e-45
0.3845028 -4.0741094e-26 0.12507653 0.39187732 -0.060831577 -0.61637366 -0.6527627 -2.9341334e-23

exp_avg_sq f4 [1, 64]
00000000: e8f7 4242 d02c c241 bd9e df2f 0827 ea34
00000010: df3d 8b41 c34f e540 7229 4e41 d55b f842
00000020: a6a2 023e eed3 f741 0000 0000 e80a 8141
00000030: 2989 2e42 2c69 7040 8bcb c443 09d9 ed43
00000040: 2050 0343 2bc2 b142 ddcb 8743 6505 7f42
00000050: 0000 0000 3ce7 7841 b003 a641 5888 ba42
00000060: c27a ba42 242c 2436 bb99 b341 3499 8041
00000070: be31 8a2a 2d60 b041 abdc a141 340d a741
00000080: 638b 7242 c142 e740 0730 9341 e3b2 1041
00000090: 89eb 1840 1a73 1443 27a3 4241 a250 bb42
000000a0: 0000 0000 8cb8 a542 9229 4141 0000 0000
000000b0: 08d8 c141 8cb8 1741 6804 a141 f397 2442
000000c0: 5d34 7328 37ea 1943 9dcb 713f dcbd 4b41
000000d0: 3710 3741 71b4 ce32 8cdc f840 07a0 d633
000000e0: 084c 473f 9ebe 1232 aa1f ed40 9ac5 b241
000000f0: 5b61 4c3b 0a16 3f41 a65e 5442 844d 9440
48.742096 24.271881 4.0676254e-10 4.3614295e-07 17.40521 7.1659865 12.8851185 124.17936
0.12757358 30.978481 0.0 16.130325 43.633945 3.7564192 393.59018 475.6956
131.31299 88.879234 271.59268 63.75527 0.0 15.556454 20.7518 93.2663
93.23976 2.4463598e-06 22.450064 16.074806 2.454824e-13 22.04696 20.232748 20.881447
60.63612 7.2268987 18.39845 9.0436735 2.389376 148.44962 12.164832 93.657486
0.0 82.86044 12.072649 0.0 24.230484 9.482555 20.127151 41.148388
1.3500564e-14 153.9149 0.94451314 12.733852 11.441459 2.4063612e-08 7.776922 9.99426e-08
0.7785039 8.54166e-09 7.4101152 22.346485 0.0031185958 11.942881 53.09243 4.6344624
