trained_models/tetris_auto_2000.pt (torch, 61767 bytes, 15 tensors)

conv1.0.weight f4 [64, 4]
-0.49151495 -0.11581245 0.15151748 -0.07277776 0.077432655 -0.19518858 -0.21123555 0.20318922
0.093493655 0.16562477 0.050562378 0.23267677 -0.45441088 -0.14655848 0.16149385 -0.050327007
0.27864093 -0.066681504 -0.10655014 -0.24159157 0.33446842 -0.19818054 -0.014418808 0.17039846
-0.26259696 -0.17442927 -0.22973612 -0.22309658 -0.0320673 0.1717259 0.085165516 -0.26174623
0.07195464 0.06622377 -0.15746425 0.0771511 -0.1677674 0.16320023 -0.17498618 0.017310418
0.23341352 -0.052601397 0.05879715 -0.15819368 0.21219426 0.27966323 0.1367181 -0.27370888
0.17365669 0.29411283 0.17302395 0.06668049 0.0038431287 0.26068765 -0.2802086 -0.20841889
-0.5492768 -0.082114615 0.13393548 -0.086134285 -0.29222265 -0.07728894 0.09940562 -0.2539256
0.5432851 0.1790612 -0.02649313 0.24956547 0.15658416 0.16504773 0.26141044 0.09842689
-0.22872345 0.07619593 -0.20727527 -0.02120872 -0.1466566 -0.047585912 -0.042895496 0.01907814
0.13372761 -0.29176354 -0.07464662 -0.22186828 -0.44047478 0.055387683 0.08991266 0.20904218
0.08448034 0.048435394 0.014161303 -0.012896989 0.27848852 0.29222947 -0.18710287 0.066630445
0.18323003 0.18156806 0.18429781 0.17027141 0.15431537 0.23996376 -0.2942089 0.09722909
-0.09075863 -0.13027926 0.053639323 0.0013565558 -0.23995462 -0.024591655 0.026306957 -0.29579854
0.073991925 -0.2456956 -0.15919381 -0.20450576 0.035271466 -0.1915623 -0.11186394 -0.047501758
0.265039 0.0018756948 -0.0496111 0.21660635 0.17173949 -0.01856935 -0.28540447 -0.2685061
0.05815521 0.26765203 -0.21253547 -0.2235479 0.16864972 0.10840695 -0.27239743 0.07969341
-0.17930508 0.06419261 0.11633539 -0.21656674 -0.018887103 -0.15429638 -0.21921751 -0.18749349
0.086619206 -0.07208978 -0.23450536 0.08985138 -0.27318162 -0.20480952 0.1223208 -0.14839658
-0.048565455 0.19174352 0.26970473 -0.09790166 -0.48290443 0.06776058 0.21289262 -0.024169005
-0.16390623 -0.08556174 -0.16545856 -0.21299443 -0.012203813 -0.022918612 -0.062361643 -0.25888157
-0.20664823 -0.19588862 -0.08119646 -0.13746746 -0.011484545 -0.34039956 0.14717999 0.1853914
-0.28288677 0.28457847 0.17050177 0.24139017 -0.6993741 0.20394145 0.37773395 -0.109016836
0.10339454 -0.19771025 0.051786184 -0.12035172 -0.25587547 -0.12407793 -0.071031675 -0.25822243
0.47589442 -0.5103732 -0.04983879 0.06772715 0.20605703 -0.09484095 -0.014575139 0.050632484
-0.014894336 -0.1855584 0.15846983 -0.1842317 -0.1237192 0.018684823 0.26573718 0.03333411
0.036879133 -0.106218256 0.013789666 0.03178567 -0.21358058 -0.39297476 0.105490245 0.14676459
0.047765702 -0.08585864 0.09528237 -0.29585525 -0.03442791 0.18970765 -0.0826672 0.18947244
-0.1690275 0.17600834 0.06689398 0.17397578 0.19900687 -0.24512996 0.07222982 0.07148726
-0.17590545 -0.29112872 -0.16554783 -0.082495734 -0.09436488 0.15425256 0.10831318 -0.31963256
0.11000688 -0.042378966 -0.116974354 0.18265863 -0.37875512 0.014784988 -0.06469868 0.22202635
0.2841696 0.21031022 -0.042794466 -0.2748514 0.22888243 0.23760395 0.13206798 0.08651601
00000000: d9a7 fbbe 142f edbd 6627 1b3e 820c 95bd
00000010: 0395 9e3d 84df 47be 224e 58be d610 503e
00000020: 9a79 bf3d 8a99 293e 7f1a 4f3d d242 6e3e
00000030: 8ba8 e8be 6d13 16be a55e 253e b123 4ebd
00000040: 06aa 8e3e 5090 88bd f636 dabd c863 77be
00000050: 723f ab3e d7ef 4abe dd3c 6cbc ef7c 2e3e
00000060: 1c73 86be 969d 32be f23f 6bbe 6e73 64be
00000070: 0059 03bd ead8 2f3e 426b ae3d 9a03 86be
00000080: f45c 933d 54a0 873d 4f3e 21be 6501 9e3d
00000090: 38cb 2bbe f61d 273e 942f 33be 94ce 8d3c
000000a0: f403 6f3e 9074 57bd 48d5 703d 86fd 21be
000000b0: 7449 593e 0530 8f3e d4ff 0b3e 9223 8cbe
000000c0: 0fd3 313e f595 963e 312d 313e c88f 883d
000000d0: 00dd 7b3b da78 853e 8077 8fbe c36b 55be
000000e0: 689d 0cbf b52b a8bd 6226 093e 2c67 b0bd
000000f0: 359e 95be aa49 9ebd 2c95 cb3d 8902 82be
00000100: bb14 0b3f d25b 373e 1f08 d9bc 178e 7f3e
00000110: 9957 203e 4602 293e 97d7 853e 0a94 c93d
00000120: 7b36 6abe 9d0c 9c3d f83f 54be e9bd adbc
00000130: 262d 16be 72e9 42bd 30b3 2fbd c249 9c3c
00000140: e4ef 083e 0862 95be 54e0 98bd 7031 63be
00000150: e985 e1be 32de 623d 2124 b83d 270f 563e
00000160: 0704 ad3d 3164 463d cf04 683c e44d 53bc
00000170: 0c96 8e3e 1a9f 953e e597 3fbe 8b75 883d
00000180: a7a0 3b3e faec 393e 91b8 3c3e a15b 2e3e
00000190: d904 1e3e 0fb9 753e 8da2 96be 0c20 c73d
000001a0: a9df b9bd ed67 05be e8b4 5b3d 76ce b13a
000001b0: aab6 75be 7074 c9bc b081 d73c e872 97be
000001c0: 1489 973d a197 7bbe b403 23be f569 51be
000001d0: d078 103d e828 44be ec18 e5bd 3491 42bd
000001e0: 31b3 873e e0d9 f53a 0235 4bbd 0ece 5d3e
000001f0: 7adc 2f3e c01e 98bc 8920 92be a279 89be
00000200: 2834 6e3d b009 893e e6a2 59be bee9 64be
00000210: 83b2 2c3e 7704 de3d ad77 8bbe 4c36 a33d
00000220: c09b 37be 6a77 833d 4041 ee3d acc3 5dbe
00000230: 20b9 9abc dfff 1dbe 8e7a 60be 4bfe 3fbe
00000240: 6965 b13d cea3 93bd 2c22 70be 0004 b83d
00000250: 76de 8bbe 96b9 51be 5483 fa3d 46f5 17be
00000260: 92ec 46bd 6a58 443e bd16 8a3e aa80 c8bd
00000270: 403f f7be 0fc6 8a3d 8600 5a3e 14fe c5bc
00000280: 09d7 27be fe3a afbd f86d 29be 361b 5abe
00000290: 80f2 47bc d0bf bbbc ec6e 7fbd 208c 84be
000002a0: 989b 53be 0797 48be 544a a6bd 45c4 0cbe
000002b0: ac29 3cbc da48 aebe 5ab6 163e 3ed7 3d3e
000002c0: 89d6 90be 45b4 913e 0498 2e3e fc2e 773e
000002d0: 2e0a 33bf 07d6 503e 5866 c13e 3844 dfbd
000002e0: 84c0 d33d 8e74 4abe c01d 543d f67a f6bd
000002f0: 1c02 83be 921c febd 0e79 91bd bb35 84be
00000300: 6fa8 f33e d1a7 02bf c223 4cbd 88b4 8a3d
00000310: 9d00 533e f93b c2bd 90cc 6ebc 0264 4f3d
00000320: 6007 74bc 0503 3ebe ea45 223e 3ca7 3cbe
00000330: 7e60 fdbd ea10 993c b40e 883e 5989 083d
00000340: 930e 173d f588 d9bd 0dee 613c b131 023d
00000350: deb4 5abe fd33 c9be 450b d83d 7549 163e
00000360: f8a5 433d a8d6 afbd 6723 c33d 577a 97be
00000370: 4804 0dbd b942 423e 6c4d a9bd 1005 423e
00000380: 8c15 2dbe 883b 343e b6ff 883d b526 323e
00000390: 75c8 4b3e 5903 7bbe 3aed 933d ea67 923d
000003a0: 8f20 34be d30e 95be 5f85 29be 86f3 a8bd
000003b0: 6042 c1bd 62f4 1d3e 4dd3 dd3d e1a6 a3be
000003c0: 494b e13d 9195 2dbd 4090 efbd dd0a 3b3e
000003d0: 31ec c1be bc3c 723c be80 84bd e05a 633e
000003e0: ae7e 913e 905b 573e 4049 2fbd 53b9 8cbe
000003f0: 2860 6a3e 734e 733e d43c 073e 4e2f b13d

conv1.0.bias f4 [64]
0.3754564 0.6642727 -0.36337587 -0.15932156 0.0 0.47116792 0.0 0.24970675
0.8802049 0.87928504 0.0 0.26440766 -0.67917174 0.0 0.37525877 0.0
-0.8217855 -1.1150968 0.10376621 1.0562468 0.0 0.9328166 1.1493253 -1.1351688
-0.91937363 -1.0703887 0.80904186 0.0 0.0 0.0 0.4181093 0.0
0.0 -0.66745824 0.2906174 0.0 0.8674454 0.35022345 0.6175121 0.98202384
0.0 0.0 0.0 -0.08057678 -0.5686176 0.29727957 0.0 0.0
0.635361 0.6276312 0.38169152 0.4014992 0.5711798 0.55461466 0.18306787 -0.79706186
0.78433025 -0.11709252 0.0 0.17730494 -0.88085175 0.63530403 0.0 -0.7687781
00000000: d23b c03e c70d 2a3f 670c babe 3125 23be
00000010: 0000 0000 ec3c f13e 0000 0000 20b3 7f3e
00000020: 1c55 613f d318 613f 0000 0000 7160 873e
00000030: 33de 2dbf 0000 0000 eb21 c03e 0000 0000
00000040: 8960 52bf 7ebb 8ebf 6183 d43d 1833 873f
00000050: 0000 0000 12cd 6e3f 171d 933f 364d 91bf
00000060: 125c 6bbf 7f02 89bf 5e1d 4f3f 0000 0000
00000070: 0000 0000 0000 0000 6c12 d63e 0000 0000
00000080: 0000 0000 8bde 2abf cecb 943e 0000 0000
00000090: e710 5e3f 7d50 b33e 4615 1e3f ea65 7b3f
000000a0: 0000 0000 0000 0000 0000 0000 7005 a5bd
000000b0: ec90 11bf 0735 983e 0000 0000 0000 0000
000000c0: 05a7 223f 70ac 203f 126d c33e 4e91 cd3e
000000d0: d738 123f 3afb 0d3f 2576 3b3e 3f0c 4cbf
000000e0: dec9 483f 34ce efbd 0000 0000 6d8f 353e
000000f0: 807f 61bf 49a3 223f 0000 0000 a4ce 44bf

conv2.0.weight f4 [64, 64]
0.32679275 0.3052182 -0.5482464 0.06355271 -0.20938389 0.19901718 0.20054893 0.35948613
0.35637206 0.0122035965 0.14846219 0.11256086 0.052869517 0.20482315 0.28085178 0.21254502
-0.3346923 -0.23414487 0.37202784 0.083978035 -0.009924844 -0.017086294 0.40238512 -0.21802692
-0.57218814 -0.04128623 0.26388818 -0.08753678 0.206309 -0.11662869 0.19263965 0.059735224
-0.1777943 0.06101965 0.15360732 -0.17462198 0.39205524 0.17228054 0.36093196 0.22051674
0.021069363 -0.15722078 -0.056882396 -0.5516535 -0.40021476 -0.059376717 0.11019726 -0.17321792
0.27150485 0.16627814 0.28975844 -0.28449315 0.1595749 0.02092293 0.37455043 -0.30156374
-0.037027624 -0.44435084 -0.15598784 0.46559665 -0.16797185 -0.00043892395 0.04296674 -0.01010716
-0.12314444 -0.13300422 -0.044901937 0.14739645 0.079023644 -0.15642533 -0.032384396 -0.05103427
-0.07885336 -0.11292339 0.082194075 0.10809384 0.02935913 -0.06529459 -0.19792669 -0.010314763
0.08847194 0.024694987 -0.12790923 -0.11035377 -0.13365635 -0.029132925 0.088691816 0.07723899
0.032209963 0.17886119 -0.15877773 0.10665177 0.20182993 -0.10528288 -0.15043253 0.023299709
-0.054921 0.08754428 -0.15660776 -0.06450653 0.038470272 0.08567046 -0.19137059 -0.13906826
-0.05673854 0.05294819 -0.038336813 0.04700035 -0.21505041 -0.18160143 -0.064810455 0.17455123
0.062330116 -0.15035413 0.14204405 0.06543036 -0.05678922 0.1118137 0.07216038 -0.011726051
0.045983847 0.20152311 0.0926045 -0.12369992 0.059838194 0.10796972 0.15645327 -0.015448994
-0.099005945 0.12727275 -0.13464032 -0.080515146 -0.21093138 0.15855068 0.03891419 -0.0909361
-0.049541492 -0.003564381 -0.20359375 -0.0689778 -0.21167076 -0.017359957 -0.20193224 0.14707498
0.15181744 0.038825717 0.0037778383 0.6425877 -0.16569355 -0.017971104 0.89581865 0.01296806
-0.051917404 -0.11459846 0.30753636 0.054832652 0.09621225 -0.0056143105 -0.10227577 -0.20263685
-0.08312234 -0.0932475 -0.17694385 0.091515616 0.16933206 -0.09177718 0.22958162 0.17010875
-0.14991382 0.050698325 -0.028935343 0.051407564 -0.1886879 -0.101173304 0.03652449 0.022898406
0.5657656 -0.067215696 -0.07163437 0.09922992 -0.042503893 -0.1202104 -0.02906794 -0.06662764
0.16408683 -0.0063065104 -0.19210573 0.26930517 0.0679835 0.091074795 -0.2037932 -0.12933013
-0.03698192 -0.11566204 -0.095841005 -0.052724693 0.11758335 -0.09623086 0.10273932 -0.04240337
-0.049315676 -0.010060931 0.034911767 -0.18791062 -0.2034331 -0.15750998 -0.1303094 0.038180217
0.124165 -0.07551848 -0.14397478 -0.049299516 0.040215 -0.10297182 0.061970115 0.09058841
0.16179873 -0.11857553 0.15626618 -0.038415164 -0.19927362 -0.01270318 0.08428633 -0.17239448
-0.13636057 -0.14553612 -0.017676616 0.1456993 -0.13800572 -0.012036431 0.10637527 0.1364907
-0.1946406 0.18858157 -0.068302825 0.106496125 -0.16781178 0.007817577 -0.038083076 0.16110493
0.17519687 -0.10805361 -0.009567792 -0.057912897 -0.040345844 -0.20950486 0.06727702 0.19476444
-0.013608685 0.08553365 0.026431814 0.09170483 -0.1017566 0.047560006 -0.16120064 -0.1751626
00000000: 6151 a73e 8f45 9c3e e059 0cbf ec27 823d
00000010: bb68 56be 29cb 4b3e b35c 4d3e 910e b83e
00000020: 6676 b63e 98f1 473c 7906 183e 4f86 e63d
00000030: b58d 583d 29bd 513e cecb 8f3e 67a5 593e
00000040: ca5c abbe acc3 6fbe 6f7a be3e adfc ab3d
00000050: d09b 22bc 8ef8 8bbc 6c05 ce3e 7342 5fbe
00000060: ec7a 12bf c01b 29bd 5a1c 873e 7c46 b3bd
00000070: ab42 533e 06db eebd 5443 453e ecac 743d
00000080: b50f 36be beef 793d 3d4b 1d3e 1bd0 32be
00000090: 77bb c83e 4f6a 303e 13cc b83e 24cf 613e
000000a0: a899 ac3c 7cfe 20be 84fd 68bd 2a39 0dbf
000000b0: f3e8 ccbe 0035 73bd 1aaf e13d 0a60 31be
000000c0: af02 8b3e d144 2a3e 385b 943e 16a9 91be
000000d0: 9a67 233e 9166 ab3c 13c5 bf3e 9066 9abe
000000e0: 47aa 17bd f481 e3be 47bb 1fbe af62 ee3e
000000f0: d000 2cbe 601f e6b9 e4fd 2f3d 8098 25bc
00000100: 2733 fcbd 4232 08be 18eb 37bd 18ef 163e
00000110: 26d7 a13d f62d 20be 80a5 04bd 5009 51bd
00000120: df7d a1bd 6144 e7bd 5e55 a83d 4e60 dd3d
00000130: 8f82 f03c 2cb9 85bd 4bad 4abe 40ff 28bc
00000140: c730 b53d 244d ca3c a3fa 02be 2801 e2bd
00000150: 36dd 08be 2ca8 eebc 0ea4 b53d 7a2f 9e3d
00000160: 98ee 033d 6327 373e a196 22be 3e6c da3d
00000170: 81ac 4e3e 8d9e d7bd fc0a 1abe 08df be3c
00000180: d8f4 60bd 6a4a b33d c95d 20be 001c 84bd
00000190: 0193 1d3d fe73 af3d a7f6 43be e967 0ebe
000001a0: ac66 68bd 34e0 583d 1007 1dbd 7083 403d
000001b0: 2d36 5cbe baf5 39be 58bb 84bd 8fbd 323e
000001c0: dd4d 7f3d 6ff6 19be ff73 113e 5a00 863d
000001d0: d09b 68bd 95fe e43d d2c8 933d 9f1e 40bc
000001e0: 8f59 3c3d 135c 4e3e 6ea7 bd3d 6256 fdbd
000001f0: e518 753d 3b1f dd3d 4935 203e c71d 7dbc
00000200: a1c3 cabd ca53 023e 27df 09be 20e5 a4bd
00000210: 65fe 57be 1c5b 223e 7c64 1f3d b53c babd
00000220: 05ec 4abd 6498 69bb e17a 50be 3c44 8dbd
00000230: 38c0 58be 7836 8ebc 53c7 4ebe d39a 163e
00000240: 0876 1b3e b707 1f3d 9c95 773b a180 243f
00000250: 92ab 29be 2338 93bc 5f54 653f fc77 543c
00000260: 58a7 54bd 99b2 eabd 6875 9d3e 3498 603d
00000270: ee0a c53d 40f8 b7bb f575 d1bd 0980 4fbe
00000280: 0c3c aabd 8cf8 bebd c530 35be 8a6c bb3d
00000290: 6265 2d3e adf5 bbbd 7217 6b3e fd30 2e3e
000002a0: 0283 19be 0ca9 4f3d d009 edbc bd90 523d
000002b0: 6737 41be f333 cfbd b49a 153d 7095 bb3c
000002c0: 04d6 103f 62a8 89bd 0ab5 92bd 0e39 cb3d
000002d0: 9018 2ebd df30 f6bd e31f eebc 1274 88bd
000002e0: 6106 283e d8a6 cebb 5db7 44be 5ee2 893e
000002f0: ef3a 8b3d 6c85 ba3d 2aaf 50be 1e6f 04be
00000300: 5b7a 17bd 38e0 ecbd 4a48 c4bd d9f5 57bd
00000310: 8acf f03d af14 c5bd fe68 d23d 28af 2dbd
00000320: 3cff 49bd 9ad6 24bc a4ff 0e3d a46b 40be
00000330: c450 50be 4c4a 21be d46f 05be dc62 1c3d
00000340: 384a fe3d 6fa9 9abd 206e 13be 4aee 49bd
00000350: 7cb8 243d e4e2 d2bd 60d4 7d3d 6b86 b93d
00000360: 91ae 253e bad7 f2bd 3e04 203e 3859 1dbd
00000370: 620e 4cbe 0021 50bc 509e ac3d 2e88 30be
00000380: 1ba2 0bbe 6c07 15be 8dce 90bc 3332 153e
00000390: 5f51 0dbe 7334 45bc 47db d93d 38c4 0b3e
000003a0: de4f 47be 871b 413e 5ae2 8bbd a41a da3d
000003b0: dad6 2bbe 4b15 003c 00fd 1bbd b1f8 243e
000003c0: cf66 333e 364b ddbd 3ac2 1cbc 1336 6dbd
000003d0: af41 25bd 7188 56be 89c8 893d 5470 473e
000003e0: f6f6 5ebc 442c af3d 8887 d83c becf bb3d
000003f0: c465 d0bd 48ce 423d c811 25be d35d 33be

conv2.0.bias f4 [64]
0.13719285 -0.006797466 0.95709485 -0.014597093 0.50739646 0.5324307 -0.19994554 0.51801246
-0.84074384 -0.59994125 1.0240887 0.82689244 0.5054854 0.96501803 -0.015169473 0.41830558
-0.006004914 0.52841103 -0.07641971 0.55912 -0.013181734 -0.039493557 -0.018112201 -0.02621717
0.21168241 0.73118806 0.5303786 -0.59743667 0.45493245 -0.49580804 0.4191348 -0.009344484
0.5465452 -0.60416347 1.0394927 0.4457939 -0.010210203 -0.029704219 -0.027375147 -0.019589202
-0.015223005 0.5019312 -0.016180491 0.47947663 -0.7049934 0.32861242 -0.7130895 0.36913833
-0.5875187 0.4032278 0.5169487 0.5552466 0.3700762 -0.59362406 0.5090896 -0.59180605
-0.058665216 -0.62603843 0.29938737 0.7104291 -0.036150426 0.0 -0.021507593 0.5788144
00000000: 487c 0c3e 47bd debb 2b04 753f a528 6fbc
00000010: bce4 013f 614d 083f 86be 4cbe 779c 043f
00000020: fd3a 57bf c095 19bf 5715 833f 39af 533f
00000030: 7e67 013f 6c0b 773f 6289 78bc 262c d63e
00000040: dfc4 c4bb f245 073f f081 9cbd 7d22 0f3f
00000050: 33f8 57bc ffc3 21bd 0a60 94bc 64c5 d6bc
00000060: 46c3 583e 242f 3b3f e4c6 073f 9cf1 18bf
00000070: e8ec e83e 8dda fdbe d698 d63e 9b19 19bc
00000080: 63ea 0b3f 75aa 1abf 190e 853f 193f e43e
00000090: b248 27bc 4356 f3bc d841 e0bc 8979 a0bc
000000a0: e969 79bc 907e 003f f38c 84bc f67d f53e
000000b0: 737a 34bf e33f a83e 098d 36bf b3ff bc3e
000000c0: a067 16bf e073 ce3e c056 043f a424 0e3f
000000d0: a17a bd3e bff7 17bf b253 023f 9a80 17bf
000000e0: f04a 70bd 0e44 20bf 4d49 993e aede 353f
000000f0: 7812 14bd 0000 0000 b130 b0bc 2e2d 143f

conv3.0.weight f4 [1, 64]
-0.36210585 0.24016301 0.2732557 -0.26093036 0.1608919 0.1860105 -0.01883283 0.3284872
-0.12000426 -0.086895086 0.36586168 0.69225377 0.28132758 0.112094715 -0.21298297 0.36654243
0.121888325 0.41056746 -0.03746369 0.53198606 0.003848369 -0.11732154 -0.02806178 -0.012925305
-0.633519 0.8465338 0.364316 -0.20872153 0.3784586 -0.10988397 -0.7901469 -0.27650398
0.09469518 -0.1294009 0.42535603 0.68096966 -0.04387616 -0.26238987 0.0030801012 -0.050689638
-0.12109123 0.06252258 -0.28320396 0.026396947 -0.22460024 0.5259001 -0.15964918 0.5682468
-0.20624736 0.1420851 0.13504094 1.0405363 0.3790325 -0.30907127 0.28390577 -0.28208378
-0.2432623 -0.2848789 0.31315163 0.036343545 -0.18932992 0.23398978 -0.014901621 0.20153373
00000000: f065 b9be 4bed 753e 2ce8 8b3e aa98 85be
00000010: d9c0 243e 8979 3e3e 4f47 9abc 792f a83e
00000020: cbc4 f5bd 0df6 b1bd 3952 bb3e 8b37 313f
00000030: 2b0a 903e ea91 e53d 3518 5abe 73ab bb3e
00000040: 96a0 f93d e635 d23e 8773 19bd 3d30 083f
00000050: eb34 7c3b 4746 f0bd d1e1 e5bc a9c4 53bc
00000060: 4d2e 22bf 70b6 583f a087 ba3e 19bb 55be
00000070: 53c5 c13e d90a e1bd 1147 4abf ee91 8dbe
00000080: 8cef c13d ab81 04be 44c8 d93e 0754 2e3f
00000090: 7db7 33bd f757 86be 86db 493b f09f 4fbd
000000a0: aefe f7bd d70b 803d 1c00 91be 693e d83c
000000b0: 9bfd 65be 64a1 063f 137b 23be 9f78 113f
000000c0: 8232 53be c27e 113e 2c48 0a3e 4b30 853f
000000d0: 8c10 c23e 973e 9ebe 195c 913e 496d 90be
000000e0: c119 79be a6db 91be 6955 a03e f8dc 143d
000000f0: b4df 41be 049b 6f3e ee25 74bc dc5e 4e3e

exp_avg f4 [64, 4]
0.0017718571 0.010362233 -0.0071985573 0.043856613 -0.0019171713 -0.2911155 2.890305 8.967989
8.0266065e-05 -0.11075565 -1.2976911 -4.8111644 0.005990161 0.014074389 -0.20044407 -0.09067631
0.0 0.0 0.0 0.0 -0.0016206219 0.6011107 2.2034109 8.796306
0.0 0.0 0.0 0.0 0.0 -6e-45 6e-45 6e-45
-0.0006479325 -1.0869787 1.7754375 3.8878322 -0.001325227 -4.370652 -1.6803327 -19.100328
0.0 0.0 0.0 0.0 0.0 -0.0013120875 -0.008297472 -0.0056667826
0.001106827 0.037201725 -3.1678758 -11.3394375 0.0 0.0 0.0 0.0
7.7230034e-05 -0.036778115 -0.1528002 -0.19552347 0.0 0.0 0.0 0.0
-0.0001750033 1.4438933 -0.352728 1.5720268 -0.00022456172 2.5430932 -2.3985422 -3.8953393
1.18196355e-11 0.030039204 0.0022376608 0.057409875 -0.0059706047 -1.6915019 16.927034 48.680195
0.0 0.0 0.0 0.0 -0.0013856478 -0.67051196 0.8640928 1.0401531
-0.006876167 -13.935482 13.877397 2.8437233 -0.0017472744 1.2557025 -3.4971006 -10.925759
0.0012758942 2.390187 -2.4659414 -3.551162 -0.0020876392 1.9516805 -2.9302826 -7.8201656
-0.006394637 0.057231657 7.951631 25.299793 0.0 0.0 0.0 0.0
0.0 0.0 0.0 0.0 0.0 0.0 0.0 0.0
-0.0014436542 0.8887616 1.4222332 7.0787992 0.0 0.0 0.0 0.0
0.0 0.0 0.0 0.0 -0.0002744235 1.1042796 -5.945075 -20.955778
0.0 0.0001341534 -0.0025686072 -0.00084392505 0.0 0.0 0.0 0.0
-0.00082700525 -1.218833 3.1100743 10.11437 0.0 -0.00028735626 -0.09957404 -0.094236605
0.0023295993 -0.12396188 0.20330471 0.52976507 -0.0011996173 -2.9877381 2.643944 1.3656657
0.0 0.0 0.0 0.0 0.0 0.0 0.0 0.0
0.0 0.0 0.0 0.0 -0.00033163372 0.5746257 0.84156334 4.381135
0.0010829003 -0.74320656 -1.8569275 -8.270863 0.0035869703 0.33398423 -0.30128956 0.7866995
0.0 0.0 0.0 0.0 0.0 0.0 0.0 0.0
-0.007797606 -0.6043456 17.128647 66.58033 0.00050602993 -1.3853137 2.497668 6.124792
0.0 -0.0002445178 -0.13688551 -0.13540128 -5.9802518e-05 -0.7386092 -0.20978105 -3.2479205
0.000237776 -0.3191784 1.1746287 2.779243 -0.00054864225 -0.6708669 2.3310757 6.082207
0.0 6e-45 6e-45 6e-45 0.00066591904 0.9398936 -2.069342 -5.3182936
-0.0018969788 -0.7582917 1.9247942 4.821667 -0.0009511484 0.095928274 0.3784906 1.5727849
0.0 0.0 0.0 0.0 0.0 -6e-45 6e-45 6e-45
-0.0004932429 1.0790627 -0.8137123 0.13684332 -0.0010410352 -0.8890526 1.3238382 2.132134
0.0 0.0 0.0 0.0 -0.00011238281 1.0233972 -3.6852493 -11.243517
00000000: a93d e83a 5bc6 293c e0e1 ebbb fea2 333d
00000010: 9849 fbba 170d 95be c2fa 3840 e27c 0f41
00000020: 8454 a838 dcd3 e2bd be1a a6bf 0ff5 99c0
00000030: 1d49 c43b 4498 663c 3641 4dbe 80b4 b9bd
00000040: 0000 0000 0000 0000 0000 0000 0000 0000
00000050: 0c6b d4ba 64e2 193f af04 0d40 abbd 0c41
00000060: 0000 0000 0000 0000 0000 0000 0000 0000
00000070: 0000 0000 0400 0080 0400 0000 0400 0000
00000080: 04da 29ba 1e22 8bbf 8941 e33f 3ed2 7840
00000090: 3db3 adba 62dc 8bc0 2415 d7bf 79cd 98c1
000000a0: 0000 0000 0000 0000 0000 0000 0000 0000
000000b0: 0000 0000 5afa abba 1ff2 07bc 6bb0 b9bb
000000c0: f412 913a d660 183d 7abe 4ac0 566e 35c1
000000d0: 0000 0000 0000 0000 0000 0000 0000 0000
000000e0: 8ff6 a138 a6a4 16bd a877 1cbe 4e37 48be
000000f0: 0000 0000 0000 0000 0000 0000 0000 0000
00000100: 1781 37b9 7fd1 b83f c498 b4be 2d38 c93f
00000110: 5478 6bb9 0ac2 2240 b781 19c0 3d4d 79c0
00000120: e8ee 4f2d c714 f63c b8a5 123b 9e26 6b3d
00000130: 10a5 c3bb 2283 d8bf 916a 8741 85b8 4242
00000140: 0000 0000 0000 0000 0000 0000 0000 0000
00000150: a09e b5ba aca6 2bbf 3035 5d3f bd23 853f
00000160: 7851 e1bb bcf7 5ec1 d109 5e41 90ff 3540
00000170: cd04 e5ba dcba a03f 7fd0 5fc0 e9cf 2ec1
00000180: e83b a73a d3f8 1840 fcd1 1dc0 3d46 63c0
00000190: c6d0 08bb abd0 f93f c089 3bc0 cc3e fac0
000001a0: 1a8a d1bb be6b 6a3d c373 fe40 fa65 ca41
000001b0: 0000 0000 0000 0000 0000 0000 0000 0000
000001c0: 0000 0000 0000 0000 0000 0000 0000 0000
000001d0: 0000 0000 0000 0000 0000 0000 0000 0000
000001e0: ff38 bdba e185 633f bd0b b63f 8685 e240
000001f0: 0000 0000 0000 0000 0000 0000 0000 0000
00000200: 0000 0000 0000 0000 0000 0000 0000 0000
00000210: 80e0 8fb9 0959 8d3f 0e3e bec0 6fa5 a7c1
00000220: 0000 0000 87ab 0c39 1456 28bb da3a 5dba
00000230: 0000 0000 0000 0000 0000 0000 0000 0000
00000240: 62cb 58ba b802 9cbf 750b 4740 76d4 2141
00000250: 0000 0000 4ea8 96b9 79ed cbbd 1fff c0bd
00000260: 31ac 183b badf fdbd 1c2f 503e af9e 073f
00000270: 7a3c 9dba 1a37 3fc0 6136 2940 22ce ae3f
00000280: 0000 0000 0000 0000 0000 0000 0000 0000
00000290: 0000 0000 0000 0000 0000 0000 0000 0000
000002a0: 0000 0000 0000 0000 0000 0000 0000 0000
000002b0: 20df adb9 ab1a 133f b270 573f 4232 8c40
000002c0: 1bf0 8d3a c942 3ebf cdaf edbf 7455 04c1
000002d0: 6013 6b3b fbff aa3e a042 9abe 2365 493f
000002e0: 0000 0000 0000 0000 0000 0000 0000 0000
000002f0: 0000 0000 0000 0000 0000 0000 0000 0000
00000300: 0f83 ffbb 65b6 1abf 7807 8941 2129 8542
00000310: 18a7 043a f651 b1bf cbd9 1f40 4cfe c340
00000320: 0000 0000 a032 80b9 b72b 0cbe a2a6 0abe
00000330: 77d4 7ab8 7e15 3dbf d8d0 56be eedd 4fc0
00000340: 8253 7939 5a6b a3be 3c5a 963f 1edf 3140
00000350: c2d2 0fba efbd 2bbf 5830 1540 71a1 c240
00000360: 0000 0000 0400 0000 0400 0000 0400 0000
00000370: 1291 2e3a de9c 703f 1970 04c0 762f aac0
00000380: 0ca4 f8ba 681f 42bf a85f f63f 194b 9a40
00000390: 7d56 79ba 0b76 c43d 85c9 c13e 0451 c93f
000003a0: 0000 0000 0000 0000 0000 0000 0000 0000
000003b0: 0000 0000 0400 0080 0400 0000 0400 0000
000003c0: f84c 01ba ba1e 8a3f 734f 50bf a820 0c3e
000003d0: 5873 88ba f498 63bf 8873 a93f e274 0840
000003e0: 0000 0000 0000 0000 0000 0000 0000 0000
000003f0: 10af ebb8 aefe 823f 20db 6bc0 72e5 33c1

exp_avg_sq f4 [64, 4]
9.3237776e-07 0.048607297 0.43372896 0.8367964 0.00021261137 8.042327 7.8467073 292.41437
2.0354433e-05 1.554811 1.0189914 34.754486 1.0529839e-05 0.36799845 2.7583177 7.7113967
0.0 0.0 0.0 0.0 9.6343494e-05 1.734394 3.5301814 108.5479
0.0 0.0 0.0 0.0 0.0 0.00406997 0.026812615 0.029274883
0.00010882515 11.31937 4.2644835 193.66263 0.00016563211 81.87786 12.997608 774.92993
0.0 0.0 0.0 0.0 0.0 0.007464261 0.040826958 0.05237074
0.0001956413 4.5629034 6.84349 231.92993 0.0 0.0 0.0 0.0
5.3301056e-07 0.009204392 0.09406928 0.18040033 0.0 0.0 0.0 0.0
5.4338216e-06 2.5927389 0.525469 22.54067 0.00012844797 17.943708 5.2057395 253.211
5.9503355e-07 0.7385027 0.12921566 4.512061 0.005044129 373.74875 198.10016 8086.9067
0.0 0.0 0.0 0.0 9.762303e-06 2.9337034 0.7735745 30.756845
0.009169769 1192.5267 381.5793 17226.29 0.00022767558 6.6818433 8.377727 305.5345
0.00019849975 21.19019 7.385759 334.6153 0.00023847945 12.442259 8.419889 339.2512
0.0010806216 43.653305 53.158756 1598.6871 0.0 0.0 0.0 0.0
0.0 0.0 0.0 0.0 0.0 0.0 0.0 0.0
6.743365e-05 4.8717914 2.8521802 101.48424 0.0 0.0 0.0 0.0
0.0 0.0 0.0 0.0 0.00056313735 13.470021 9.825804 602.308
0.0 0.007847862 0.03370699 0.052770805 0.0 0.0 0.0 0.0
0.0002896558 12.436542 9.590008 388.82498 0.0 0.0011317141 0.03056489 0.03492548
8.188339e-06 12.652807 1.8189297 59.715347 0.00012005856 38.64026 7.9554515 423.39963
0.0 0.0 0.0 0.0 0.0 0.0 0.0 0.0
0.0 0.0 0.0 0.0 1.0449607e-05 2.4378242 0.7002423 22.573786
6.8039226e-05 2.90684 2.7447243 91.6868 1.6727623e-05 2.0598912 2.0947123 27.120638
0.0 0.0 0.0 0.0 0.0 0.0 0.0 0.0
0.0060689165 49.48699 191.92233 7082.81 0.00016021333 11.39529 5.893414 242.19034
0.0 0.0015884907 0.058121417 0.041848544 3.5704015e-06 3.8841753 0.5256985 30.995321
3.371185e-05 0.98744035 1.1175171 40.01316 0.00012907325 4.833936 5.132037 188.0298
0.0 6.985094e-05 0.007161378 0.0031625703 0.00012304603 4.668097 4.58322 157.4379
8.426724e-05 7.6119413 3.3312945 138.16705 1.9113897e-06 0.80401754 0.14251885 5.253686
0.0 0.0 0.0 0.0 0.0 9.405132e-05 0.0133849755 0.00525135
2.6315141e-05 3.8550136 1.4218317 55.55212 4.7659727e-05 7.9805107 2.3763883 97.63342
0.0 0.0 0.0 0.0 0.00033203242 10.513124 11.461026 416.798
00000000: 8348 7a35 7218 473d b911 de3e 4a38 563f
00000010: 6ef0 5e39 5fad 0041 3a18 fb40 0a35 9243
00000020: d0be aa37 0c04 c73f 4f6e 823f 9804 0b42
00000030: 50a9 3037 4b6a bc3e 4788 3040 c3c3 f640
00000040: 0000 0000 0000 0000 0000 0000 0000 0000
00000050: 050c ca38 9f00 de3f 7eee 6140 8618 d942
00000060: 0000 0000 0000 0000 0000 0000 0000 0000
00000070: 0000 0000 625d 853b 21a6 db3c e1d1 ef3c
00000080: 0f39 e438 241c 3541 a676 8840 a2a9 4143
00000090: 88ad 2d39 77c1 a342 34f6 4f41 84bb 4144
000000a0: 0000 0000 0000 0000 0000 0000 0000 0000
000000b0: 0000 0000 c296 f43b 2b3a 273d b382 563d
000000c0: 1025 4d39 4e03 9240 dffd da40 10ee 6743
000000d0: 0000 0000 0000 0000 0000 0000 0000 0000
000000e0: 3514 0f35 05ce 163c 65a7 c03d ddba 383e
000000f0: 0000 0000 0000 0000 0000 0000 0000 0000
00000100: 2c54 b636 6fef 2540 2385 063f 4b53 b441
00000110: fdaf 0639 b78c 8f41 6b95 a640 0436 7d43
00000120: 65ba 1f35 830e 3d3f 1c51 043e ce62 9040
00000130: 3949 a53b d7df ba43 a419 4643 41b7 fc45
00000140: 0000 0000 0000 0000 0000 0000 0000 0000
00000150: c6c8 2337 ccc1 3b40 fa08 463f 050e f641
00000160: cc3c 163c db10 9544 27ca be43 9494 8646
00000170: 33bc 6e39 a9d1 d540 2b0b 0641 6ac4 9843
00000180: 5f24 5039 8285 a941 2358 ec40 c24e a743
00000190: 5710 7a39 7e13 4741 deb7 0641 27a0 a943
000001a0: a5a3 8d3a fc9c 2e42 91a2 5442 fdd5 c744
000001b0: 0000 0000 0000 0000 0000 0000 0000 0000
000001c0: 0000 0000 0000 0000 0000 0000 0000 0000
000001d0: 0000 0000 0000 0000 0000 0000 0000 0000
000001e0: 2a6b 8d38 b7e5 9b40 1f8a 3640 eef7 ca42
000001f0: 0000 0000 0000 0000 0000 0000 0000 0000
00000200: 0000 0000 0000 0000 0000 0000 0000 0000
00000210: 829f 133a 3585 5741 7e36 1d41 b693 1644
00000220: 0000 0000 5294 003c 5710 0a3d 3326 583d
00000230: 0000 0000 0000 0000 0000 0000 0000 0000
00000240: f2dc 9739 13fc 4641 ac70 1941 9969 c243
00000250: 0000 0000 0656 943a 3863 fa3c 050e 0f3d
00000260: a660 0937 e671 4a41 b0d2 e83f 84dc 6e42
00000270: f3c7 fb38 a08f 1a42 0f93 fe40 27b3 d343
00000280: 0000 0000 0000 0000 0000 0000 0000 0000
00000290: 0000 0000 0000 0000 0000 0000 0000 0000
000002a0: 0000 0000 0000 0000 0000 0000 0000 0000
000002b0: b850 2f37 5005 1c40 1443 333f 1d97 b441
000002c0: 48b0 8e38 ab09 3a40 90a9 2f40 a45f b742
000002d0: 4c52 8c37 42d5 0340 c40f 0640 11f7 d841
000002e0: 0000 0000 0000 0000 0000 0000 0000 0000
000002f0: 0000 0000 0000 0000 0000 0000 0000 0000
00000300: c3dd c63b aef2 4542 1eec 3f43 7b56 dd45
00000310: f0fe 2739 1c53 3641 d996 bc40 ba30 7243
00000320: 0000 0000 e734 d03a b910 6e3d 6169 2b3d
00000330: 089b 6f36 5496 7840 2d94 063f 6bf6 f741
00000340: d365 0d38 e4c8 7c3f cd0a 8f3f 7a0d 2042
00000350: d657 0739 9baf 9a40 a639 a440 a107 3c43
00000360: 0000 0000 f07c 9238 fea9 ea3b 2043 4f3b
00000370: eb05 0139 0d61 9540 bda9 9240 1a70 1d43
00000380: a1b8 b038 0695 f340 ee33 5540 c42a 0a43
00000390: 6d45 0036 18d4 4d3f 76f0 113e 321e a840
000003a0: 0000 0000 0000 0000 0000 0000 0000 0000
000003b0: 0000 0000 6b3d c538 a84c 5b3c 8413 ac3b
000003c0: 56bf dc37 8bb8 7640 95fe b53f 5f35 5e42
000003d0: 3ee6 4738 5860 ff40 bf16 1840 5044 c342
000003e0: 0000 0000 0000 0000 0000 0000 0000 0000
000003f0: a314 ae39 c235 2841 5d60 3741 2566 d043

exp_avg f4 [64]
-0.026236247 0.09123969 -0.035383232 -0.02342055 0.0 0.09423989 0.0 -0.0005437798
0.024821058 -0.18491843 0.0 0.0008163612 -0.13071682 0.0 -0.031390585 0.0
0.018383456 -0.017901238 -0.0022087577 0.3320194 0.0 -0.016740564 -0.051891387 -0.038752444
-0.014926538 -0.029158872 0.2524464 0.0 0.0 0.0 0.09430725 0.0
0.0 -0.1325247 0.00054298854 0.0 0.08722163 -0.03687314 -0.06510681 -0.06594874
0.0 0.0 0.0 0.05021541 -0.091801904 -0.09632401 0.0 0.0
0.50405264 0.06197402 -0.04612313 -0.05569426 0.024872147 0.06883119 0.0018564883 -0.045804553
0.024427844 0.030932682 0.0 0.013933031 0.011184273 0.0070848577 0.0 -0.13876128
00000000: 66ed d6bc e0db ba3d 02ee 10bd 74dc bfbc
00000010: 0000 0000 d800 c13d 0000 0000 728c 0eba
00000020: 8855 cb3c 425b 3dbe 0000 0000 1301 563a
00000030: a1da 05be 0000 0000 6a93 00bd 0000 0000
00000040: e798 963c 9ea5 92bc cec0 10bb 72fe a93e
00000050: 0000 0000 8223 89bc 108c 54bd e2ba 1ebd
00000060: 708e 74bc 96de eebc a840 813e 0000 0000
00000070: 0000 0000 0000 0000 2924 c13d 0000 0000
00000080: 0000 0000 8eb4 07be 5857 0e3a 0000 0000
00000090: 41a1 b23d 4a08 17bd b856 85bd 2210 87bd
000000a0: 0000 0000 0000 0000 0000 0000 acae 4d3d
000000b0: a302 bcbd 8645 c5bd 0000 0000 0000 0000
000000c0: 9809 013f 78d8 7d3d 9beb 3cbd aa1f 64bd
000000d0: acc0 cb3c 5ef7 8c3d 6955 f33a 8e9d 3bbd
000000e0: e71c c83c 8966 fd3c 0000 0000 5e47 643c
000000f0: 3e3e 373c 1828 e83b 0000 0000 7017 0ebe

exp_avg_sq f4 [64]
0.01991144 0.038632717 0.0039398074 0.016323352 0.0 0.021401025 0.0 0.007364981
0.016124388 0.038219467 0.0 0.010078267 0.030918928 0.0 0.00662829 0.0
0.0017629435 0.017887974 0.00039655328 0.7624486 0.0 0.0024134188 1.3714712 0.027971666
0.030500904 0.031915937 0.19399402 0.0 0.0 0.0 0.017231064 0.0
0.0 0.044987727 0.0057912217 0.0 0.036258537 0.0028730012 0.014241088 0.026959324
0.0 0.0 0.0 0.0027781285 0.012817313 0.027682904 0.0 0.0
0.9175318 0.027960924 0.010693076 0.0025121479 0.004477778 0.025270019 0.0060856943 0.021177545
0.015531357 0.0015579127 0.0 0.019697942 0.0053325268 0.013307238 0.0 0.04991127
00000000: 511d a33c 573d 1e3d 8019 813b 8db8 853c
00000010: 0000 0000 3451 af3c 0000 0000 f055 f13b
00000020: 4b17 843c 048c 1c3d 0000 0000 511f 253c
00000030: b149 fd3c 0000 0000 2032 d93b 0000 0000
00000040: 9112 e73a cd89 923c 7be8 cf39 d52f 433f
00000050: 0000 0000 732a 1e3b 5e8c af3f d624 e53c
00000060: 08dd f93c 49ba 023d 5ea6 463e 0000 0000
00000070: 0000 0000 0000 0000 2928 8d3c 0000 0000
00000080: 0000 0000 0d45 383d 4ac4 bd3b 0000 0000
00000090: d583 143d f648 3c3b 7453 693c cdd9 dc3c
000000a0: 0000 0000 0000 0000 0000 0000 4311 363b
000000b0: b5ff 513c 42c7 e23c 0000 0000 0000 0000
000000c0: 5de3 6a3f 4f0e e53c 0332 2f3c d9a2 243b
000000d0: 53ba 923b 1203 cf3c 816a c73b 887c ad3c
000000e0: 3c77 7e3c e032 cc3a 0000 0000 945d a13c
000000f0: 7abc ae3b 9a06 5a3c 0000 0000 c36f 4c3d

exp_avg f4 [64, 64]
-0.0066188383 -0.00038409454 -0.0022307402 -0.0036453474 0.0 -0.004864074 0.0 -0.00091166975
-0.0016155735 -1.8361257e-05 0.0 -0.0009734513 -0.003034661 0.0 -0.0058192625 0.0
0.0013076435 -0.004453815 -0.00033265003 -0.0060086376 0.0 -0.010690454 -0.007822884 6e-45
-0.004210245 0.0 -0.007323356 0.0 0.0 0.0 -0.0033882284 0.0
0.0 6e-45 -0.001011665 0.0 0.00040755747 -0.0041047954 -0.011109856 -0.012572977
0.0 0.0 0.0 -0.006960919 -0.005094618 -0.011938706 0.0 0.0
-0.004597864 -0.004568947 -0.004662818 -0.010923586 -0.00481322 -0.009311865 -0.00067856186 0.0005900189
-0.008529448 -0.003296434 0.0 -0.00068458356 1.5759854e-20 -0.004339591 0.0 -0.0009585372
0.0 6e-45 6e-45 6e-45 0.0 6e-45 0.0 0.0
6e-45 0.0 0.0 0.0 6e-45 0.0 0.0 0.0
6e-45 6e-45 6e-45 6e-45 0.0 6e-45 0.0 0.0
6e-45 6e-45 0.0 0.0 0.0 0.0 6e-45 0.0
0.0 0.0 0.0 0.0 6e-45 0.0 0.0 6e-45
0.0 0.0 0.0 6e-45 6e-45 0.0 0.0 0.0
6e-45 6e-45 0.0 6e-45 6e-45 6e-45 0.0 6e-45
6e-45 6e-45 0.0 0.0 6e-45 6e-45 0.0 6e-45
0.008162197 0.8454743 1.8465933 0.006509964 0.0 0.9257077 0.0 0.00069363206
0.40519172 0.12980346 0.0 0.0009610108 1.0618623 0.0 0.002956106 0.0
1.845502 1.2326115 0.00019673734 0.06637412 0.0 1.6913232 0.055432312 0.484325
1.6280622 0.44960946 0.11246741 0.0 0.0 0.0 1.4060519 0.0
0.0 0.21395332 0.0009727316 0.0 0.21361825 0.0027482938 0.17140417 0.31984505
0.0 0.0 0.0 1.089185 2.2488685 0.19340916 0.0 0.0
0.25305396 0.2586461 0.0032820406 0.711581 0.15684083 0.73152626 0.00051641796 1.3511305
1.5674556 0.352863 0.0 0.00052116084 0.9654261 1.472584 0.0 1.0453604
6e-45 6e-45 6e-45 6e-45 0.0 6e-45 0.0 6e-45
0.0 6e-45 0.0 6e-45 6e-45 0.0 6e-45 0.0
6e-45 6e-45 0.0 6e-45 0.0 6e-45 6e-45 6e-45
6e-45 0.0 6e-45 0.0 0.0 0.0 6e-45 0.0
0.0 6e-45 6e-45 0.0 6e-45 6e-45 6e-45 6e-45
0.0 0.0 0.0 6e-45 6e-45 6e-45 0.0 0.0
6e-45 6e-45 6e-45 6e-45 6e-45 6e-45 6e-45 6e-45
6e-45 6e-45 0.0 6e-45 6e-45 6e-45 0.0 6e-45
00000000: d7e2 d8bb 4c60 c9b9 9c31 12bb c8e6 6ebb
00000010: 0000 0000 cf62 9fbb 0000 0000 1ffd 6eba
00000020: a7c1 d3ba 8006 9ab7 0000 0000 362f 7fba
00000030: 2ae1 46bb 0000 0000 83af bebb 0000 0000
00000040: 3c65 ab3a 4ff1 91bb 8867 aeb9 1be4 c4bb
00000050: 0000 0000 0427 2fbc 8e2b 00bc 0400 0000
00000060: 18f6 89bb 0000 0000 c3f8 efbb 0000 0000
00000070: 0000 0000 0000 0000 0a0d 5ebb 0000 0000
00000080: 0000 0000 0400 0000 d899 84ba 0000 0000
00000090: 70ad d539 8581 86bb 1d06 36bc e3fe 4dbc
000000a0: 0000 0000 0000 0000 0000 0000 6c18 e4bb
000000b0: c1f0 a6bb 909a 43bc 0000 0000 0000 0000
000000c0: aea9 96bb 1bb7 95bb 8dca 98bb d7f8 32bc
000000d0: 37b8 9dbb cb90 18bc 84e1 31ba 80ab 1a3a
000000e0: 19bf 0bbc fc08 58bb 0000 0000 a075 33ba
000000f0: fdd8 941e 2133 8ebb 0000 0000 5846 7bba
00000100: 0000 0000 0400 0000 0400 0000 0400 0000
00000110: 0000 0000 0400 0000 0000 0000 0000 0000
00000120: 0400 0000 0000 0000 0000 0000 0000 0000
00000130: 0400 0000 0000 0000 0000 0000 0000 0000
00000140: 0400 0000 0400 0000 0400 0000 0400 0000
00000150: 0000 0000 0400 0000 0000 0000 0000 0000
00000160: 0400 0000 0400 0000 0000 0000 0000 0000
00000170: 0000 0000 0000 0000 0400 0000 0000 0000
00000180: 0000 0000 0000 0000 0000 0000 0000 0000
00000190: 0400 0000 0000 0000 0000 0000 0400 0000
000001a0: 0000 0000 0000 0000 0000 0000 0400 0000
000001b0: 0400 0000 0000 0000 0000 0000 0000 0000
000001c0: 0400 0000 0400 0000 0000 0000 0400 0000
000001d0: 0400 0000 0400 0000 0000 0000 0400 0000
000001e0: 0400 0000 0400 0000 0000 0000 0000 0000
000001f0: 0400 0000 0400 0000 0000 0000 0400 0000
00000200: bcba 053c 0171 583f 2b5d ec3f 8951 d53b
00000210: 0000 0000 2efb 6c3f 0000 0000 dcd4 353a
00000220: 4a75 cf3e 33eb 043e 0000 0000 58ec 7b3a
00000230: 1beb 873f 0000 0000 3bbb 413b 0000 0000
00000240: 6939 ec3f 37c6 9d3f 474b 4e39 28ef 873d
00000250: 0000 0000 477d d83f fe0c 633d 72f9 f73e
00000260: 5864 d03f 3633 e63e 5055 e63d 0000 0000
00000270: 0000 0000 0000 0000 82f9 b33f 0000 0000
00000280: 0000 0000 9416 5b3e eafe 7e3a 0000 0000
00000290: bebe 5a3e b81c 343b 9384 2f3e bbc2 a33e
000002a0: 0000 0000 0000 0000 0000 0000 6a6a 8b3f
000002b0: 76ed 0f40 0d0d 463e 0000 0000 0000 0000
000002c0: 4a90 813e 436d 843e 8117 573b 2c2a 363f
000002d0: e29a 203e 4e45 3b3f 3960 073a d8f1 ac3f
000002e0: 63a2 c83f 76aa b43e 0000 0000 839e 083a
000002f0: 2a26 773f a27d bc3f 0000 0000 5fce 853f
00000300: 0400 0000 0400 0000 0400 0000 0400 0000
00000310: 0000 0000 0400 0000 0000 0000 0400 0000
00000320: 0000 0000 0400 0000 0000 0000 0400 0000
00000330: 0400 0000 0000 0000 0400 0000 0000 0000
00000340: 0400 0000 0400 0000 0000 0000 0400 0000
00000350: 0000 0000 0400 0000 0400 0000 0400 0000
00000360: 0400 0000 0000 0000 0400 0000 0000 0000
00000370: 0000 0000 0000 0000 0400 0000 0000 0000
00000380: 0000 0000 0400 0000 0400 0000 0000 0000
00000390: 0400 0000 0400 0000 0400 0000 0400 0000
000003a0: 0000 0000 0000 0000 0000 0000 0400 0000
000003b0: 0400 0000 0400 0000 0000 0000 0000 0000
000003c0: 0400 0000 0400 0000 0400 0000 0400 0000
000003d0: 0400 0000 0400 0000 0400 0000 0400 0000
000003e0: 0400 0000 0400 0000 0000 0000 0400 0000
000003f0: 0400 0000 0400 0000 0000 0000 0400 0000

exp_avg_sq f4 [64, 64]
3.8614944e-05 0.00016634344 1.7324159e-05 9.4508476e-07 0.0 0.000118394164 0.0 1.6732969e-05
0.00021740096 0.00018210933 0.0 1.8806484e-05 6.157193e-07 0.0 3.366495e-05 0.0
2.1668354e-06 1.1499297e-06 1.6391969e-06 0.00030922634 0.0 0.00036748394 0.0003611103 6.743246e-11
3.008445e-06 0.0 0.00019704946 0.0 0.0 0.0 0.000119174736 0.0
0.0 3.411815e-12 2.2497645e-05 0.0 0.00020585796 2.443988e-05 0.0001052761 0.0002739738
0.0 0.0 0.0 3.9603518e-05 2.1017904e-05 3.2492415e-05 0.0 0.0
0.000118287106 0.0001254893 3.1102147e-05 7.4368094e-05 9.419622e-05 0.00015852443 1.0581362e-05 4.5892047e-08
0.00026396336 9.382288e-06 0.0 1.149984e-05 1.1148198e-09 0.0001839783 0.0 1.0144704e-07
0.0 3.4472005e-11 4.2981712e-11 5.6254085e-13 0.0 3.4451244e-11 0.0 0.0
3.5241627e-12 0.0 0.0 0.0 3.4335607e-12 0.0 0.0 0.0
4.2219044e-11 2.1927665e-11 7.047884e-16 8.9090714e-13 0.0 5.592569e-11 0.0 0.0
3.4758446e-11 2.617378e-12 0.0 0.0 0.0 0.0 5.69445e-11 0.0
0.0 0.0 0.0 0.0 1.5502586e-12 0.0 0.0 5.6527434e-13
0.0 0.0 0.0 6.347222e-11 5.2080566e-11 0.0 0.0 0.0
1.310847e-12 7.675189e-12 0.0 9.11188e-12 1.3601155e-11 4.085402e-11 0.0 2.1381445e-11
4.8729864e-11 4.572494e-11 0.0 0.0 1.7518624e-11 4.277574e-11 0.0 5.374087e-12
0.00021156328 0.75582236 2.2815144 0.00015350449 0.0 0.804374 0.0 1.1443279e-05
0.27677706 0.07009667 0.0 1.2795983e-05 0.61259377 0.0 0.00017754886 0.0
2.452959 0.777555 0.029536633 0.010020293 0.0 1.8759352 0.0065771365 0.27825758
1.51969 0.39848384 0.0080111185 0.0 0.0 0.0 1.6880518 0.0
0.0 0.040388074 1.6029166e-05 0.0 0.1465681 4.9377126e-05 0.017757576 0.034805264
0.0 0.0 0.0 0.9379682 2.8916757 0.018632984 0.0 0.0
0.022900326 0.09537268 3.111919e-05 0.22551604 0.057136446 0.4231346 7.3370793e-06 1.3196672
1.7176094 0.2605079 0.0 8.001735e-06 0.78787273 1.6322925 0.0 0.54503167
1.321253e-07 1.01514914e-07 3.6768583e-08 6.997488e-09 0.0 9.59425e-08 0.0 1.2228173e-07
0.0 4.295818e-08 0.0 1.2055641e-07 2.0500284e-09 0.0 8.5984205e-08 0.0
4.245749e-09 2.2588589e-08 0.0 1.02209746e-07 0.0 4.8544255e-08 1.207614e-07 3.2411307e-15
2.0148418e-08 0.0 1.1799178e-07 0.0 0.0 0.0 6.572376e-08 0.0
0.0 3.6583543e-13 1.2727892e-07 0.0 1.7986727e-08 6.3497e-08 7.197118e-08 8.575885e-08
0.0 0.0 0.0 3.1886046e-08 1.7728846e-08 4.9024756e-08 0.0 0.0
1.596544e-07 9.2619025e-08 1.606326e-07 7.7174e-08 9.053322e-08 1.14720784e-07 7.1218196e-08 5.7997873e-10
7.793924e-08 8.2516394e-08 0.0 7.236807e-08 2.9982278e-12 1.06272836e-07 0.0 1.505114e-09
00000000: 7bf6 2138 7a6c 2e39 5953 9137 bbb1 7d35
00000010: 0000 0000 624a f838 0000 0000 c75d 8c37
00000020: 20f6 6339 9af4 3e39 0000 0000 9ec2 9d37
00000030: e847 2535 0000 0000 7733 0d38 0000 0000
00000040: f369 1136 4957 9a35 6002 dc35 a81f a239
00000050: 0000 0000 dcaa c039 6753 bd39 1a49 942e
00000060: b1e4 4936 0000 0000 109f 4e39 0000 0000
00000070: 0000 0000 0000 0000 73ed f938 0000 0000
00000080: 0000 0000 cc15 702c 53b9 bc37 0000 0000
00000090: 93db 5739 3e04 cd37 adc7 dc38 24a4 8f39
000000a0: 0000 0000 0000 0000 0000 0000 f41b 2638
000000b0: 9b4f b037 7748 0838 0000 0000 0000 0000
000000c0: e810 f838 c795 0339 ad73 0238 11f6 9b38
000000d0: 368b c538 9439 2639 9b86 3137 d71a 4533
000000e0: 9064 8a39 9f68 1d37 0000 0000 70ef 4037
000000f0: 3c38 9930 4dea 4039 0000 0000 1adb d933
00000100: 0000 0000 079c 172e 1b09 3d2e 5757 1e2b
00000110: 0000 0000 a784 172e 0000 0000 0000 0000
00000120: acfd 772c 0000 0000 0000 0000 0000 0000
00000130: 889d 712c 0000 0000 0000 0000 0000 0000
00000140: 6bae 392e b6e0 c02d 3424 4b26 a0c4 7a2b
00000150: 0000 0000 bbf6 752e 0000 0000 0000 0000
00000160: 88de 182e 7e2e 382c 0000 0000 0000 0000
00000170: 0000 0000 0000 0000 cf71 7a2e 0000 0000
00000180: 0000 0000 0000 0000 0000 0000 0000 0000
00000190: f42d da2b 0000 0000 0000 0000 4f1c 1f2b
000001a0: 0000 0000 0000 0000 0000 0000 af93 8b2e
000001b0: 810d 652e 0000 0000 0000 0000 0000 0000
000001c0: 3e7c b82b fa05 072d 0000 0000 424c 202d
000001d0: 2846 6f2d 8aad 332e 0000 0000 bc12 bc2d
000001e0: f350 562e b519 492e 0000 0000 0000 0000
000001f0: 6f18 9a2d 3421 3c2e 0000 0000 7915 bd2c
00000200: 16d7 5d39 937d 413f 5504 1240 0cf6 2039
00000210: 0000 0000 74eb 4d3f 0000 0000 82fc 3f37
00000220: b9b5 8d3e d88e 8f3d 0000 0000 54ae 5637
00000230: f2d2 1c3f 0000 0000 692c 3a39 0000 0000
00000240: 48fd 1c40 d80d 473f cff6 f13c 282c 243c
00000250: 0000 0000 a51e f03f 0585 d73b c777 8e3e
00000260: 3485 c23f 1306 cc3e 1141 033c 0000 0000
00000270: 0000 0000 0000 0000 1512 d83f 0000 0000
00000280: 0000 0000 f76d 253d 5f76 8637 0000 0000
00000290: f315 163e 491a 4f38 5678 913c f78f 0e3d
000002a0: 0000 0000 0000 0000 0000 0000 af1e 703f
000002b0: 3711 3940 33a4 983c 0000 0000 0000 0000
000002c0: 7799 bb3c c052 c33d fa85 0238 aded 663e
000002d0: e807 6a3d 19a5 d83e 0831 f636 dbea a83f
000002e0: a0da db3f 4b61 853e 0000 0000 313f 0637
000002f0: 07b2 493f f6ee d03f 0000 0000 3287 0b3f
00000300: 53de 0d34 6a00 da33 7ceb 1d33 8e6e f031
00000310: 0000 0000 f208 ce33 0000 0000 8c4c 0334
00000320: 0000 0000 0581 3833 0000 0000 4b72 0134
00000330: 7be0 0c31 0000 0000 51a6 b833 0000 0000
00000340: 01e2 9131 d508 c232 0000 0000 677e db33
00000350: 0000 0000 f97e 5033 a4aa 0134 4f8c 6927
00000360: d712 ad32 0000 0000 ab62 fd33 0000 0000
00000370: 0000 0000 0000 0000 0524 8d33 0000 0000
00000380: 0000 0000 71f2 cd2a 2aaa 0834 0000 0000
00000390: 3b81 9a32 d85b 8833 938e 9a33 6d2a b833
000003a0: 0000 0000 0000 0000 0000 0000 14f3 0833
000003b0: 254a 9832 4a8f 5233 0000 0000 0000 0000
000003c0: 786d 2b34 d9e5 c633 5a7a 2c34 dbba a533
000003d0: 2a6b c233 6b5c f633 9ef0 9833 606c 1f30
000003e0: 8d5f a733 de33 b133 0000 0000 c468 9b33
000003f0: 45fb 522c 1c38 e433 0000 0000 7edc ce30

exp_avg f4 [64]
-0.0066230986 6e-45 0.027333394 6e-45 -0.01765967 -0.02044253 0.0009169723 -0.035796452
0.025302572 0.010294129 -0.039473407 0.044628374 -0.030742586 0.0023142546 6e-45 0.068172835
6e-45 0.054640815 0.0029751083 0.07491127 6e-45 6e-45 2.5754278e-34 6e-45
-0.016837517 0.068140715 -0.013559051 -0.006866631 0.084292926 2.1445986e-11 -0.03158756 1.3917235e-18
-0.004725783 0.018045522 -0.046364337 0.099396706 6e-45 3.2592904e-19 2.4448413e-33 6e-45
6e-45 -0.007182429 6.1396077e-22 -0.0030382217 0.037975185 0.047867153 0.025904082 0.109925136
0.02886081 0.0067652687 -0.014916406 0.15272266 0.01879008 0.036987796 -0.030941933 0.03950072
2.5315576e-12 0.04517477 0.008637501 -0.0043329964 9.437759e-39 0.0 6e-45 -0.017259099
00000000: 9406 d9bb 0400 0000 48ea df3c 0400 0000
00000010: 03ab 90bc 1877 a7bc f860 703a 4d9f 12bd
00000020: 5747 cf3c b5a8 283c deae 21bd 3ecc 363d
00000030: e0d7 fbbc c0aa 173b 0400 0000 339e 8b3d
00000040: 0400 0000 0ccf 5f3d 09fa 423b 146b 993d
00000050: 0400 0000 0400 0000 a22a ab07 0400 0000
00000060: d5ee 89bc 5c8d 8b3d c826 5ebc 7a01 e1bb
00000070: c5a1 ac3d 11a4 bc2d f561 01bd d461 cd21
00000080: beda 9abb 34d4 933c 88e8 3dbd 8090 cb3d
00000090: 0400 0000 0165 c020 061c 4b09 0400 0000
000000a0: 0400 0000 955a ebbb ea8e 391c e71c 47bb
000000b0: de8b 1b3d 5910 443d cc34 d43c 6e20 e13d
000000c0: 816d ec3c 30af dd3b f163 74bc 5463 1c3e
000000d0: a7ed 993c 8480 173d f079 fdbc 82cb 213d
000000e0: 7d24 322c 2e09 393d 4e84 0d3c cffb 8dbb
000000f0: a2c4 6600 0000 0000 0400 0000 f462 8dbc

exp_avg_sq f4 [64]
0.00031172007 3.7640207e-11 0.002962532 2.4419728e-06 0.004278101 0.0056602266 1.52847e-05 0.0163494
0.0011415547 0.0009770923 0.007327138 0.023876099 0.01333901 0.0006533766 1.425922e-06 0.0072839647
9.9544695e-12 0.0072969934 0.0001717759 0.017271673 3.4073246e-09 6.039242e-05 5.6191416e-06 7.2101976e-08
0.0026576528 0.034693506 0.01611069 0.0048151514 0.011821594 0.0006312632 0.0093993945 4.2401857e-07
0.0012517611 0.0021414135 0.011456685 0.021714209 3.1852292e-07 4.9650567e-05 4.0278759e-13 1.5719479e-07
1.3217436e-06 0.0007483856 0.00021608961 0.00015209254 0.005504865 0.018895963 0.0024888897 0.0148632005
0.0056201536 0.001674008 0.0031235258 0.044247553 0.010879956 0.0110228015 0.012986204 0.009327141
3.6714573e-05 0.009211171 0.004961207 0.00026075935 0.00032884322 0.0 3.4355185e-06 0.0045679063
00000000: 5c6e a339 1b8b 252e 0a27 423b c6e0 2336
00000010: 502f 8c3b 6c79 b93b a537 8037 2def 853c
00000020: 38a0 953a c711 803a 7d18 f03b cf97 c33c
00000030: dd8b 5a3c 5d47 2b3a 4f62 bf35 53ae ee3b
00000040: f21e 2f2d 9e1b ef3b be1e 3439 537d 8d3c
00000050: 4a26 6a31 de4d 7d38 0f8c bc36 7bd6 9a33
00000060: 042c 2e3b c71a 0e3d 91fa 833c 6bc8 9d3b
00000070: 5caf 413c 5b7b 253a ebff 193c aba4 e334
00000080: 2212 a43a f556 0c3b d2b4 3b3c ffe1 b13c
00000090: 7501 ab34 e43f 5038 cfbf e22a 60c9 2834
000000a0: c466 b135 4f2f 443a 1d96 6239 087b 1f39
000000b0: 2862 b43b b5cb 9a3c a41c 233b c884 733c
000000c0: 4429 b83b 636a db3a 11b4 4c3b ec3c 353d
000000d0: d841 323c fb98 343c 16c4 543c ddd0 183c
000000e0: f9fd 1938 74ea 163c 9f91 a23b 87b6 8839
000000f0: 9768 ac39 0000 0000 c28d 6636 60ae 953b

exp_avg f4 [1, 64]
0.019022917 6e-45 0.7165529 -6e-45 1.1135496 -0.6698381 -0.0020124798 1.1331797
-2.722529 -1.1372619 0.75277513 1.4626021 -0.4581783 0.8580947 -6e-45 0.3857385
6e-45 0.1537812 -0.078341484 0.70189124 -6e-45 -6e-45 -1.5493268e-34 -6e-45
0.08801081 1.0049708 2.2799528 0.20784125 0.5410618 -1.951436e-10 0.07941076 -9.154072e-20
0.8701142 -1.9676309 0.18614021 0.2070059 -6e-45 -9.6385185e-21 1.0032909e-34 -6e-45
-6e-45 -0.54143786 -1.2897932e-25 0.22883749 -1.7924602 0.05478333 -0.56371355 0.47551715
-1.1243646 0.035452146 0.20870641 0.28722122 0.033335954 -2.3375907 0.45217192 -2.3810496
-9.990828e-13 -2.2240057 0.011178693 -0.10210514 -1.4272e-41 0.0 -6e-45 1.8301858
00000000: f3d5 9b3c 0400 0000 0370 373f 0400 0080
00000010: cb88 8e3f 827a 2bbf cfe3 03bb 080c 913f
00000020: ea3d 2ec0 cc91 91bf dfb5 403f 8c36 bb3f
00000030: 5996 eabe 18ac 5b3f 0400 0080 847f c53e
00000040: 0400 0000 d278 1d3e 8071 a0bd 25af 333f
00000050: 0400 0080 0400 0080 dcf0 4d87 0400 0080
00000060: 033f b43d e2a2 803f bfea 1140 56d4 543e
00000070: 0783 0a3f 0a90 56af 1ca2 a23d f824 d89f
00000080: cebf 5e3f 54db fbbf 8a9b 3e3e 5bf9 533e
00000090: 0400 0080 0411 369e 385c 0507 0400 0080
000000a0: 0400 0080 ac9b 0abf 2eab 1f96 6054 6a3e
000000b0: 566f e5bf 7c64 603d 884f 10bf fc76 f33e
000000c0: 2eeb 8fbf 4536 113d 22b7 553e a90e 933e
000000d0: 488b 083d 169b 15c0 1483 e73e 1e63 18c0
000000e0: c09b 8cab 1c56 0ec0 d626 373c 801c d1bd
000000f0: c927 0080 0000 0000 0400 0080 8743 ea3f

exp_avg_sq f4 [1, 64]
0.013772382 9.548016e-13 1.185795 3.5848154e-11 34.796986 16.179527 0.17806183 12.881697
19.23701 35.284985 3.9396026 3.6604066 40.12537 1.064379 7.1845194e-13 0.40272713
4.4681102e-15 0.6858906 0.2604716 0.82967204 9.040862e-13 0.006224492 0.07732751 4.9759374e-10
0.062067453 1.0383545 5.5023913 3.3647802 0.75060725 0.9336237 0.071784474 7.1036063e-12
6.091421 39.099342 8.436316 0.77484673 0.0003607353 0.00034081456 6.7830975e-16 1.6076133e-11
2.289731e-12 41.595963 0.039567072 55.85992 9.249864 0.5972025 1.8331536 0.6041787
16.907755 0.45679286 12.387064 0.43553945 0.28696734 66.71485 30.872578 32.407185
7.971669e-05 42.015026 0.04366558 5.621572 0.12695152 0.0 0.19069336 3.596766
00000000: 8fa5 613c 5a60 862b 21c8 973f 6fa9 1d2e
00000010: 1d30 0b42 ac6f 8141 d755 363e 6e1b 4e41
00000020: 65e5 9941 d323 0d42 7322 7c40 1a44 6a40
00000030: 6180 2042 923d 883f eb39 4a2b 4032 ce3e
00000040: 0bfb a027 8796 2f3f 895c 853e 6365 543f
00000050: 477a 7e2b d3f6 cb3b e35d 9e3d 0cc7 0830
00000060: 713a 7e3d cde8 843f 9713 b040 8f58 5740
00000070: cc27 403f f601 6f3f bd03 933d 99ef f92c
00000080: ecec c240 ba65 1c42 26fb 0641 5b5c 463f
00000090: 1321 bd39 5baf b239 6d82 4326 3c68 8d2d
000000a0: 2020 212c 4462 2642 1511 223d 8f70 5f42
000000b0: 71ff 1341 43e2 183f c7a4 ea3f 75ab 1a3f
000000c0: 1543 8741 c1e0 e93e 6a31 4641 07ff de3e
000000d0: 62ed 923e 016e 8542 0afb f641 f5a0 0142
000000e0: 922d a738 630f 2842 aeda 323d ebe3 b340
000000f0: 94ff 013e 0000 0000 1f45 433e 6a31 6640
